ddqn_checkpoint.pth (torch_old, 28333 bytes, 6 tensors)

fc1.weight f4 [64, 37]
0	0x3c8a188c	0.016857408
1	0x3da2ffa3	0.07958915
2	0xbe3c1cec	-0.18370408
3	0xbdad9814	-0.08476272
4	0xbd042772	-0.03226418
5	0x3e089993	0.13339834
6	0xbdc11240	-0.09427309
7	0x3d1ef63f	0.038809057
8	0xbd5427e8	-0.05179587
9	0xbe24cbfa	-0.16093436
10	0xbdd0cda2	-0.10195471
11	0xbd21008a	-0.039307155
12	0xbe0a8760	-0.13528204
13	0xbca01e37	-0.019545658
14	0xbd1d92e8	-0.03847018
15	0xbbe0ac6e	-0.0068564927
16	0x3c620bc9	0.013796755
17	0x3e09017e	0.13379475
18	0xbd770e11	-0.06031615
19	0xbcd71e12	-0.026259456
20	0x3dc8d8e9	0.09806997
21	0x3da7add4	0.08187452
22	0xbc199eaf	-0.009376212
23	0x3dc7d0ca	0.0975662
24	0xbce009e8	-0.027348474
25	0x3a17282c	0.0005766179
26	0x3e179627	0.14803372
27	0xbd8605fc	-0.0654411
28	0xbdc42ea5	-0.09579209
29	0xbd1febcb	-0.03904323
30	0xbd2e4211	-0.042543475
31	0x3dace73b	0.08442541
32	0xbdd12065	-0.10211257
33	0xbcf12c20	-0.029439986
34	0xbe03b427	-0.12861691
35	0xbdb167eb	-0.08662399
36	0xbdbc0244	-0.0918012
37	0x3e44237b	0.1915416
38	0x3dde147e	0.10843752
39	0x3d7de375	0.061984498
40	0x3c53b4b7	0.012921504
41	0xbd8e0dc3	-0.069362186
42	0x3dde1757	0.108442955
43	0xbe390599	-0.18068542
44	0xbe065221	-0.13117267
45	0xbdee9d4b	-0.11651095
46	0xbe286fae	-0.16448852
47	0x3d2d1ad1	0.042261902
48	0xbd3105fb	-0.043218594
49	0x3d8606cf	0.065442674
50	0x3e3663fd	0.1781158
51	0x3e1f39f6	0.15549454
52	0x3e05c243	0.13062386
53	0x3ae54da8	0.0017494457
54	0x3da95404	0.08267978
55	0xbcfdadea	-0.030966718
56	0xbdaa232d	-0.083074905
57	0xbd964035	-0.07336465
58	0xbd84814a	-0.064699724
59	0xbda9bd8d	-0.08288107
60	0x3d7b0638	0.061285228
61	0x3df5beae	0.1199926
62	0x3c73b1c3	0.014873925
63	0x3b38a479	0.0028174205
64	0x3d409f2a	0.04702679
65	0xbd163c36	-0.036678515
66	0xbe5a430c	-0.21314639
67	0x3d762b6f	0.060100015
68	0x3dfa7eb5	0.12231199
69	0x3e251697	0.16121899
70	0xbd5a9fe8	-0.053375155
71	0xbd3ff653	-0.046865772
72	0x3ce6bb09	0.028165357
73	0x3dd8b56b	0.10581478
74	0x3db43e39	0.088009305
75	0x3deb508c	0.114899725
76	0x3e1e1e63	0.15441279
77	0x3c67b392	0.014141934
78	0x3bcd9db1	0.006274902
79	0xbe9217fa	-0.28533918
80	0x3d49b76a	0.049247183
81	0x3ea3837d	0.31936255
82	0x3d485b1b	0.04891501
83	0xbe9b3db0	-0.303205
84	0x3d23fadc	0.04003416
85	0x3c64327e	0.013928054
86	0x3aac570b	0.00131485
87	0x3c18888b	0.009309898
88	0x3d5b5790	0.053550303
89	0xbdbb5faa	-0.09149106
90	0x3dd912ee	0.10599314
91	0x3e112f49	0.14178194
92	0x3dcaedf1	0.09908665
93	0xbd18bed1	-0.03729135
94	0xbe34ccfd	-0.17656322
95	0x3c63712c	0.013881963
96	0x3dc50997	0.0962097
97	0x3bfbc676	0.0076835705
98	0xbd33d794	-0.043906763
99	0xbde83344	-0.11337903
100	0x3e334089	0.17505087
101	0x3e5c2d9b	0.21501772
102	0xbdbc1adb	-0.0918481
103	0xbe69f7ec	-0.22848481
104	0xbe70c336	-0.23511967
105	0x3ce79d24	0.028273173
106	0x3c8cbc5c	0.01717966
107	0xbe36aa19	-0.17838325
108	0xbda41bd0	-0.08013117
109	0x3c1a3c5c	0.009413805
110	0xbc2608ef	-0.010133966
111	0x3e52e4d4	0.20595104
112	0xbe4acc19	-0.1980442
113	0x3e3a838a	0.1821424
114	0x3d7185d9	0.058965538
115	0xbe87cc44	-0.2652303
116	0xbcbe1693	-0.023204124
117	0xbc3ab5e2	-0.011395903
118	0x3d9a72a9	0.07541401
119	0x3de8d9ee	0.11369692
120	0x3e1bcc0a	0.15214553
121	0x39832fbd	0.00025021835
122	0x372933b0	1.0085219e-05
123	0x3d5cc35b	0.053897243
124	0xbd8ed518	-0.06974238
125	0xbdd71c75	-0.105034746
126	0xbba56e06	-0.005048516
127	0x3cb026c6	0.021502864
128	0xbdd844f0	-0.10560024
129	0xbdd3fbab	-0.10350736
130	0xbdb7a823	-0.089676164
131	0x3d802498	0.0625698
132	0xbd97bb08	-0.0740872
133	0x3cefa7ed	0.029254878
134	0x3daef0ed	0.08542047
135	0xbd89416f	-0.067019336
136	0xbd917b98	-0.07103652
137	0x3d557c7e	0.052120678
138	0x3e041680	0.12899208
139	0x3e21fcfa	0.15819159
140	0x3e5f7183	0.21820645
141	0x3de241e8	0.11047727
142	0x3e107b4d	0.14109536
143	0x3d0fa5cb	0.035070222
144	0xbd5fc981	-0.05463553
145	0xbe3e4452	-0.1858075
146	0x3ccc3111	0.02492574
147	0xbb202368	-0.0024435166
148	0xbd0f0d3d	-0.034924734
149	0xbe36a697	-0.17836986
150	0xbe13024a	-0.14356342
151	0xbd95234f	-0.07282125
152	0x3d55a97d	0.05216359
153	0x3e57fa72	0.21091631
154	0xbc7fb67f	-0.015607475
155	0xbe3783f9	-0.17921437
156	0xbd0578e9	-0.032586012
157	0xbec1a895	-0.3782393
158	0xbd3b2b5c	-0.045695648
159	0xbd448324	-0.047976628
160	0xbce7b536	-0.02828465
161	0x3cec6019	0.028854417
162	0xbdb9b892	-0.09068407
163	0xbe08fb18	-0.13377035
164	0xbce837ea	-0.028346974
165	0x3a48d805	0.0007661584
166	0xbce7f78a	-0.028316278
167	0x3e8ddcd8	0.27707553
168	0xbe09b16e	-0.1344659
169	0xbcb37c30	-0.021909803
170	0x3de87089	0.113495894
171	0x3d82eb04	0.06392482
172	0x3ea03f62	0.31298357
173	0x3cfd6f23	0.030936783
174	0xbd4d740e	-0.050159506
175	0x3d94a827	0.07258635
176	0x3d997396	0.074927494
177	0x3e173322	0.147656
178	0x3dce29f0	0.10066593
179	0xbd94a154	-0.072573334
180	0x3d9195f1	0.07108677
181	0xbcc69a23	-0.02424342
182	0x3e8d9920	0.27655888
183	0x3cd73ec9	0.026275055
184	0x3d63f827	0.05565658
185	0x3d9c23ad	0.07623992
186	0xbd3ac81e	-0.045601003
187	0x3b130b46	0.002243714
188	0xbd7d7088	-0.061874896
189	0x3e0d2ad9	0.13785876
190	0x3e4a674b	0.19765966
191	0x3d17c9e5	0.037057776
192	0xbddbe5f0	-0.107372165
193	0x3c2de7ff	0.010614394
194	0xbf225605	-0.63412505
195	0xbd5972b2	-0.053087898
196	0xbd6eca1f	-0.058298226
197	0x3d125a62	0.035730727
198	0xbd843ad3	-0.06456532
199	0x3d2079e7	0.039178755
200	0x3ccf35cd	0.025294209
201	0x3dcea89b	0.10090753
202	0xbdde3e75	-0.108517565
203	0x3cbdb96d	0.023159707
204	0xbcae787a	-0.021297682
205	0x3deb5f18	0.11492747
206	0x3c90d100	0.017677784
207	0x3e21b373	0.1579111
208	0x3da00c82	0.07814886
209	0x3decce62	0.11562802
210	0xbcc0f7f2	-0.02355573
211	0x3cee4768	0.029086784
212	0x3db1fd7a	0.08690925
213	0x3d72444a	0.059147157
214	0x3cb833a8	0.02248557
215	0x3d71237e	0.05887174
216	0xbdd13631	-0.10215414
217	0xbd2c2ffe	-0.042037956
218	0x3ddc69b6	0.1076235
219	0xbe51b063	-0.20477442
220	0x3c28bd62	0.010299059
221	0x3e1ea617	0.15493046
222	0x3b18be48	0.0023306776
223	0x3d47edcb	0.04881076
224	0xbe1ec78c	-0.15505809
225	0x3cc84419	0.024446534
226	0xbc2ef8cb	-0.010679434
227	0xbdc29cd1	-0.095025666
228	0xbd8f9321	-0.070104845
229	0xbcaec326	-0.021333288
230	0x3d042918	0.032265753
231	0x3e7256d6	0.23665938
232	0x3ce7a5d4	0.028277315
233	0x3db14a4d	0.0865675
234	0x3d309875	0.043114144
235	0x3b6cf077	0.003615407
236	0x3d9581ca	0.07300146
237	0xbe1e3ad3	-0.15452127
238	0xbd8844f9	-0.066537805
239	0xbc7a5c29	-0.015280762
240	0x3dd9c566	0.10633354
241	0x3dc98b3a	0.098410085
242	0x3c1120ef	0.00885795
243	0xbd8e6e73	-0.0695466
244	0xbca1d445	-0.019754538
245	0xbd93230c	-0.07184419
246	0x3dd0cd7a	0.101954415
247	0xbe217237	-0.15766226
248	0xbd5fdd66	-0.0546545
249	0xbd4721be	-0.048616163
250	0xbd39e7d1	-0.045387093
251	0x3ddd34bc	0.10801074
252	0x3dc7c074	0.097535044
253	0xbded2172	-0.11578645
254	0xbd08b6b1	-0.033377353
255	0xbd741835	-0.059593398

fc1.bias f4 [64]
0	0x3e1680b7	0.14697538
1	0x3cfd5b72	0.030927394
2	0xbd984a4b	-0.07436045
3	0xbc97343a	-0.01845752
4	0x3e330f7d	0.17486377
5	0x3c3dfa6d	0.011595351
6	0xbdce89f4	-0.10084906
7	0x3e364870	0.1780107
8	0x3cb0770a	0.021541137
9	0xbe1d7da2	-0.15379956
10	0x3e41ded1	0.18932654
11	0x3e1f925d	0.15583177
12	0x3e448a91	0.19193484
13	0x3e18e8e7	0.14932595
14	0xbab4e4f1	-0.001380114
15	0xbd2f29e5	-0.042764563
16	0x3e0dd408	0.13850415
17	0xbcc4d1f5	-0.024025897
18	0x3dd38846	0.103287265
19	0xbe49fc60	-0.1972518
20	0xbdf4e8e7	-0.11958485
21	0x3dad330b	0.08457001
22	0x3d920dca	0.07131536
23	0xbc621d95	-0.013800998
24	0xbe18f4d9	-0.14937152
25	0x3e3d3da4	0.18480545
26	0x3c4664ae	0.012108965
27	0xbe310026	-0.17285213
28	0x3e255952	0.16147354
29	0x3e2a6de6	0.16643485
30	0xbd92c1e5	-0.07165889
31	0xbe4392dd	-0.19098993
32	0x3e0aa652	0.13540009
33	0x3d9fd329	0.078039475
34	0xbd96d958	-0.07365674
35	0x3d8d0a7d	0.06886766
36	0x3d8bab85	0.06819824
37	0x3d9d73d8	0.07688111
38	0xba81c2a7	-0.000989993
39	0xbdd2ef9b	-0.10299607
40	0xbd145b22	-0.036219724
41	0xbc688042	-0.014190735
42	0xbe15d814	-0.14633209
43	0x3e5fffa2	0.2187486
44	0x3d2e66dc	0.042578563
45	0xbd8bb92e	-0.068224296
46	0x3d3f7999	0.046746824
47	0xbe1244e9	-0.142841
48	0xbe0a5663	-0.13509516
49	0x3ddb0138	0.10693592
50	0xbe1519b2	-0.14560583
51	0x3da89a9e	0.08232616
52	0xbb061ef0	-0.0020465218
53	0xbd903820	-0.07041955
54	0xbe2297a6	-0.15878162
55	0x3c460b09	0.012087592
56	0x3da1eb72	0.07906236
57	0x3c62ec7b	0.013850327
58	0xbe05dad2	-0.13071755
59	0xbdfa3ade	-0.12218259
60	0x3dbb6040	0.091492176
61	0x3d8ab703	0.06773188
62	0x3dc1459b	0.09437104
63	0x3dc205b1	0.09473742

fc2.weight f4 [64, 64]
0	0x3cee224d	0.02906909
1	0x3d811868	0.06303483
2	0x3d885138	0.06656116
3	0x3df8f08d	0.121552564
4	0x3d2ed584	0.042684093
5	0xbd18cb1e	-0.037303083
6	0xbe0db313	-0.13837843
7	0xbd152126	-0.036408566
8	0x3dac4ceb	0.084131084
9	0x3d826251	0.063664086
10	0x3d199a08	0.03750041
11	0xbd2cb1bb	-0.042161684
12	0xbda41f64	-0.080138
13	0x3e3302a7	0.1748148
14	0xbda68e62	-0.08132626
15	0xbd03080f	-0.031990107
16	0xbda6aecd	-0.08138809
17	0xbd66191c	-0.05617629
18	0x3d5350c0	0.05159068
19	0x3d80cd59	0.06289167
20	0xbc8a869f	-0.016909895
21	0xbce4fac3	-0.027951604
22	0x3d4a1c77	0.049343552
23	0xbcef5ecf	-0.029220013
24	0xbdd41279	-0.10355086
25	0x3d633bc5	0.055476923
26	0x3de99780	0.114058495
27	0xbe0d9646	-0.13826856
28	0x3c453571	0.012036667
29	0x3cd73aaa	0.02627309
30	0x3d1610a9	0.036636982
31	0xbe0711af	-0.1319034
32	0x3dc86cc3	0.0978637
33	0x3da1d8d0	0.07902682
34	0x3d96c9a7	0.07362681
35	0x3c6d4ca6	0.014483606
36	0xbd8adb6a	-0.06780131
37	0x3e0da7e7	0.13833581
38	0x3e3262ee	0.17420551
39	0xbdd39b9a	-0.10332413
40	0xbdbb8cb4	-0.09157696
41	0xbd8ad8d0	-0.06779635
42	0x3a0fecac	0.0005490284
43	0xbd9b72df	-0.07590269
44	0x3df3719f	0.11886906
45	0xbd99a21d	-0.07501624
46	0xbdddef79	-0.108366914
47	0x3d1264bc	0.0357406
48	0xbd92f914	-0.07176414
49	0xbdae6386	-0.08515076
50	0x3d5da031	0.05410785
51	0xbd08b8a8	-0.033379227
52	0xbe3ac37c	-0.18238634
53	0xbd95142e	-0.072792396
54	0xbba523df	-0.0050396766
55	0x3c94a52b	0.018145164
56	0xbc0f745d	-0.0087557705
57	0xbd562325	-0.05227961
58	0xbd9eeceb	-0.07760032
59	0xbc081a51	-0.008307056
60	0x3d7fea7d	0.062479485
61	0x3e102201	0.14075471
62	0xbe090c66	-0.13383636
63	0x3c9059cd	0.017620945
64	0x3d711b1c	0.058863744
65	0x3de80de6	0.11330776
66	0xbe24385f	-0.16037129
67	0x3c92e20c	0.017930053
68	0x3dccd71b	0.100019656
69	0x3de75483	0.11295416
70	0xbd23a682	-0.039953716
71	0x3e003cf6	0.12523255
72	0xbd88f03a	-0.066864446
73	0xbe1703c9	-0.14747538
74	0xbbd4dd9b	-0.006496144
75	0x3e2ae05a	0.16687146
76	0xbdcf5b76	-0.10124867
77	0x3e0442ff	0.12916182
78	0xbe0a9f6d	-0.13537379
79	0x3b85bd7c	0.004081426
80	0x3dbe9990	0.093066335
81	0x3d3fe059	0.046844814
82	0xbd4b880f	-0.049690302
83	0xbd4a5ff1	-0.049407903
84	0x3da32b83	0.079672836
85	0xbdec07cc	-0.11524925
86	0x3df22bba	0.118247464
87	0xbdc704f4	-0.097177416
88	0xbc314f68	-0.010822155
89	0x3d449d35	0.048001487
90	0xbe51202a	-0.20422426
91	0xbea34b28	-0.31893277
92	0x3dbedbc8	0.09319264
93	0xbd533694	-0.05156572
94	0x3da8bece	0.08239518
95	0xbd9ec9e0	-0.07753348
96	0xbd7cf668	-0.06175843
97	0x3d5aa4b7	0.05337974
98	0xbbf8cfaf	-0.007593117
99	0xbd3c385c	-0.045952186
100	0x3cf4b9db	0.029873779
101	0xba5d15b2	-0.0008433714
102	0x3e008ea0	0.12554407
103	0xbe2c47e4	-0.16824299
104	0xb9094fc1	-0.00013095049
105	0x3d4b6472	0.04965634
106	0xbd186f01	-0.037215237
107	0xbddd9bcf	-0.10820734
108	0xbde8a44d	-0.11359463
109	0xbd6358fb	-0.05550478
110	0xbe10aeec	-0.14129227
111	0xbd9959f3	-0.074878596
112	0xbddbb86d	-0.10728536
113	0xbdef97f3	-0.11698904
114	0xbc446d67	-0.011988974
115	0x3e03d101	0.12872697
116	0xbdc0ac18	-0.09407824
117	0x3d45d3cf	0.0482977
118	0xbe41a300	-0.18909836
119	0xbbcda7a8	-0.0062760897
120	0xbdd02acf	-0.10164415
121	0x3d57310c	0.05253701
122	0x3e29db6e	0.16587612
123	0x3e0128c3	0.12613206
124	0xbe0c5fcd	-0.1370842
125	0x3da0699c	0.078326434
126	0xbde0104c	-0.109406084
127	0xbcf9dc6e	-0.030500617
128	0xbda2f1b0	-0.079562545
129	0xbdb8695f	-0.09004473
130	0xbc6549b3	-0.013994622
131	0x3d8aed9b	0.06783601
132	0x3d472301	0.048617367
133	0x3d5b8610	0.05359465
134	0xbdc0b27b	-0.094090424
135	0x3d9c89c4	0.07643464
136	0x3de29325	0.11063222
137	0xbd3f4ae5	-0.046702284
138	0x3cfa00ba	0.030517925
139	0x3ce89d21	0.028395237
140	0x3d9b40da	0.07580729
141	0x3e3ccfe9	0.18438686
142	0x3bd75b27	0.0065721455
143	0xbbef4bd1	-0.007302739
144	0xbdbdd5e2	-0.092693105
145	0x3d4d389e	0.050102822
146	0x3ddbbc6c	0.10729298
147	0xbd909f8e	-0.07061683
148	0xbdead37b	-0.11466118
149	0x3dd5d53d	0.104410626
150	0x3d88f673	0.066876315
151	0x3d827342	0.0636964
152	0xbc88cbaa	-0.016698677
153	0x3e1747ec	0.1477353
154	0x3e1d9599	0.15389098
155	0xbdf46627	-0.119335465
156	0x3ce50879	0.027958142
157	0x3e50f539	0.20406045
158	0x3d4d8dbc	0.050183997
159	0xbcc757f9	-0.02433394
160	0xbddd5641	-0.10807467
161	0xbc00e33b	-0.007866676
162	0xbdc2ee9e	-0.09518169
163	0x3de04263	0.10950162
164	0x3e0f2d04	0.13982016
165	0x3e05d449	0.13069262
166	0x3e472bb6	0.19450268
167	0x3d8c40ad	0.068482734
168	0x3e443c6a	0.19163671
169	0x3d8bb0aa	0.06820805
170	0xbdace40d	-0.08441935
171	0xbdbb4b83	-0.09145262
172	0xbc686b15	-0.014185687
173	0x3d12a171	0.035798494
174	0x3c942a22	0.018086497
175	0xbdb1ac97	-0.08675497
176	0xbc8d4d0b	-0.017248651
177	0xbda5f853	-0.08104005
178	0xbd4ec46c	-0.05048029
179	0x3d157ef5	0.03649803
180	0xbe01b7b0	-0.12667727
181	0x3e4014cd	0.18757935
182	0xbea318c4	-0.31854832
183	0xbd65a004	-0.056060806
184	0x3b4f0bda	0.0031592757
185	0xbdad6ac5	-0.0846763
186	0x3e06200b	0.13098161
187	0x3df86259	0.12128133
188	0xbd13e11f	-0.036103364
189	0x3e0e7aed	0.1391408
190	0x3d5c2919	0.05375013
191	0x3dd2f843	0.103012584
192	0xb84d6d6e	-4.8977723e-05
193	0xbde7d630	-0.1132015
194	0x3de4841a	0.11158009
195	0xbde46524	-0.111521035
196	0xbc1b3d1b	-0.009475018
197	0x3b7220b2	0.0036945757
198	0xbd439cc3	-0.04775692
199	0xbbe83c91	-0.007087298
200	0xbe36c350	-0.17847943
201	0x3d17686c	0.03696482
202	0x3d015a66	0.03158035
203	0x3d8be3f7	0.0683059
204	0xbd33ce7f	-0.043898102
205	0x3d8f9402	0.07010652
206	0x3df11b7c	0.1177282
207	0xbd60ab13	-0.05485065
208	0xbce24f8a	-0.027625818
209	0x3cf30bfc	0.0296688
210	0xbccb51b1	-0.024819227
211	0xbdaf4f61	-0.08560062
212	0x3ce64fde	0.028114256
213	0x3d314acf	0.043284234
214	0x3c54003f	0.012939512
215	0x3c53c264	0.012924764
216	0x3da73d7f	0.08166026
217	0x3ca2a431	0.019853683
218	0x3d7d0313	0.06177051
219	0x3e81db3b	0.25362572
220	0x3dcd0d6e	0.10012327
221	0xbe03239a	-0.1280655
222	0x3da32999	0.079669185
223	0x3a11f0c4	0.0005567188
224	0xbcd3f8b5	-0.025875429
225	0x3d3ff93e	0.046868555
226	0x3e1c83d6	0.15284666
227	0x3e0fc79b	0.14040987
228	0xbdaed07c	-0.08535859
229	0xb97ccb30	-0.00024108286
230	0x3e4799ec	0.1949231
231	0xbc8eec47	-0.01744665
232	0x3d3cdec9	0.046110902
233	0xbd388c7c	-0.04505585
234	0x3d9bb50d	0.07602892
235	0xbbc3ad4f	-0.0059715877
236	0x3cc72304	0.024308689
237	0x3c927df4	0.017882325
238	0x3d33015f	0.04370248
239	0xbcc5d480	-0.02414918
240	0x3d0b802f	0.034057792
241	0xbb139ed4	-0.002252509
242	0xbddea273	-0.108708285
243	0xbce884d1	-0.028383644
244	0x3dc87c36	0.09789316
245	0xbd0714ba	-0.03297875
246	0xbe096b66	-0.13419876
247	0x3dae8ca6	0.0852292
248	0xbe282835	-0.16421588
249	0xbd5c9306	-0.05385115
250	0xbdafd914	-0.08586326
251	0x3dca875d	0.098891
252	0xbda39277	-0.0798692
253	0xbcff0e3f	-0.031134723
254	0xbdf210a0	-0.11819577
255	0x3c49e2af	0.012322112

fc2.bias f4 [64]
0	0x3a8a2e99	0.0010542452
1	0xbd22a626	-0.039709233
2	0x3e04d216	0.12970766
3	0x3dae1804	0.08500674
4	0x3e144d2b	0.14482562
5	0xbe2178eb	-0.15768783
6	0xbd5fd362	-0.05464495
7	0x3d0ee8ca	0.034889974
8	0x3dd56d19	0.10421199
9	0x3e503112	0.20331219
10	0xbd4a4503	-0.04938222
11	0x3e345490	0.17610383
12	0x3dda0ddf	0.10647177
13	0xbd6ec1c9	-0.058290277
14	0xbd98ed63	-0.07467153
15	0x3d8982a4	0.06714371
16	0x3d296a95	0.04136141
17	0xbc27e677	-0.010247818
18	0xbd727faa	-0.05920378
19	0x3e0386c3	0.12844376
20	0x3e25db11	0.16196848
21	0x3e80d74a	0.25164253
22	0xbd975f59	-0.07391233
23	0xbdbcc732	-0.09217681
24	0xbdca54db	-0.09879466
25	0xbdb5d289	-0.08878047
26	0x3dc3455e	0.09534715
27	0xbd938793	-0.07203593
28	0xbd1c8ebd	-0.038222063
29	0x3e15cd2b	0.14629047
30	0x3dcba438	0.099434316
31	0xbd9bdb8c	-0.076102346
32	0x3cf19a1c	0.02949243
33	0x3db406b6	0.087903425
34	0x3de082bd	0.10962436
35	0xbca7e1d2	-0.020493422
36	0xbbde3e46	-0.006782326
37	0xbdd364e8	-0.10321981
38	0x3e2daa0b	0.16959397
39	0x3cf19d61	0.02949399
40	0xbdad4b57	-0.084616356
41	0x3e858d46	0.26084346
42	0x3e20b8e8	0.15695536
43	0xbd407878	-0.046989888
44	0x3d30aaa4	0.043131486
45	0xbd822923	-0.063555025
46	0xbce317af	-0.027721254
47	0xbdd20d4a	-0.10256441
48	0x3d8d30f6	0.06894104
49	0xbdc0e798	-0.09419173
50	0xbd2bbe6b	-0.041929644
51	0x3e5125b8	0.20424545
52	0xbd110c73	-0.035412263
53	0xbd6bb9e5	-0.05755033
54	0x3e09d51c	0.13460201
55	0xbd655da7	-0.055997517
56	0xbe316f57	-0.17327629
57	0xbe03ca04	-0.12870032
58	0x3d17b73a	0.037039973
59	0xbd75e155	-0.060029346
60	0x3d0aceca	0.033888616
61	0x3e19e2ec	0.1502797
62	0x3da3140d	0.07962809
63	0xbd90c7db	-0.070693694

fc3.weight f4 [4, 64]
0	0xbdd59982	-0.1042967
1	0x3e73cfe4	0.23809773
2	0x3dee5604	0.116375
3	0x3d03d27f	0.032183167
4	0x3e1b67ce	0.15176317
5	0xbd8b84f2	-0.06812467
6	0x3db61240	0.088902
7	0xbd834d4e	-0.06411229
8	0x3da008aa	0.078141525
9	0x3d22332f	0.039599594
10	0xbdc1d6fc	-0.09464833
11	0x3e3f5bfd	0.18687434
12	0xbc6618e9	-0.014044025
13	0x3c85ea03	0.016346937
14	0xbd1c5030	-0.03816241
15	0xbcc111c0	-0.023568034
16	0x3dd32b4d	0.10310993
17	0x3e885391	0.26626256
18	0x3c101bf8	0.008795731
19	0x3e05af30	0.1305511
20	0x3d854408	0.065071166
21	0x3d831a2e	0.06401478
22	0x3d9763ea	0.07392104
23	0xbd0fafc4	-0.035079733
24	0xbe033e5f	-0.12816761
25	0xbdf5913f	-0.11990594
26	0xbd81aa7c	-0.063313454
27	0xbd991409	-0.074745245
28	0xbc1f0270	-0.009705171
29	0x3d1905a4	0.037358895
30	0xbe6f3dab	-0.23363368
31	0x3deadadf	0.114675276
32	0x3de14bb5	0.11000768
33	0x3e2c9915	0.16855271
34	0x3d898f3a	0.067167714
35	0xbdcc53ce	-0.09976922
36	0x3e3d713e	0.1850023
37	0xbe01f57b	-0.126913
38	0x3d8403e9	0.06446058
39	0x3e2170f7	0.15765749
40	0x3e1aa710	0.15102792
41	0x3d83a832	0.06428565
42	0x3d56c4fa	0.052433945
43	0x3d81f74d	0.06345997
44	0x3d6811b4	0.056657508
45	0xba55cf3b	-0.0008156185
46	0x3e0ce650	0.13759732
47	0x3e365ee1	0.17809631
48	0xbd15d992	-0.036584444
49	0x3e37eca6	0.17961368
50	0x3d2833fe	0.04106521
51	0x3e007362	0.12544015
52	0x3e7560e2	0.23962739
53	0xbd78bbe7	-0.060726073
54	0x3dae03f1	0.084968455
55	0x3d55b21d	0.052171815
56	0xbda74935	-0.0816826
57	0xbd4516e9	-0.048117552
58	0x3e8cb1f3	0.27479514
59	0x3d03b66f	0.032156404
60	0xbd0ec0e1	-0.034851912
61	0x3e1921a2	0.14954236
62	0x3d337038	0.043808192
63	0x3e6ec5ea	0.23317686
64	0xbd044000	-0.032287598
65	0x3dfdd230	0.12393606
66	0x3e1ff40d	0.15620442
67	0x3d9d4cca	0.07680662
68	0x3dcebd58	0.10094708
69	0xbcb95abf	-0.022626279
70	0x3d04022f	0.032228645
71	0xbbdbf745	-0.0067128264
72	0xbd304272	-0.043032117
73	0x3d6f2bf0	0.05839151
74	0x3d4b26b0	0.049597442
75	0x3e1d32a2	0.15351346
76	0xbd632027	-0.055450585
77	0xbd33b0d0	-0.043869793
78	0xbc63c04a	-0.013900826
79	0x3d36d620	0.0446378
80	0x3dc670dd	0.09689496
81	0x3e2c6285	0.16834457
82	0xbd79604d	-0.060882855
83	0x3db37b46	0.08763747
84	0x3de19a70	0.11015785
85	0x3e176548	0.1478473
86	0x3ceabf2a	0.028655607
87	0x3dbf196c	0.09331021
88	0xbd279fa0	-0.040923715
89	0xbe089b8e	-0.1334059
90	0x3be6c23a	0.0070421966
91	0xbc7ca225	-0.015419518
92	0xbc8af285	-0.016961345
93	0x3e08623e	0.13318726
94	0x3cb92417	0.022600217
95	0x3e3f58a9	0.18686165
96	0x3d442556	0.04788717
97	0x3ae756c4	0.001764976
98	0x3e27be63	0.1638122
99	0xbd4263f6	-0.04745861
100	0x3dcaaa73	0.09895792
101	0xbdebaa9c	-0.115071505
102	0x3ddaaf06	0.10677914
103	0x3da8069d	0.082043864
104	0x3e1a43be	0.15064904
105	0x3dd2f33a	0.10300298
106	0xbcb9a50b	-0.022661706
107	0x3dbf5c86	0.09343819
108	0x3d3d463e	0.046209566
109	0xbd59ef65	-0.05320682
110	0x3e01442d	0.12623663
111	0x3e4c8b0b	0.19974916
112	0x3d2da4b3	0.042393398
113	0x3d6eae6a	0.058271803
114	0x3d23da2a	0.04000298
115	0x3d49a162	0.049226172
116	0x3e4ea674	0.20180684
117	0x3bda5785	0.006663265
118	0x3d96ff1a	0.073728755
119	0x3d393d84	0.04522468
120	0xbcc1f460	-0.023676097
121	0xbdea9fbe	-0.1145625
122	0x3ddbcc72	0.10732354
123	0xbd710998	-0.05884704
124	0xbd357a13	-0.044305872
125	0xbc3743b6	-0.011185577
126	0xbd30ec6c	-0.04319422
127	0x3dd469a8	0.10371715
128	0x3e05532a	0.13020006
129	0x3df7b11e	0.12094329
130	0x3e260b08	0.16215146
131	0x3e39ed23	0.18156867
132	0x3e3db4fb	0.1852607
133	0xbc7c4f2b	-0.0153997345
134	0x3e0adee1	0.13561584
135	0x3bf24bd5	0.007394294
136	0x3c6fdef9	0.014640563
137	0x3d9f90b9	0.077912755
138	0xbdd757e3	-0.1051481
139	0x3e5e85f9	0.21730794
140	0x3e28874a	0.16457859
141	0xbdfb5f7d	-0.12274072
142	0xbd91e5cb	-0.07123908
143	0x3e4b9477	0.19880854
144	0x3e063c51	0.13108946
145	0x3ca5e94b	0.020252844
146	0xbd95424d	-0.072880365
147	0x3c350dac	0.011050623
148	0x3ce0a1ce	0.027420904
149	0x3e2bdbdd	0.1678309
150	0xbd8fbcb2	-0.07018413
151	0x3c9500f0	0.018188924
152	0x3d79f65e	0.06102597
153	0xbe6b9ca9	-0.2300898
154	0x3d786480	0.06064272
155	0xbd04bdc2	-0.03240753
156	0x3e048f24	0.12945229
157	0x3e1c66a6	0.15273532
158	0xbdebedad	-0.115199424
159	0x3d36b7a2	0.04460872
160	0xbd2a4be4	-0.04157628
161	0xbd370e41	-0.044691328
162	0x3e090d68	0.1338402
163	0x3dbedfb2	0.0932001
164	0x3c9d8bbd	0.019231671
165	0xbdd501f2	-0.10400762
166	0x3da768c8	0.08174282
167	0x3d9c475a	0.07630797
168	0x3e5b7103	0.2142983
169	0x3dc6469a	0.09681435
170	0x3e014f7a	0.12627974
171	0x3d81a332	0.06329955
172	0x3da1ff63	0.07910039
173	0xbcb569b8	-0.022145137
174	0x3e1991f8	0.14997089
175	0x3e620a19	0.22074164
176	0x3e3ca4c3	0.18422227
177	0x3d840225	0.064457215
178	0x3d8f97a1	0.07011343
179	0x3e4acb1e	0.19804046
180	0x3d5bb3ab	0.05363814
181	0x3c977006	0.018486034
182	0x3d92a2de	0.07159971
183	0x3d273331	0.040820304
184	0xbdd81061	-0.10549999
185	0xbd67e9e4	-0.05661954
186	0x3d4f775e	0.050650947
187	0xbdbed669	-0.09318239
188	0xbdc79b33	-0.09746399
189	0x3dd61638	0.10453457
190	0xbd83a680	-0.06428242
191	0x3d77d051	0.0605014
192	0x3dc2c64c	0.095104784
193	0x3e506448	0.20350754
194	0x3dc03ddd	0.093867995
195	0xbe059471	-0.13044907
196	0x3caaf966	0.020870876
197	0xbd3808cf	-0.044930276
198	0xbda4802c	-0.08032259
199	0x3d18b75d	0.037284244
200	0x3dc0ec25	0.09420041
201	0x3e138a8e	0.14408323
202	0x3d88bb0e	0.06676303
203	0x3d9828c1	0.07429648
204	0x3dbf310a	0.09335525
205	0xbd62fd04	-0.055417076
206	0x3d5a52ff	0.053301807
207	0x3c98a7bb	0.018634668
208	0x3e9ec35a	0.31008416
209	0x3d9010d5	0.070344605
210	0x3c869c2d	0.016431892
211	0x3dea863a	0.11451383
212	0x3ce890ba	0.028389324
213	0x3e298ade	0.1655688
214	0xbcc4d88f	-0.024029044
215	0x3d698a9e	0.05701696
216	0x3c8600ce	0.016357806
217	0xbdab8d11	-0.08376516
218	0xbcf46114	-0.029831447
219	0x3dd442e4	0.10364321
220	0x3dac2c99	0.08406944
221	0xbcef318f	-0.029198436
222	0xbe5b6f86	-0.21429262
223	0x3e453b78	0.19260967
224	0x3b393759	0.002826175
225	0x3d671b0a	0.05642227
226	0x3c54ef4b	0.012996505
227	0xbc99e8ea	-0.01878782
228	0x3d8bd8c0	0.06828451
229	0xbc98a673	-0.018634057
230	0x3e11a092	0.14221409
231	0x3daf02d6	0.08545463
232	0xbdb7b935	-0.08970872
233	0x3e173f24	0.1477018
234	0x3e33d8f9	0.17563237
235	0xbde49e0d	-0.11162958
236	0x3e946466	0.28982848
237	0xbddf22d8	-0.10895318
238	0x3e027721	0.12740757
239	0xbd643af5	-0.05572029
240	0x3c797eef	0.015228017
241	0xbd0fc8a7	-0.035103466
242	0x3e941f7c	0.2893027
243	0x3e2dad36	0.16960606
244	0x3c823a60	0.015896976
245	0x3dd577d7	0.10423248
246	0x3db6e513	0.08930411
247	0x3dde3d77	0.10851567
248	0xbd2f5a28	-0.04281059
249	0xbe0ef7ac	-0.13961667
250	0x3d89ed0a	0.06734665
251	0xbe20de24	-0.1570974
252	0xbd5384c1	-0.051640276
253	0xbb858069	-0.0040741456
254	0x3cfc2830	0.030780882
255	0x3b8bd857	0.004267733

fc3.bias f4 [4]
0	0x3e015c5c	0.12632889
1	0x3e170fa0	0.14752054
2	0xbc0bdf50	-0.008537129
3	0xbb30ba87	-0.0026966648
