ddqn_checkpoint.pth (torch_old, 28345 bytes, 6 tensors)

fc1.weight f4 [64, 37]
00000000: 9097 45bd b28b 4a3c 003e 11be 5d6e f3bd
00000010: 72cb c2bd 8256 4d3d f6af 32be 4925 163e
00000020: bafe 76bc c04c 6cbe 06fa 2dbe b2d8 d8bd
00000030: 62dd 0cb9 865a 61be 77ef 9cbc cbad 5ebd
00000040: a149 e53d a8c0 0c3c 8187 c6bc 4ccf 903d
00000050: fa27 423d 29c0 1cbd e479 15bd 29a6 1a3e
00000060: 597e 2bbe 49b3 40bd 8cc5 463c 7ef2 c23b
00000070: c1a1 ddbd 4031 57be f21d 89bd 2372 e4bd
00000080: deb7 f4bd d390 c7bc ab12 9cbe 6009 413c
00000090: 214b e6bd 3abb 443e 726f a03c 3e66 913d
000000a0: a6a8 183e 2c91 f6bc 9269 0f3e 5203 44be
000000b0: a658 03be 8256 57be 3bea 5ebe 1f71 083b
000000c0: b631 00bc 3c39 b43d 1511 303e ebe3 173e
000000d0: 0aa1 913e 9f74 f1bd 9e96 b6bd 8b18 04be
000000e0: b796 48bf 7181 03be 5257 1fbd 8e48 b0bd
000000f0: ce2d 023e 562f 063e 5be3 633d ee21 053e
00000100: c57e 54bd d15b cbbd d1e9 12be 4ba4 d63c
00000110: 3b7e 023e 7d14 373e 9d93 30bd 5278 3f3d
00000120: 7dbf 32bd 21e9 ad3b bdcd e73e cf19 30be
00000130: b7f5 96be 9942 cfbe 48b0 abbf 64b0 10bd
00000140: 5747 a3bc 7a02 d03d 4021 183d 72bb b3bd
00000150: ed19 1abe d185 5e3c 5601 473d 0eb7 3bbc
00000160: 2af9 013d 6812 ad3b 8d4b fb3d b59f 973d
00000170: 13d8 3fbd 4213 acbd dd47 60bd ff60 383c
00000180: 2a34 7cbc 25f4 133c 1a92 883c 9864 963c
00000190: a913 c9bc 8651 2d3e 9b41 923d f126 3e3e
000001a0: bb71 3ebe fde4 723c 6752 e1bd 918c 95bd
000001b0: a95c 2c3d d3bd daba 2660 c9ba 7c3c 0e3e
000001c0: b430 9abe ea66 223e 2b95 313c 7d23 acbe
000001d0: bc63 1cbe c5c4 373d 891f c13d d0c0 4a3d
000001e0: dcf0 0d3d 6197 3abc a480 a1be ca82 bf3d
000001f0: 4221 5dbe e0c1 cfbd 181c 6dbd 049d 8abe
00000200: 76e2 e7bd d226 7fbd ee5a c2be e0c2 0a3d
00000210: ab2e 9cbe 3a89 ef3b 5328 a0bc f531 39be
00000220: f19c d23c 2b4d 08be 1c3f 293d 9792 afbd
00000230: 5a8c a33d 870a 4f3e 4169 8dbd 70bb f9bd
00000240: d7e4 9dbe 43c6 9bbd 8f09 523e c5b0 08bd
00000250: ad8e a33c 489a b8bd 0b98 71be 31d4 32be
00000260: ffaf 07bd 218e 573e cd91 433d d7d5 4ebe
00000270: 32a0 d0bd 6301 aabe cc08 21bc f43c b9bd
00000280: 0e97 1f3d 6bb8 00bd 257a 203c c597 f8bd
00000290: 2544 243c 26f8 01be d44f 0b3e da1b 483f
000002a0: a33d 08be 8218 febc 3a80 b93d 1a0f 053e
000002b0: 5d1a 563e e32a 423c 3ac9 cfbb 3c26 183d
000002c0: 8ba0 4e3e d476 4c3e 3319 463c bc24 cfbc
000002d0: 8c30 963d d353 bf3d 2314 d43e c476 873c
000002e0: d4db a43c 3231 a83c 64b5 c4bc 8ebe 1a3d
000002f0: 8815 923d 8077 443d 1eaa b63e 1f14 b2be
00000300: 2159 19bf ed91 4fbe 87ab c9bf 7713 463d
00000310: a774 ebbd 70cc 223d e60d b3bd 9519 26bd
00000320: 8529 a8bb e4b5 823d 7e26 dabb a82a 24bd
00000330: 8ee9 c0bc 2d99 093e aa7d 6e3c 652c 0c3e
00000340: 11be 1d3e 4f69 413e 0ab5 a23b 77c9 a63d
00000350: 0038 f03d 9436 3c3c 98c6 f33d 6c63 0e3d
00000360: 5bb4 35bd 068e 50bd 4775 303e adb1 d7bc
00000370: 68d9 e8bc a8f5 803c c377 523e 703a d8bd
00000380: 7584 70be 0647 b3bd 7749 edbe b931 9f3b
00000390: aeec a0bd 9fd5 b9bd 8558 353b d85d ba3d
000003a0: 8bc7 623d 98aa a23d 4fd0 a93d 5744 04be
000003b0: 6207 1f3e 0a0c bebd 6425 e7bd a5ad d7bd
000003c0: 8026 7e3d 19b4 123e b6dc 96bd b4d0 5d3d
000003d0: d1e8 68bd 6bb8 bdbc db62 123e cb92 1ebe
000003e0: 0524 00be f983 85bd 5d80 a63d 3fc7 d33d
000003f0: 976c 553d 7bbb f0bb 943c a5bd 035a fdbd
-0.048240244 0.0123624075 -0.14183807 -0.118862845 -0.0951146 0.05013133 -0.17449936 0.1466266
-0.01507538 -0.23076153 -0.16989908 -0.10588206 -0.00013433912 -0.22007188 -0.019157154 -0.05436496
0.11195684 0.008590855 -0.024234535 0.07070789 0.047401406 -0.038269196 -0.036493197 0.15102448
-0.16747417 -0.04704598 0.01213206 0.0059493175 -0.10821868 -0.21014881 -0.06695165 -0.11154582
-0.119491324 -0.02436105 -0.30482993 0.01178202 -0.112447985 0.19212046 0.019584391 0.07099579
0.14908084 -0.03009852 0.14005116 -0.19141892 -0.12826785 -0.21029094 -0.2176904 0.0020819379
-0.007824352 0.08799979 0.17194016 0.14833038 0.28443176 -0.11789822 -0.08915447 -0.12899987
-0.7835497 -0.12842347 -0.038901635 -0.08607589 0.12712786 0.13103995 0.055636745 0.13001224
-0.05187871 -0.09929622 -0.14347006 0.026201388 0.12743466 0.1787891 -0.043109525 0.046745606
-0.04363965 0.005307332 0.45274153 -0.17197345 -0.2948434 -0.40480497 -1.3413172 -0.03532447
-0.019931478 0.10156722 0.037141085 -0.08775987 -0.15048952 0.013581709 0.04858526 -0.011457218
0.031731762 0.005281735 0.122702695 0.074035086 -0.046836924 -0.08402111 -0.054756034 0.011253594
-0.015393296 0.009030377 0.01667123 0.018358514 -0.024545508 0.1692563 0.071414195 0.18569542
-0.18598072 0.014825103 -0.11002045 -0.073022015 0.042080555 -0.0016688652 -0.0015363737 0.1389026
-0.30115283 0.15859571 0.010838787 -0.33620825 -0.1527242 0.04486539 0.09429843 0.049500287
0.03465353 -0.011388631 -0.31543458 0.09351118 -0.21594718 -0.101444006 -0.05788812 -0.27072918
-0.11322491 -0.06229288 -0.3796 0.033877254 -0.30504355 0.00731006 -0.019550478 -0.18085463
0.025709601 -0.13310687 0.04131995 -0.08572882 0.07985754 0.2021886 -0.06904841 -0.12193954
-0.30838653 -0.07606175 0.20511459 -0.033371706 0.019965494 -0.09013802 -0.23593156 -0.17463757
-0.033126827 0.21050312 0.04774647 -0.20198761 -0.10186805 -0.33204183 -0.0098287575 -0.09044829
0.038962416 -0.031425875 0.0097947465 -0.12138323 0.010026013 -0.12692317 0.13604671 0.781675
-0.13304763 -0.031017546 0.090576604 0.12994042 0.20908494 0.011851045 -0.0063411267 0.03714584
0.2017843 0.19967204 0.012090969 -0.025286071 0.07333478 0.0934216 0.41421613 0.016536124
0.020124353 0.02053127 -0.024012275 0.037779383 0.07133013 0.047965527 0.35676664 -0.34780976
-0.59901625 -0.2027051 -1.5755471 0.048358407 -0.11496859 0.039745748 -0.08742885 -0.04055174
-0.0051319026 0.06382349 -0.0066574207 -0.040079743 -0.023548868 0.13437338 0.014556328 0.1368881
0.15404536 0.18887828 0.004965429 0.08143895 0.11729431 0.011487622 0.11903113 0.034762785
-0.044361454 -0.050916694 0.17232238 -0.02632984 -0.02842398 0.015742138 0.20553498 -0.10558021
-0.23488028 -0.08753781 -0.46345112 0.0048582223 -0.07857643 -0.09073948 0.002767117 0.090999305
0.05536608 0.079426944 0.08291685 -0.12916695 0.1553016 -0.0927964 -0.112864286 -0.10531167
0.062048435 0.14326514 -0.07366316 0.054154113 -0.056862656 -0.023159226 0.14295523 -0.15485685
-0.1251374 -0.065193124 0.08129952 0.103407376 0.052105512 -0.007346568 -0.08068195 -0.12370684

fc1.bias f4 [64]
00000000: d97b c13d b27b 283d 32b9 9cbd a91d ebbd
00000010: 1094 2f3e cc53 d23c 71c1 0cbe e8f9 883d
00000020: 77ab d73d 27e6 13be b90c 9e3d 8c24 0b3e
00000030: 0e72 f63d e731 af3d 4a14 ccba 60a3 c5bc
00000040: c01b 8c3d f808 afbd f992 96bc 98c2 12be
00000050: 09ad 01be 0048 6c3d 0a92 a83c 7405 21bd
00000060: afe1 92bd f116 403e 80ca 4bbd ff0c 48be
00000070: fda6 4a3e 0206 543e 2c7f 08be cb33 01be
00000080: 579d 133e f724 903d 760e 2ebe 93f7 e13d
00000090: e812 d2bd 68ef 923d 3bf2 083d 906f 30be
000000a0: 5cd0 d7bd cbac f63a ccad a9bd 83d3 fa3d
000000b0: ccc5 003b b4c1 aebd 7052 973d 759b 04be
000000c0: fb52 3fbe 2340 903d 9cee 2cbe 34d0 913d
000000d0: 30a5 05bd 1478 80bd 9eef 61be cd0e 493d
000000e0: af90 9f3d cc6d 85bc 4d5d 2ebe adc7 95bd
000000f0: a204 a5bb 2a33 043e 4a53 873c eae6 2f3d
0.0944745 0.04113359 -0.07652511 -0.114802666 0.17146325 0.025674723 -0.13745667 0.06688291
0.10530751 -0.14443265 0.077172704 0.1358816 0.12033473 0.0855444 -0.0015570011 -0.024125755
0.068412304 -0.085466325 -0.018380629 -0.14332044 -0.12663664 0.057685852 0.02057745 -0.03931184
-0.07171952 0.18758751 -0.049753666 -0.19536208 0.19790263 0.20705417 -0.13329762 -0.12617414
0.14415489 0.070383005 -0.16997704 0.11033549 -0.10257512 0.07174569 0.033434134 -0.17230058
-0.10537788 0.0018819807 -0.08285102 0.12247374 0.0019649146 -0.0853304 0.073887706 -0.12949927
-0.18683998 0.07043483 -0.16887897 0.0711979 -0.03262824 -0.06272903 -0.22064063 0.04908638
0.07791268 -0.016287707 -0.17027779 -0.07313476 -0.0050359527 0.12910143 0.016519208 0.042944826

fc2.weight f4 [64, 64]
00000000: ae9b 7ebe e63e 663e 4517 9c3e 8f2d 013e
00000010: 88e0 4bbe a26f 85bd 43b0 a2be 39d9 eabd
00000020: 155c f0bd 1d71 66be d0c7 1bbe dc39 fcbc
00000030: a568 8abe 59c6 0bbe 8a77 02bd 762f dd3d
00000040: 79b8 a2bd 0905 73be 3064 2f3d f3b0 0a3e
00000050: 08c6 3fbe 39aa 2e3e 7339 963e d721 90be
00000060: d96b 9cbd b2d8 6fbe 2b6b 4f3e dfe0 763e
00000070: a000 4fbe ea63 833d fa79 61be dfb9 d2bd
00000080: ae48 b03d 114c 823c 70ed 6abe 290c a5bd
00000090: ebf2 313d 84d4 40bd 5192 f5bc 62f6 09be
000000a0: 98b3 9cbe 5cd4 95be 0cd7 4c3b 5a17 29bd
000000b0: c3f8 ae3e 1346 36be 3280 c7bd f5c1 19be
000000c0: 0aa7 12be 0c1e e23c cc2f 3fbe 7d81 24be
000000d0: d773 5abe 3ee4 a7bc 926a 84bd 73ee a6bd
000000e0: 2d19 a3bc a0cf 8e3d 2a42 24be edbf 78be
000000f0: bbb7 2c3d d2d8 0e3e 07ae ddbd 7e75 683d
00000100: 7fb6 9fbb 4697 963d 9ada 9bbe 15a5 1a3c
00000110: 18f6 df3d bc8b 3f3e 65ca 2abe bac5 953d
00000120: c797 cd3d 2b7a b8bd 9e5f e0bc 67c6 a03d
00000130: cdbe 1abe 3b43 743e 0bc2 72bd d08e 373c
00000140: b821 753d f0bd 503d ca33 103e bf06 eebd
00000150: 8b52 d73c 4a36 2cbe ecf0 90bd 403b 0ebe
00000160: dd61 5e3d 9c92 ae3d 995a 5fbe c813 fa3c
00000170: 1270 683d 1be0 7e3d 4379 e8bc 7063 f6bd
00000180: 219c ecbc 51c6 bfbc cb77 893d 651e c33d
00000190: 0caf b33d 2943 af3d b7d3 423e a7d3 41be
000001a0: 2577 8fbc 5cce 2c3e ec22 d53d 1a00 88bd
000001b0: 641d 06be b2d4 b0bd e90c 17be 8d90 0bbd
000001c0: 9486 6fbc e949 c93c 84d8 a83d 1375 22bc
000001d0: 2692 cd3c fe8b a13d 0905 c7bd 5c3e ba3d
000001e0: 8225 cabd 11c2 6abd 727a 253e 8c4d 6b3e
000001f0: a8ef 4ebe a0d0 cf3d a33a ebbd 4889 c7ba
00000200: 2a27 f9bd dae8 89be 80df b53c 7fa8 8dbd
00000210: e470 b2bd 9baa a8be ba20 7fbe 67a8 d7bb
00000220: 169a b2bd baa2 34bd 14b4 ef3d d075 bdbe
00000230: 2799 073e d96d 013f b441 2cbe c3b9 58be
00000240: 680f 683d 88a5 863e 1c09 a4bb 42f9 debd
00000250: 98b1 69be d331 9a3c 7159 0fbe 57e8 033e
00000260: 3caf d7be 41a7 d53d 7b41 0d3e e6f7 c3bc
00000270: 7fc1 0dbe 97f5 05be 024d c9bd ba2e a5bd
00000280: 0b8d babd ffcd d4bd 0eae 32bd 510b 913c
00000290: fc46 1c3e 2619 353d f637 483e 82ba 8039
000002a0: 27b6 8b3e 6abe 5ebe e765 223e 75d1 23be
000002b0: 9530 473c ff8f bf3c 5308 4ebd 11ae 73be
000002c0: a637 88be 94c3 ccbd 31be 093e 548f f03d
000002d0: 5d8c 05be 1f5f 35be 3ec2 3cbe cee7 3d3e
000002e0: c0e3 04be f873 163d 354a 5ebe 64b5 443d
000002f0: 5b8b 3dbd 122f 9abe cf4c 763c fe11 d43e
00000300: 533e 033c e5d9 56be 86d8 6cbc c461 28be
00000310: 98a0 18be fd94 17bd e9d5 6ebc 74cf 02bd
00000320: 0b6b 1cbe 19ab bdbb 9e46 933d 73a8 37bd
00000330: aa4b 9bbc 7d74 f13e 1afe 973e b641 303d
00000340: a127 93bd be47 2b3e c30a a33d fcb5 0bbf
00000350: af28 51bc 92bf 15be 3cae 093d 7cac ca3d
00000360: 8255 bcbd 6728 1c3e 69e4 293e a25b 033d
00000370: 134c 02bd 30db 14be be6b febd b07f 50bd
00000380: 5178 a2bc d8b7 6e3d 0f34 223e 50cc 793e
00000390: 08c1 b6bd 53a6 4cbe ceff 3f3e a6a4 c0bc
000003a0: 624c f03d d444 39be 07e5 363d 2a7a 63bd
000003b0: 48c8 693c 81af 6b3d dc0a 14bc 7b63 2ebd
000003c0: fa9d 6dbe 4892 ad3d c520 453e 86d3 93bc
000003d0: 4777 5ebd dd06 99bd 3506 00be 6f1b 483e
000003e0: 0445 d0be 8044 753d eb20 3abe a08d f53d
000003f0: 5076 74bd dc3b 3ebe 0197 b9bd 35b8 b33e
-0.24864075 0.22484931 0.30486503 0.12615035 -0.1990987 -0.06515433 -0.31775102 -0.11467213
-0.11736313 -0.22504087 -0.15212941 -0.030789308 -0.27032962 -0.13649882 -0.031852283 0.10800068
-0.079453416 -0.2373239 0.042820156 0.13544063 -0.18727887 0.17057122 0.29340705 -0.28150818
-0.07637758 -0.23422506 0.20255725 0.24109219 -0.20215082 0.064155415 -0.22019187 -0.10289358
0.086076126 0.015905412 -0.22942138 -0.0805896 0.043444555 -0.04707767 -0.029976996 -0.13472894
-0.3060577 -0.2926358 0.0031256108 -0.041282035 0.34174165 -0.17800169 -0.09741248 -0.15015395
-0.14321533 0.027602218 -0.18670577 -0.16065021 -0.21333252 -0.020494577 -0.06465639 -0.08150949
-0.019909466 0.06973195 -0.16040865 -0.24291964 0.042167407 0.13949898 -0.10824209 0.056752674
-0.00487405 0.07353072 -0.30440217 0.009438773 0.109356105 0.18705648 -0.1667877 0.07313104
0.10038715 -0.09007677 -0.027389344 0.07850342 -0.15111847 0.23853771 -0.059267085 0.011203483
0.05984661 0.05096239 0.14082256 -0.116223805 0.026284477 -0.16817585 -0.07077202 -0.1388979
0.05429255 0.08524057 -0.21811904 0.03052701 0.056747504 0.062225442 -0.028378135 -0.12030685
-0.028883042 -0.023409994 0.06712302 0.09527282 0.08773622 0.08557732 0.19026075 -0.18928395
-0.017512867 0.16875595 0.104070514 -0.06640644 -0.13097149 -0.086343184 -0.14751019 -0.0340734
-0.014619488 0.024571376 0.08244422 -0.009915608 0.025094103 0.078880295 -0.09717757 0.09093925
-0.09870435 -0.057313982 0.1615999 0.229788 -0.20208609 0.10147214 -0.114857934 -0.0015223408
-0.12165673 -0.26935464 0.0222013 -0.06916904 -0.087129384 -0.32942662 -0.24914828 -0.0065813544
-0.08720796 -0.0441005 0.11704269 -0.37003946 0.13242017 0.5055824 -0.16821939 -0.21164612
0.056655318 0.26298165 -0.0050059687 -0.10887386 -0.22821653 0.018822586 -0.13998963 0.128816
-0.4212588 0.10432292 0.1379451 -0.023921918 -0.13843344 -0.13081966 -0.09829141 -0.08065553
-0.09108933 -0.10390853 -0.043623023 0.017705591 0.15261453 0.044213437 0.19552597 0.00024553022
0.2728741 -0.21752325 0.15859185 -0.1599787 0.012157579 0.023384092 -0.050300907 -0.2379687
-0.26604956 -0.09998241 0.13451459 0.11746088 -0.13041826 -0.17712067 -0.18433473 0.18545458
-0.12977505 0.03673169 -0.21707995 0.04802455 -0.046275478 -0.30114037 0.015032961 0.41419977
0.008010465 -0.20981558 -0.01445592 -0.16443545 -0.14905012 -0.03700732 -0.014577367 -0.031936124
-0.15275209 -0.0057882187 0.071912035 -0.04483838 -0.018956978 0.47159186 0.29686052 0.043031417
-0.07185293 0.16726586 0.07961037 -0.5457456 -0.012766047 -0.1462386 0.03361343 0.0989618
-0.09195997 0.15249787 0.16591038 0.03206981 -0.03181083 -0.14536738 -0.12422894 -0.050903022
-0.019832762 0.058280796 0.15840171 0.24394345 -0.089235365 -0.19985323 0.18749925 -0.02351601
0.11733319 -0.18092662 0.04465201 -0.055536427 0.014268942 0.05754042 -0.009035792 -0.04257534
-0.23204795 0.084751666 0.19250782 -0.018045198 -0.05431297 -0.07472012 -0.12502368 0.19541715
-0.40677655 0.05987978 -0.1817662 0.119899035 -0.059683144 -0.18577522 -0.09062005 0.35101476

fc2.bias f4 [64]
00000000: ad24 bb3c 2f7c 103c e0cd 163e 79db d93d
00000010: c86c 213e bb4e 07be dc29 64be fc24 81bc
00000020: ea72 183e 8760 d43e eb24 41bd 0922 153e
00000030: f0b9 fabc f3d4 2dbd a96a 72bd 6683 363c
00000040: 289f bd3d bb84 4dbd 61b9 cfbb c6ca 023e
00000050: 9e0e 093c c9c3 ed3e c94e 1ebe 633f 0dbe
00000060: bcb8 0cbe 9e1a f1bd 6748 813d 7480 0ebe
00000070: 5710 f2bb 34a0 0b3e adf5 ea3d c577 b2bd
00000080: 063f d63c 2a29 883d e111 75bd c16d 813d
00000090: 2320 0ebe d7e8 c7bd 6570 8b3e d719 d53c
000000a0: f0db 10be fec8 f63e f213 c63e 6d1a d2bd
000000b0: cab2 d03b 6b94 dfbd f14d 10be 91b6 eabc
000000c0: 8deb 7c3e bc22 a4bd 64a1 2fbd 9d61 783e
000000d0: 27fb 09be 52b7 9dbd b973 593e f5fe 33be
000000e0: 19de 38be 9dfa f4bd a12b 7e3c 352f 463d
000000f0: f317 7e3d 73fc 783e 5cfc 103e 17c0 afbc
0.022844637 0.00881867 0.14726973 0.10637564 0.15764153 -0.13213627 -0.22281593 -0.015764706
0.14887586 0.41479895 -0.04715435 0.14563765 -0.03060624 -0.042439412 -0.05918375 0.011139726
0.09258872 -0.05017541 -0.0063392376 0.12772664 0.008365301 0.46438435 -0.15459742 -0.13793711
-0.13742346 -0.11772655 0.06312638 -0.13916188 -0.007387202 0.13635331 0.1147264 -0.087142505
0.026153099 0.066484764 -0.059831504 0.06319762 -0.13879447 -0.097612076 0.27234188 0.026013298
-0.141464 0.4820022 0.38687092 -0.102589466 0.0063689696 -0.1091698 -0.14092232 -0.028651508
0.2469923 -0.080144376 -0.042878523 0.24255987 -0.13474713 -0.07700981 0.21235551 -0.17577727
-0.18053474 -0.11961863 0.015513332 0.048384864 0.06203456 0.24315052 0.14158767 -0.0214539

fc3.weight f4 [4, 64]
00000000: 2eb1 08bd 2ec2 a63d 9681 ab3e 90bf 2b3e
00000010: ce99 d43d 00f4 c8bb 054d 62be e37a 31be
00000020: 5747 0e3e aecf 153e 63b9 1bbe 8e64 813e
00000030: 4d55 c4bd 949e ae3e 713b 2ebc 3a3d 0b3e
00000040: a95e e83d 1ddb b1bc b3cb 073e 6319 793e
00000050: aacd 8dbc 23b5 2d3e e3a1 0dbe ea71 2c3c
00000060: 6a11 a5bd 8772 f4bd 4266 a0be 32e1 6ebe
00000070: 837e 073d b533 023d 860b 6dbe 5f69 3f3e
00000080: 08fa de3d 724d 753e 6515 2b3e 3549 213d
00000090: 747a 71bd 6509 bb3d 48a8 bd3d 6c42 923e
000000a0: c921 9d3d 5a8d 2a3e 91a7 cd3d 9093 21be
000000b0: 8a75 8e3e 9fa2 00be 2aea f93d c89e 523e
000000c0: fc81 523e 88b7 1e3e 1c97 3c3d 4cf3 6f3e
000000d0: 921a c83b 36d8 dd3d d4d8 c33d c2d4 febc
000000e0: 5971 8fbe ad75 0b3e 701b 1a3e 9bf1 383e
000000f0: 696b d3bd a271 1c3e 9aee 3c3e 17e9 2e3e
00000100: e7a9 7e3d bc0e b23c 117f 963e 4318 393e
00000110: 63c1 213e 88c2 8e3d 0e98 48be 1c34 2abe
00000120: 01ac 283d 4342 d33d d5e7 9dbd 76e5 393e
00000130: 1e0e 3ebe 58f2 8d3e 91cf e3bc 0924 303e
00000140: 3dea 1a3e a3e8 4b3c 5221 643e 3946 413e
00000150: a8b6 683e 5173 433e b3d1 30be 6922 a63d
00000160: d1e4 ac3c e035 fcbd b9d1 fb3d 0e27 e3bd
00000170: e28c c5bd 69c2 ec3d 495d 12bd 19c1 863e
00000180: 5bd9 19bd e22d 693e 0e55 803e d9d9 12bb
00000190: d67f 2a3d 07d3 a6bd f5b5 023e a535 5f3e
000001a0: de9e 003e 0fbd 293e d35d 143e 7f4b 143e
000001b0: b5e0 4b3e 65b9 1abe 0ad9 6abb 7d6e 923e
000001c0: 09e3 cb3d 08dd b03d 5a2f 1a3e e707 de3d
000001d0: e07b 563d 35cb 923e 16cb 713d 8c99 0c3e
000001e0: 227e babd da09 0c3e 82ff 653e fd9b 1a3e
000001f0: b278 25bd 2270 c03d b212 243e e141 3e3e
00000200: f9b7 a5bd 191d 233e ef2b 5c3e 6cf6 933e
00000210: 8ef5 423e 2fe8 2a3e 43bf 51be 9864 2abd
00000220: 0a9e 6c3d 59f8 1a3e 077f f1bd 9742 1f3e
00000230: 40b7 9d3d ccab b93d 8de9 16bd 1dc6 443e
00000240: e204 ed3d f9e3 283d 8719 f5bd 010d 133d
00000250: d6e8 ec3c aa26 443e 26ba 06be 2c53 9a3c
00000260: 6dde 093e ed5a f9bd e8ef 8d3d ed9d d5bd
00000270: 5eb3 84be b0de 2c3e bbf3 71be 33a8 9b3d
00000280: 72f1 efbd 4e7c 5b3e 73d0 d63d 72c6 5a3e
00000290: bbaf 393e 39d2 20be 7298 4c3e 2424 50bd
000002a0: 687e 963d a585 253e ca2c 433e 1935 26bd
000002b0: b576 713e 27aa 7bbd 6c8a 433d 48fa 783e
000002c0: 7b26 233e f345 2d3e b04d dc3d b183 203e
000002d0: 0327 9ebd 6457 b33e 82f4 123e 3e95 d3bc
000002e0: 406e 36be f540 b23d 0c74 9f3e 3fda ae3e
000002f0: 3ef3 d33c e646 033e 0ea0 333d 5336 223c
00000300: e9a3 df3e eb52 bd3d e5f8 0e3e 6117 ae3d
00000310: 93e0 e03c 1b45 dabc c785 7cbe d151 aa3d
00000320: 1534 6a3e 0140 1b3e dfbf 603e 53d6 383d
00000330: 83a8 0bbc 192a 313e b22b ae3d 1e51 393e
00000340: 532f b03e ebed c53d f192 b13e 8d6d 043e
00000350: 58f5 b2be ffd8 283e c446 68be 3d54 803d
00000360: f9c7 ce3d 2441 2bbe 6891 1c3e 304d 96be
00000370: a1f5 003e 39fb c03c 5c2c 05be c97a 6a3e
00000380: bb6b 4ebe be20 493e 29d9 49bc 3a93 313e
00000390: 81ba b9bc ecb4 4f3e 4d08 3c3e cd5c 8d3e
000003a0: 2f07 9fbd 63f5 473e 5288 1c3e 2ac6 1fbe
000003b0: 155f d03e 2577 3fbe 80e0 253d 95ca 1b3e
000003c0: ed0b 663e 2dfc fd3d 92ee f83d 7ffa d83d
000003d0: 1d45 cdbc da26 f5bc 98f2 973d c8dc 493e
000003e0: 5976 b9bd f384 c93c 4628 863c 0a77 093e
000003f0: e4a7 cd3d 5f54 3d3d 1850 933d aa12 a2bc
-0.033372097 0.081425056 0.33497304 0.16772294 0.103808984 -0.0061326027 -0.22099693 -0.17332034
0.13894401 0.14630005 -0.15207438 0.2527203 -0.09586582 0.3410536 -0.010634289 0.13597575
0.1134618 -0.021710927 0.13261299 0.2432609 -0.017309982 0.1696363 -0.13831286 0.010525206
-0.08059962 -0.11935907 -0.31328017 -0.23328093 0.033079635 0.031787593 -0.23148927 0.1869254
0.108875334 0.23955324 0.1670738 0.039376456 -0.05895467 0.09132651 0.09260613 0.285663
0.0767246 0.16655484 0.100417264 -0.15778947 0.2782405 -0.12562035 0.122028664 0.20568383
0.20557398 0.15499699 0.046042547 0.23432654 0.006106683 0.108322546 0.09562841 -0.03110731
-0.28016165 0.13619108 0.15049529 0.18060915 -0.10323221 0.15277722 0.18450394 0.17081104
0.06217375 0.021735542 0.2939382 0.18075661 0.15796427 0.06970698 -0.19589254 -0.1662144
0.04117966 0.10315373 -0.07710234 0.18153939 -0.18560073 0.27723956 -0.027808936 0.17201246
0.15128417 0.012445602 0.22278336 0.18874444 0.22725928 0.19086958 -0.17267494 0.08112032
0.021105202 -0.12314963 0.12295861 -0.110914335 -0.09646012 0.11560518 -0.035733495 0.26319197
-0.037560802 0.22771409 0.25064892 -0.002240768 0.04162582 -0.08145719 0.12764724 0.21797808
0.12560603 0.16576026 0.14488916 0.14481924 0.19909938 -0.15109785 -0.0035834932 0.2859992
0.09955413 0.08635908 0.15057126 0.10841351 0.05236423 0.2867066 0.05903157 0.13730448
-0.09106089 0.13675633 0.2246075 0.15098567 -0.040398307 0.09396388 0.16022757 0.18579818
-0.080917306 0.15929069 0.21501134 0.28898942 0.19038984 0.16690134 -0.20483117 -0.04159984
0.057767905 0.151338 -0.11791807 0.15552746 0.07700968 0.09065971 -0.036843825 0.19216199
0.11573197 0.041233037 -0.119677596 0.035901073 0.028919619 0.19155374 -0.13156947 0.018838488
0.13463755 -0.12175546 0.06930524 -0.104305126 -0.25918096 0.16881824 -0.23628132 0.07600441
-0.11715974 0.21434137 0.10488977 0.21364763 0.18133442 -0.15705194 0.19980028 -0.050815716
0.07348329 0.16164263 0.19060054 -0.04057798 0.2358044 -0.061441567 0.04773943 0.24314225
0.15932648 0.16921215 0.10757005 0.15675236 -0.07722285 0.3502761 0.14351085 -0.025828
-0.17815495 0.08703796 0.31143224 0.34150884 0.025872823 0.12820014 0.043853812 0.009900647
0.4367974 0.09244331 0.13962133 0.08500553 0.027450835 -0.02664428 -0.24660407 0.083163865
0.2287143 0.15161134 0.21948193 0.04512627 -0.008524063 0.17301215 0.08504428 0.1809735
0.34411106 0.0966452 0.3468242 0.12932415 -0.34952807 0.16489027 -0.22683245 0.06266067
0.100967355 -0.16724068 0.15289843 -0.29355764 0.125937 0.023557292 -0.13005203 0.22898401
-0.20158283 0.19641396 -0.012319841 0.17341319 -0.02267194 0.2028386 0.18362541 0.27609864
-0.07765042 0.19527201 0.15286377 -0.15602937 0.40697542 -0.18697794 0.040497303 0.15213998
0.22465487 0.12401614 0.12154879 0.10594653 -0.02505737 -0.029925752 0.07419318 0.19713128
-0.09055776 0.024599528 0.016376626 0.13424316 0.10041788 0.04622304 0.07193011 -0.01978429

fc3.bias f4 [4]
00000000: 2c20 8d3e 868b 813e 3ee3 273e 2f3b 353e
0.27563608 0.2530176 0.1639528 0.17698358
