dqn_checkpoint.pth (torch_old, 28333 bytes, 6 tensors)

fc1.weight f4 [64, 37]
000000 d4 9d 10 3e 1c 4b 9d bd bc 70 44 be 71 ed 55 be
       0.14122707 -0.076803416 -0.1918363 -0.20891358
000010 12 d6 bb be ec a7 c8 bc 04 9b f8 3d f0 e1 7f bd
       -0.3668676 -0.024494134 0.12138942 -0.06247133
000020 18 3f cc 3d fc 1d 2e 3d e2 23 e5 bc f4 76 1e be
       0.09972972 0.042509064 -0.027971212 -0.15475065
000030 37 a2 ac bd 9a 62 50 be 3f c5 68 be 41 b8 cf 3c
       -0.084293775 -0.20350114 -0.22731493 0.025356414
000040 41 61 a1 3d 0b e5 50 bc 84 26 42 be 84 42 83 be
       0.07879878 -0.012749921 -0.18960005 -0.25636685
000050 29 07 54 3e 53 3d 6c 3d b8 e5 85 bd 1a 68 8c bd
       0.20705856 0.05767567 -0.06537956 -0.06855793
000060 0a ac 15 be 33 de 7d be c3 16 da 3d b7 12 58 3d
       -0.14616409 -0.24791794 0.10648873 0.052752223
000070 99 22 1e 3e 30 7a 68 3e fd b2 96 be 37 5f 26 3e
       0.15442885 0.22702861 -0.29433432 0.16247259
000080 23 8b 63 3d f3 92 12 bd df 1b a0 3d e5 e4 30 bd
       0.055552613 -0.035784673 0.07817816 -0.04318704
000090 d4 61 62 3d 95 44 15 3e 6c 75 43 3d dd 0a e8 3d
       0.055269077 0.14576943 0.047719404 0.11330197
0000a0 a0 2a 3a 3b f3 a8 49 bd 2a b9 d7 3d 8f 48 1a be
       0.0028406754 -0.04923339 0.10533364 -0.15066741
0000b0 ba d2 34 be db f2 98 be cd 40 25 bf 59 f5 4d 3b
       -0.17658511 -0.29872784 -0.64552003 0.0031426756
0000c0 fa 9b 1b be 96 d5 02 3e 92 3c 00 3e fb 3f 76 3d
       -0.15196219 0.12776789 0.12523106 0.06011961
0000d0 78 0d ec 3d 83 af 9b 3b f4 ef e6 bc 0d 63 0f 3d
       0.115260065 0.0047511472 -0.02819059 0.03500657
0000e0 06 48 bd 3d c8 b0 aa 3d 30 e5 c4 bd 02 7a a6 be
       0.09242253 0.083344996 -0.096140265 -0.3251496
0000f0 1f 4b 24 bd 91 1b 7f 3d e6 b9 18 be f3 bc 20 3e
       -0.040110704 0.06228215 -0.14914665 0.15697078
000100 34 64 11 3e 92 23 84 be 4f 91 21 bd b1 aa ea bd
       0.1419838 -0.25808388 -0.039445218 -0.11458338
000110 f3 a0 81 3e bd 80 41 3e 7a ef c6 bd 58 49 4f 3d
       0.25318107 0.18896766 -0.09713645 0.050607055
000120 28 a6 1e bd 88 23 e4 bc 70 10 a2 bc d7 9c 33 3e
       -0.038732678 -0.027848974 -0.019783229 0.17540298
000130 e9 e3 7a 3e 35 ee 90 3d 8c 4e d6 3c 1b 6e 24 bf
       0.24501003 0.070766844 0.026160501 -0.6423051
000140 ab 0b dd 3d b1 59 6b 3e 6e 12 2d 3e 9d 98 ce be
       0.10793241 0.22983433 0.16901562 -0.4035081
000150 bb f3 c1 3d a0 5f 62 bd 43 1c d2 3c be 5e f9 bb
       0.09470316 -0.055266976 0.025648242 -0.007610171
000160 18 36 42 bc 4b 4b 5f be aa ce 40 3e 40 60 ba 3d
       -0.011853717 -0.21806066 0.18828836 0.091003895
000170 7c e2 01 3e 10 6a ab bb 16 0f d6 3c 1a 27 1b bd
       0.12684053 -0.0052311495 0.02613024 -0.037879087
000180 c6 db 62 bd 14 03 24 bd af d5 0e bd fe 7d e5 be
       -0.055385374 -0.040041998 -0.034871753 -0.44822687
000190 fe b9 68 3e 88 72 9b 3e 13 64 e3 3d f9 fb 8f be
       0.227272 0.30360818 0.11103072 -0.28121927
0001a0 92 40 2c be 1d 8b 8e 3c d6 e6 79 bd e5 5a 22 be
       -0.16821507 0.017400319 -0.061011158 -0.15854986
0001b0 1e b7 12 bd 0b a9 b4 bb 0f a7 c4 3b 7a 5a ab 3e
       -0.035819165 -0.0055133156 0.0060013602 0.33467466
0001c0 29 91 f6 be b9 f4 cd 3d 96 10 bf bd 17 37 84 bf
       -0.48157623 0.10056443 -0.093293354 -1.0329312
0001d0 f0 c5 a0 3d a0 ce 48 bd 3b 64 7a 3c 95 20 8f 3d
       0.078502536 -0.049025178 0.015282686 0.069886364
0001e0 0d d9 b9 3d 4a 7f ae 3c bd 01 92 bc 16 29 46 3d
       0.09074602 0.02130093 -0.017823095 0.048379026
0001f0 49 98 0a bd fe 76 8b bd 07 01 82 3c 67 0a 09 bd
       -0.033836637 -0.06809805 0.01586963 -0.033457186
000200 07 31 79 bd 09 21 34 be 01 67 0c be 7c c9 d3 3d
       -0.06083777 -0.17590727 -0.13711168 0.103411645
000210 cc 39 02 bd 3c 58 45 3d ce 81 19 3d 10 43 68 3c
       -0.0317934 0.04817985 0.037477307 0.014176145
000220 9e 7d 1e 3e ed cf e9 bd 14 9c 05 3d 42 f5 1b 3e
       0.15477607 -0.11416612 0.03261955 0.15230277
000230 28 6c 87 3e 90 59 e9 3d c9 ba 50 3e 08 b4 db 3d
       0.26449704 0.11394036 0.20383753 0.107276976
000240 ca 8f 17 bd 42 8f 71 be b1 63 7f 3d b3 01 c4 3b
       -0.037002362 -0.23589805 0.062350933 0.005981648
000250 da d6 d2 bd 9e dc ea bd 15 7f 3e be 05 1e 03 bd
       -0.10294886 -0.11467861 -0.18603165 -0.03201105
000260 6a 34 21 3e 22 e8 29 3e f1 28 7b 3d 41 98 89 bc
       0.1574265 0.16592458 0.06131834 -0.016796233
000270 b9 47 73 be e2 fe d2 be 13 49 f1 bd 6b 18 71 3d
       -0.23757829 -0.41210085 -0.11781516 0.058861177
000280 40 f9 ca 3b 79 52 65 bc 6b 44 66 bd c7 f3 bb bd
       0.0061942637 -0.013996714 -0.056217592 -0.09177356
000290 c1 8f c5 bd d5 06 b7 bd ac 9d 9e 3d 96 56 8f 3e
       -0.096465595 -0.0893685 0.07744917 0.27995747
0002a0 62 9b 0c bd fb 65 07 bd 6b 77 c9 3c 7f 3a f6 bc
       -0.034327872 -0.03305624 0.024593076 -0.03005719
0002b0 39 e2 af 3d 4a 4e 7e bd 2d fe ca bd 78 cc a7 3d
       0.085880704 -0.06208638 -0.099117614 0.08193296
0002c0 ce 64 98 3e 04 91 05 3f 57 6c 21 3d 6e a3 a2 bd
       0.29764408 0.521744 0.03940996 -0.07941328
0002d0 b5 a2 1b 3c a7 83 3f 3e 54 35 e7 3e b9 15 ab 3c
       0.009499242 0.18702565 0.45157874 0.020884382
0002e0 d0 b7 2d 3c f4 60 28 3d 07 dd b5 bb 1e eb ee 3a
       0.010602906 0.041108087 -0.00555003 0.0018228029
0002f0 f8 81 15 bd 15 95 fa 3d 61 44 ae 3e a7 25 de bd
       -0.0365009 0.122354664 0.34036544 -0.10847025
000300 89 17 d1 be 15 be bc be fb 3b c6 bf 74 3e 0d bd
       -0.40838268 -0.3686377 -1.5487055 -0.034483388
000310 e4 8e 19 bd 02 d2 d2 3d d5 45 f9 bd 59 8b 16 3d
       -0.037489787 0.10293962 -0.121715225 0.036753986
000320 d9 74 06 3d f7 51 58 3d f2 62 2a bd 69 46 43 bc
       0.03282628 0.052812543 -0.041598268 -0.011918643
000330 59 04 82 bd aa 2b 02 3e b2 02 d0 3d 02 fd c5 3d
       -0.063484855 0.12711969 0.10156764 0.09667398
000340 5b eb d4 3d fd cf cc 3d 56 7f 0c 3d 13 87 f6 3b
       0.10396453 0.10000608 0.034301125 0.0075234263
000350 91 eb c1 bb 47 52 df 3d 93 48 0b 3e 60 56 02 3d
       -0.0059179743 0.10904365 0.13601904 0.031820655
000360 de 07 be 3c b7 3c 5c bd 3f 4d e6 3d 9b 6d 65 bd
       0.02319711 -0.05376884 0.11245202 -0.05601273
000370 b5 1c cd bc 47 71 31 3c 6a 84 84 3d b6 28 8c bd
       -0.025038103 0.01083023 0.064705685 -0.068437025
000380 c5 6c 15 be ec 5a a7 bc 01 6c 99 3c 8a 2b 02 be
       -0.14592274 -0.020429097 0.018728258 -0.12711921
000390 34 f0 bd 3d a5 ad 8e be cb cb 9d bd 10 1a 56 3e
       0.09274331 -0.27866855 -0.07704886 0.2090838
0003a0 86 25 16 3e 57 ed a6 3d d6 37 a4 bd 14 4e 63 be
       0.14662752 0.08150738 -0.08018462 -0.22197753
0003b0 cf 5f 05 3d 67 40 a3 bd db 4d e0 bd ac 16 03 be
       0.032562073 -0.07971268 -0.1095235 -0.12801617
0003c0 ab 43 ac 3d b2 1c 1f 3e 17 6b 45 bd 08 40 97 bc
       0.08411344 0.1553829 -0.048197832 -0.01846315
0003d0 ae ea c9 bd 2b b9 2a be 5f d7 89 3d 3d 5b a4 be
       -0.09859215 -0.16672198 0.06730532 -0.3210086
0003e0 4b db 36 3d 29 18 19 be f6 07 10 bd ad e4 a4 3c
       0.044642728 -0.14950623 -0.035163842 0.020128572
0003f0 0c 54 2a be 54 66 bb bd fa f5 6e bd 73 df 29 3e
       -0.16633624 -0.09150377 -0.05834005 0.16589145

fc1.bias f4 [64]
000000 cf 6f 16 3e 2c e7 d3 bc f8 45 c1 bd 3b 9d 21 3c
       0.14691089 -0.025867067 -0.094371736 0.009864147
000010 df 92 18 3e eb a6 b2 3c e3 33 3b be 66 02 c7 3c
       0.14899777 0.021808108 -0.18281512 0.024293136
000020 26 1a 95 bc 4e 00 5c be 9f bb f2 3d 92 8c ca 3d
       -0.018200945 -0.21484491 0.11852192 0.09890093
000030 88 92 18 3e d6 6c f2 3d 17 cd f5 bd b9 58 c9 bd
       0.14899647 0.11837165 -0.120020084 -0.09831376
000040 4a 77 cf 3d 0b ca c7 bd 0a dd 6d 3d 80 df 85 be
       0.101301745 -0.097553335 0.058072127 -0.2614708
000050 b3 f4 24 be 7a cd 81 3d 65 c9 3f 3d 18 66 01 be
       -0.1610897 0.0633802 0.046822924 -0.12636602
000060 02 e0 09 be d4 4b 56 3c 91 cd 18 bd 1c b5 67 be
       -0.13464358 0.013079602 -0.03730542 -0.22627681
000070 c1 95 44 3e 50 27 1e 3e 96 be 03 bd ab 8d fb bd
       0.19197752 0.15444684 -0.03216418 -0.122828804
000080 b4 76 2a 3e d1 1e 56 bc a7 76 25 bd 39 b7 54 3d
       0.16646844 -0.013068871 -0.04039636 0.051932547
000090 e7 6f 89 bd 33 dc 87 3c d9 30 58 bd e7 04 25 be
       -0.06710797 0.016584491 -0.05278096 -0.16115151
0000a0 e4 00 c3 bd af 89 00 3c 67 b5 ed bd 3a 70 82 3e
       -0.09521654 0.007845326 -0.116068654 0.25476247
0000b0 7d be 12 bd 49 f8 01 be 52 a0 21 3d 75 be 09 be
       -0.035826195 -0.1269237 0.039459534 -0.1345156
0000c0 ec 4b f2 bd 2e 4b 23 3d ac 3a f7 bd 27 e9 b4 3d
       -0.11830887 0.03986662 -0.12071738 0.08833533
0000d0 03 48 a2 bd fd 4b ca bd 89 aa ec bd a4 dd 23 bc
       -0.079238914 -0.09877775 -0.115559645 -0.010001574
0000e0 52 4e 24 3e e9 e7 e1 bd 48 8a 45 bd dc 29 93 bd
       0.16045502 -0.110305615 -0.04822758 -0.071857184
0000f0 32 b7 cb 3c 22 3c 82 3d 75 30 cb 3d 2d 14 41 3d
       0.024867628 0.06359126 0.09921352 0.04713838

fc2.weight f4 [64, 64]
000000 33 0c 34 be 4b c4 85 3d 01 81 8e 3d ad 59 ea 3e
       -0.17582779 0.065315805 0.06958199 0.45771542
000010 ca 64 e9 3d 9d 1e c1 bd ad cd 78 be 85 d6 6d be
       0.11396177 -0.09429667 -0.24297209 -0.23226364
000020 fd c6 9c bd 28 0d 8b bd b7 35 d6 3c c5 80 2f be
       -0.076551415 -0.06789619 0.02614866 -0.17138965
000030 95 57 6e be 0f c3 9b bb 6c d1 7d be 49 f4 65 be
       -0.23275597 -0.0047534774 -0.2478692 -0.22456469
000040 3c 5b c6 bd ac 61 18 be 9e 63 3f 3e b0 b1 87 be
       -0.0968537 -0.14881009 0.18690345 -0.26502752
000050 93 bc 86 be 45 fe 8d be 2b 36 4d 3e 18 40 17 bd
       -0.26315746 -0.27733055 0.20040195 -0.03692636
000060 92 f2 4f be 92 92 3f bd 38 bf ad 3e e4 48 e7 bd
       -0.20307377 -0.04677064 0.3393495 -0.112932
000070 47 03 cf 3b 76 5b 42 bb dd 63 21 3e 0e 5e 51 3e
       0.0063175294 -0.0029656566 0.15760751 0.20446035
000080 d3 0a 31 bc 7c 73 06 3e d1 22 fd bd d1 63 9e bd
       -0.010805803 0.13129991 -0.12360156 -0.07733882
000090 18 ce f2 3c a5 68 2a 3e 50 62 f1 3d 6d 25 53 be
       0.029639289 0.16641481 0.1178633 -0.20619746
0000a0 f9 8e ad bc cb f6 6b be c3 c9 f6 3d 4e b8 c8 bd
       -0.021186339 -0.23043363 0.12050202 -0.09800778
0000b0 55 c6 5a 3e d5 c8 86 be ad b9 96 3c d2 5e 84 be
       0.2136472 -0.26325098 0.018399084 -0.25853592
0000c0 28 76 98 be 02 cd c0 3d b6 44 a5 bd 12 38 fc bd
       -0.29777646 0.09414102 -0.08069746 -0.12315382
0000d0 30 62 55 be 17 c9 32 be 24 bd 8b bd a8 39 1c bc
       -0.20838237 -0.17459522 -0.06823185 -0.009535231
0000e0 da 9b 1d be d3 0e 2d bd 2e cd 54 be 81 2d 4e be
       -0.15391484 -0.042250466 -0.20781395 -0.20134546
0000f0 5a 26 49 bc 64 7e 4d 3e 9c 19 57 bc 9f e4 ea 3c
       -0.01227721 0.20067745 -0.013128664 0.028673468
000100 49 50 74 3d 85 18 db 3d 84 de 61 be 3f 8e 9d bd
       0.05964688 0.10698036 -0.22057539 -0.07693147
000110 be fb c9 3d ae 74 34 3e 0d dd de be 82 9a 33 3e
       0.09862469 0.17622635 -0.43528023 0.17539409
000120 89 09 0b 3e 04 1f ad be 3c 66 46 bc 80 24 c7 3d
       0.13577856 -0.33812726 -0.0121093355 0.09723759
000130 62 a3 c9 bc 7b 5d a0 3d 22 4e 30 bb 43 78 00 be
       -0.02461404 0.0783033 -0.002690204 -0.12545876
000140 38 43 7e 3d 90 b4 34 3d 8d 6f 28 3d 6c 8f 53 bd
       0.062075824 0.04411751 0.041122008 -0.05165045
000150 c4 53 34 3b 1f ea 2e be bc e9 e5 3c 01 4a 3f be
       0.0027515749 -0.17081498 0.028065555 -0.18680574
000160 e8 0f d3 3d 70 89 e3 bc 34 d4 d8 bd c1 69 2f 3c
       0.10305768 -0.027775496 -0.105873495 0.010706366
000170 b3 49 5f 3e f6 a0 b5 3c 5a 27 80 be c0 fd 89 be
       0.21805458 0.022171479 -0.25030023 -0.26951408
000180 c8 57 08 be 99 9d 05 bc 06 b0 75 3c bf b0 b0 bd
       -0.13314736 -0.00815525 0.014995581 -0.08627462
000190 3a 9c c1 bd 8a 91 cc 3c bc 31 58 3e 00 8a 88 be
       -0.09453626 0.024971742 0.21112722 -0.26667786
0001a0 d9 2e 93 be 93 11 e1 bd 37 cf 91 3d 8e a2 bc bd
       -0.2874668 -0.1098968 0.07119601 -0.09210692
0001b0 b5 d4 4e bd b8 c6 92 be f7 b7 25 be 09 ef 1f be
       -0.050495822 -0.28667235 -0.16183458 -0.15618528
0001c0 10 a8 c8 3d d1 aa 86 be 27 c7 f3 bd 15 c7 86 3d
       0.097976804 -0.26302198 -0.1190322 0.06580941
0001d0 dd 6f 33 bd 5b 51 f9 bd 0e 69 74 bd 5f 19 e2 bd
       -0.043807853 -0.121737204 -0.0596705 -0.110399954
0001e0 f5 18 13 be 3b 20 10 be 44 aa 12 3e 97 a1 fe 3d
       -0.14364989 -0.14074795 0.14322764 0.124331646
0001f0 6d 94 21 be 64 fd 45 3e 4a ed 05 be 92 cb 62 bd
       -0.15779276 0.19334942 -0.130788 -0.05536992
000200 e4 c6 94 bd a4 dd da bd 85 f1 9a 3c aa 72 07 be
       -0.07264498 -0.10686806 0.018913994 -0.13227335
000210 df a8 0d 3d b3 6e 84 3d cf 7b d3 bd 3a b4 58 3c
       0.034584876 0.06466427 -0.10326349 0.013226563
000220 8c 86 e8 3d ad 97 61 3d 6d 51 ac 3c 61 e4 2e 3c
       0.11353788 0.05507629 0.02103492 0.010674567
000230 91 bb 7e 3e 5e 42 0e 3e 6a b2 f8 3d 07 c8 46 be
       0.24876238 0.13892505 0.12143405 -0.19412242
000240 a4 43 23 be 48 80 a4 3c ef 9c c4 3d df cd 20 3d
       -0.15943772 0.0200807 0.09600245 0.039258834
000250 fc 27 d3 bd b1 10 cf bc 53 0f 25 bd 0c 1f 81 3d
       -0.10310361 -0.025276514 -0.040297817 0.0630475
000260 18 28 ab 3d 2d b9 5c bc bf 93 62 3e c7 15 97 3d
       0.08357257 -0.013471884 0.22126673 0.073772006
000270 78 ee 34 3e c6 13 eb 3d 21 97 16 be 48 ef 08 3e
       0.17669094 0.11478381 -0.14706089 0.13372529
000280 c1 c7 09 be 2a 2e b6 bd 18 a4 de bd 89 8f 79 3e
       -0.13455106 -0.08895524 -0.10871142 0.2437116
000290 69 01 c7 3a 88 8d 51 3d 39 33 eb 3d 18 71 14 3b
       0.0015182915 0.051160365 0.11484379 0.0022650417
0002a0 5d 1b fb 3e 3c 2c f8 bd e2 b3 1a bd c4 03 e8 bd
       0.49044314 -0.12117812 -0.037769206 -0.11328843
0002b0 9c d8 3e bd a9 79 3e be 58 e6 28 3e 42 61 06 be
       -0.046593294 -0.18601097 0.16494119 -0.13123038
0002c0 77 ea 28 3e 3f d0 b4 be 15 e0 87 3c c7 76 d6 3c
       0.16495691 -0.3531513 0.016586343 0.026179684
0002d0 47 d2 e6 bd 36 38 a1 3d e3 b9 60 bd b4 71 98 bd
       -0.11270576 0.078720495 -0.054864775 -0.07443562
0002e0 4b 77 59 bc 48 4b 3f be 62 c3 8b 3d 10 9a ba bd
       -0.013273071 -0.18681061 0.06824376 -0.09111416
0002f0 25 d7 86 bd 11 00 4d 3e 81 84 00 3d 7f 61 e0 3b
       -0.06584004 0.20019557 0.031376366 0.00684756
000300 c7 55 9c 3d 38 74 41 be d3 62 ff 3c 18 85 6d be
       0.07633548 -0.1889199 0.031175053 -0.23195302
000310 ce 5a f8 bb 19 34 2e bd 3a 86 ce 3d b8 93 36 3c
       -0.007579184 -0.042530153 0.100841954 0.011143617
000320 99 2b 40 be 0c 75 66 3d aa 89 17 3e 3e aa 23 bd
       -0.18766631 0.05626397 0.14798608 -0.039957277
000330 01 50 80 be 77 7d 86 3d ca fe 9c 3d 1c 49 f3 bd
       -0.25061038 0.06566899 0.07665785 -0.11879179
000340 58 09 46 bc f6 03 74 3d 60 3f 28 3d ae ba 0e be
       -0.012087189 0.05957409 0.041076064 -0.139384
000350 c4 19 ff 3d d1 a8 30 3d 7e 53 27 3e b3 8a 56 3e
       0.12456086 0.043129746 0.16340443 0.20951347
000360 c9 6d 59 be cd 4b fa 3c a8 9d b4 3d b9 a6 41 3c
       -0.21233286 0.030553723 0.08819133 0.011819535
000370 ad a4 12 3e 48 4f 84 be 11 02 22 be 18 c0 15 be
       0.14320631 -0.25841737 -0.15821101 -0.14624059
000380 42 24 48 be 04 c6 4f 3d 8a 16 d7 3d 7c e5 f1 3d
       -0.19545081 0.05072595 0.10502346 0.11811349
000390 89 58 1b be e3 5c 0d be 63 d3 6c 3d 39 a6 50 be
       -0.15170492 -0.13804965 0.05781878 -0.20375909
0003a0 4f 6c 01 3f 4e 92 74 be b6 6b 9d bc 42 80 30 bd
       0.5055589 -0.23883936 -0.0192164 -0.043091066
0003b0 ca a1 72 bc c0 bb 97 3d 77 23 dd bd 49 bb 81 3b
       -0.014809081 0.07408857 -0.1079778 0.0039590937
0003c0 2d fe 93 3d 37 33 11 3e b8 85 96 be 03 f0 29 bd
       0.072262146 0.14179693 -0.29398894 -0.04148866
0003d0 d5 8e 28 3e 81 5c e7 bd 2d 96 d1 3e 8a 09 14 3c
       0.16460736 -0.112969406 0.40934888 0.009035477
0003e0 f0 ee 06 be a5 ae d0 bd 91 f0 e1 be c1 69 e2 3d
       -0.13177085 -0.10189561 -0.4412885 0.11055327
0003f0 1d 20 e5 bd 38 b6 44 be b6 47 c2 3d a2 f3 26 bd
       -0.11187766 -0.19210136 0.09486334 -0.04075969

fc2.bias f4 [64]
000000 e4 87 41 bd 47 21 4e bd 5b 64 d1 3d d7 66 94 3d
       -0.047248736 -0.050324704 0.102242194 0.07246178
000010 6d 40 2f 3e 8b 39 36 be ae 0d c3 3b bd 2f 32 bc
       0.1711442 -0.17795388 0.0059525585 -0.0108756395
000020 90 44 48 3d c8 ee e7 3e 09 a4 01 be 93 f0 5c 3e
       0.04889351 0.45299363 -0.1266023 0.21576147
000030 b9 2e 94 3d cd f4 bf bd 03 ba ed 39 62 8f a4 3c
       0.07235474 -0.09372864 0.00045342752 0.020087902
000040 85 85 13 bd b9 22 5d 3c 2d e2 b2 bd 16 92 34 3e
       -0.036016006 0.013497048 -0.08734546 0.17633852
000050 b8 2b 3d 3e c0 0b 00 3f 69 ff 2f bd 2d 62 de bd
       0.18473709 0.5001793 -0.042968187 -0.10858569
000060 1a d4 84 bd dd 56 05 be e4 3d 7e 3d 69 3c ec bd
       -0.06485768 -0.13021417 0.062070742 -0.1153496
000070 4c 1c 0c 3e e0 ab 63 3e 6e bf 3c 3d 4c 9b a3 bd
       0.1368267 0.22233534 0.046081 -0.07988605
000080 82 2d 16 3d 14 68 79 3d 4f 73 92 3e 4d 84 97 bd
       0.036664493 0.060890272 0.28603598 -0.07398281
000090 40 fa a3 bd bc ff e9 bd f2 8f 75 3e cc ef 01 bb
       -0.08006716 -0.114257306 0.23980692 -0.0019826768
0000a0 00 95 8d bd d4 af 06 3f c2 8b aa 3e 82 08 35 bd
       -0.06913185 0.5261204 0.33309752 -0.044197567
0000b0 1a 3b 9d 3d f1 33 21 bb 9d 0e 84 3e c1 0f 24 be
       0.07677288 -0.002459761 0.257924 -0.16021635
0000c0 83 48 a2 3e 17 a0 37 be 15 75 d5 bd 46 54 be 3e
       0.31695947 -0.17932163 -0.10422722 0.3717367
0000d0 22 ab 9f 3d b6 c6 9e bd 21 9f 8d 3e f7 c3 5a bd
       0.07796313 -0.07752745 0.27660468 -0.053409543
0000e0 e4 1e 86 be da a4 12 be 09 56 72 3d a3 0b 9c bd
       -0.26195443 -0.14320698 0.05916408 -0.07619407
0000f0 31 71 94 3d a6 92 63 3e 62 f4 10 3e 2d 76 3b 3d
       0.07248152 0.2222391 0.14155725 0.045766998

fc3.weight f4 [4, 64]
000000 1d 72 fb bc b9 42 98 3d c2 3f 9e 3d f1 ff 6d 3e
       -0.030694062 0.07434601 0.077270046 0.23242165
000010 f8 aa 2e 3e ee 75 cc be 0a bb 5b 3e 78 4f 21 be
       0.17057407 -0.39933723 0.21458068 -0.15752971
000020 e8 bf 9c 3e 4b 78 f3 3d 28 98 1b be 3f 82 07 3e
       0.30615163 0.118881784 -0.15194762 0.13233279
000030 c8 7f 8a 3e 00 55 d5 bb f8 23 da 3e 6a 7c 00 3d
       0.27050614 -0.006510377 0.42605567 0.03136865
000040 4a 52 d2 bc 0d 27 83 3e 5c 2e 67 3e 74 7f 32 3e
       -0.025674004 0.2561573 0.22576278 0.17431432
000050 8b de a4 3d e1 37 16 3e c3 06 9b 3e 13 ac 06 bd
       0.08050259 0.14669754 0.30278596 -0.032878947
000060 20 e0 ba 3e 72 8c 71 bd 0e 50 ce bd 7d d3 46 be
       0.3649912 -0.05897183 -0.10073863 -0.19416614
000070 d0 cc 0e 3e e9 d3 99 3d 23 b5 21 bd 81 ce 1b 3d
       0.13945317 0.07511122 -0.039479386 0.038038734
000080 65 24 18 3e b6 87 4d 3e c6 51 1a 3e 5d 7f bb bc
       0.14857633 0.20071301 0.15070257 -0.02288788
000090 4d 6c 8b 3d 2b 3f a9 be 8e 18 b7 3d ea 23 a5 3e
       0.06807766 -0.33056006 0.0894023 0.32253963
0000a0 a1 48 55 bd 72 d2 2d 3e 50 41 d9 3d ae 21 94 3d
       -0.052071217 0.1697481 0.106081605 0.072329864
0000b0 8e 86 92 3e 48 e6 01 3d 92 85 24 3e d7 98 32 bd
       0.28618282 0.031713754 0.16066578 -0.04360279
0000c0 a3 c4 3d 3e c9 f7 2f 3e e2 f1 b7 bd 39 3c 52 3e
       0.18532042 0.17184366 -0.08981682 0.20530786
0000d0 14 9e 3d 3e d0 76 e8 3c 17 76 d2 3d de 58 5d 3d
       0.18517333 0.028376967 0.1027643 0.05403983
0000e0 b2 35 04 be 3d a9 b8 3d 5a 30 57 3e fb a2 48 3e
       -0.12911108 0.09016655 0.21014538 0.19593422
0000f0 bb a2 73 3d 9c b4 4c 3e 3a ee 8d 3d 6c 5a 24 3e
       0.059481364 0.19990772 0.06930204 0.16050118
000100 76 d2 52 3e 2a 88 90 bc c8 a6 09 3e 92 97 d8 3d
       0.20588097 -0.017643053 0.13442528 0.10575785
000110 cd 9b 38 3e f1 b2 4c bd c2 2e 9b 3e 7b be 23 be
       0.18028183 -0.04997534 0.3030911 -0.15990631
000120 ea a0 8b 3d 02 53 ca 3d 66 6e c8 bd 47 75 06 3e
       0.06817801 0.09879114 -0.09786682 0.13130675
000130 6a b6 2a 3e b3 79 1e 3d 91 2a a5 3e 98 8d fc 3b
       0.16671148 0.03869028 0.32259038 0.007707309
000140 1b 63 b1 bd 21 f2 78 3e 22 11 6d 3d b0 84 0b 3e
       -0.08661481 0.24311115 0.057877667 0.13624835
000150 d6 69 57 3d 54 14 38 3e 46 ad 74 3e 4f 24 b7 3d
       0.052591167 0.17976505 0.23894224 0.08942472
000160 bc 84 d4 3e 5f b7 8e 3d 3d 7c 53 bd 22 cc e3 bc
       0.41507518 0.06968569 -0.051632155 -0.027807299
000170 4a 34 e7 3d 6f 26 29 3e 48 ef 54 3d 51 59 04 3e
       0.1128927 0.16518568 0.05198601 0.12924697
000180 22 38 09 3e 14 6f 80 3e 44 b3 33 3e 3c 56 60 bd
       0.13400319 0.25084746 0.17548853 -0.05476974
000190 56 fe be 3c 43 ed 41 bd 64 b7 03 3e 7d b7 af 3e
       0.023314636 -0.04734541 0.12862927 0.34319678
0001a0 9c c1 94 3e 5b 20 29 3e 75 80 b8 3d bf bf 59 3e
       0.29053962 0.16516249 0.09008876 0.21264552
0001b0 a3 a0 42 3e 6f c2 39 3e fc 26 f2 3d 11 9f 95 3d
       0.1900659 0.18140577 0.11823842 0.0730573
0001c0 6c c2 24 3e c7 16 6f 3e 82 e2 58 bd 84 3c 4f 3e
       0.16089791 0.23348533 -0.05295039 0.20237929
0001d0 e7 15 94 3d 63 0b 85 3d db c3 09 3e 8f 92 67 3e
       0.0723074 0.064963125 0.13453619 0.22614501
0001e0 af a8 33 be d9 57 72 3c 84 3e c0 3d 53 71 b9 3c
       -0.17544816 0.014791452 0.09386924 0.022637045
0001f0 6f df 7c bd 64 cc 62 3d e2 d3 b8 3d bf 08 2e 3e
       -0.06173652 0.055370703 0.090247884 0.16995524
000200 2a f7 fc bd 25 c2 38 3e 01 ec 3b 3e 6a f6 bf 3e
       -0.1235183 0.1804281 0.18351747 0.37492687
000210 b1 14 80 3e 11 a0 9c bd 12 ca 65 3e 93 68 b0 bd
       0.25015786 -0.07647718 0.22440365 -0.08613696
000220 01 d7 1d 3e 6c 78 11 3e 18 e5 6d bd 55 5f 4e 3e
       0.15414049 0.14206094 -0.05807981 0.20153554
000230 58 dd 2e 3e 29 2d ba bd aa 49 18 3f 57 4d 26 3e
       0.17076623 -0.09090645 0.594874 0.1624044
000240 20 52 0c 3d 50 b1 88 3e 17 aa d1 bd d0 26 04 3d
       0.034258008 0.2669778 -0.1023752 0.032263577
000250 7e 01 11 3d 36 d3 54 3e ac 4b 10 bd ce 46 13 3d
       0.035401814 0.20783696 -0.035228416 0.035956196
000260 4f 12 46 3e 7c 67 22 be 82 6b 6e 3e 8d 1b 22 be
       0.19342922 -0.15859789 0.23283198 -0.15830822
000270 42 e0 07 3e 71 cd 89 3e f6 cc 26 3e a4 6f 98 3c
       0.13269141 0.26914552 0.16289124 0.018607922
000280 91 3a bf 3d 2b 9c 29 3e 94 59 00 3e 17 83 9f 3d
       0.093373425 0.1656348 0.12534171 0.07788675
000290 78 3b e8 3c 6b 65 23 be 16 a8 15 3e 97 25 34 3d
       0.02834867 -0.15956657 0.14614901 0.04398116
0002a0 64 f3 c3 3d 9c 4f 2c 3e d3 dc 15 3e fe ba 12 3d
       0.095679075 0.16827244 0.14635019 0.03582286
0002b0 f3 24 34 3e 84 a1 90 3d 86 00 05 3e b1 ee ad 3e
       0.1759222 0.07062057 0.12988481 0.3397117
0002c0 1e ae 85 3e 70 ab 57 bd 42 cb 56 3d ee 5d 7f 3e
       0.26109403 -0.05265373 0.052439936 0.24938175
0002d0 49 b0 b8 3d ed 4c e6 bd 89 9f d4 3d 1b 93 f8 3e
       0.09017999 -0.11245141 0.103819914 0.48549733
0002e0 85 20 51 be 8b aa 75 be 81 0f c0 3e 5b d7 09 be
       -0.20422561 -0.23990838 0.3751183 -0.13461058
0002f0 b4 f5 94 be c7 51 18 3e ee d5 0a be c6 fb 82 3d
       -0.29093707 0.14874946 -0.1355817 0.06395678
000300 55 67 b5 3e 56 b7 86 3e 01 0e db 3d d5 60 35 bd
       0.354304 0.2631175 0.106960304 -0.0442818
000310 c5 c5 4c 3d 7a fd 26 be 2a 3c ef 3d 0f 50 51 be
       0.049993295 -0.16307631 0.11681397 -0.20440696
000320 8f 12 e9 3e 50 34 41 3e 7b e7 9b 3d c6 9c f3 3d
       0.45521972 0.18867612 0.07612511 0.118951365
000330 9f b9 b1 3e d0 ac 89 3c 5c 79 a7 3e 40 67 4f be
       0.3471193 0.016806036 0.32709777 -0.2025423
000340 72 70 f0 3d 14 3e ab 3d 9b d2 c7 3d 92 0e e2 3d
       0.11740197 0.0836145 0.09756967 0.11037935
000350 df 32 31 3d a0 db 25 3e c9 6e a4 3d b5 b8 7a 3d
       0.043261405 0.16197062 0.08028943 0.061211307
000360 b8 f4 14 bd 45 73 a1 bc d2 7c ac bd 2c 82 fd 3d
       -0.036366194 -0.019708285 -0.08422245 0.12378344
000370 6f 21 08 3e b8 09 99 3d 41 cb 9e 3c 9d bc 82 3e
       0.13294004 0.07472557 0.019384028 0.25534526
000380 8c 34 95 3d 0a 51 95 3e 5c 0f 63 3d ba 48 55 3d
       0.07285413 0.2916339 0.05543457 0.05207131
000390 82 a6 02 be a7 da 2c be 89 df 48 3e 30 f5 a6 3e
       -0.1275883 -0.16880284 0.19616522 0.32608938
0003a0 71 3b a5 be 7c de 5d 3e 7c 83 4e 3e 19 40 34 be
       -0.32271913 0.21666902 0.20167345 -0.17602576
0003b0 7a 6f a1 3e ac 38 c9 bd 07 01 bd 3d 5c e8 60 be
       0.31530362 -0.098252624 0.092287116 -0.21963638
0003c0 fa 3d 21 3e e1 40 2c 3e 9c ef ba 3d 0b f7 93 3e
       0.15746298 0.16821624 0.09127733 0.28899416
0003d0 f6 88 12 3e 65 2d bc 3e 49 75 13 3e 3a 88 1d 3e
       0.14310059 0.36753383 0.1440021 0.15383998
0003e0 eb b2 8e be bf 12 8f 3d cf e1 87 3d 79 b6 35 be
       -0.2787088 0.069859974 0.066348664 -0.17745389
0003f0 f1 07 81 3d 48 72 e1 3c e6 79 27 3d cc 31 e2 3d
       0.06300343 0.027520314 0.040887736 0.11044654

fc3.bias f4 [4]
000000 d7 d3 95 3e 3e 13 87 3e 83 03 2d 3e 27 1e 61 3e
       0.29263183 0.26381868 0.16895871 0.21984158
