dqn_checkpoint.pth (torch_old, 28333 bytes, 6 tensors)

fc1.weight f4 [64, 37]
00000000: 3c61 9e3c ee10 463d 396b f4bd 530c 1b3b
00000010: b94c 30bd 86f2 083e 8adf 30bc 7a23 ce3d
00000020: 2cbc b1bd 1d2d febd 76b2 9e3b df93 85bd
00000030: 22fd c0bd b3f3 f8bd e679 1cbe f58f 353d
00000040: 5862 3b3d beeb b83d 2005 3cbd eda0 383d
00000050: bfdf 003e 1135 df3d 36d8 203a 3eaa c23d
00000060: 6c55 9bbd 2424 a33b 20e0 5d3e 3d48 febd
00000070: a097 c2bd 50d7 813b 3e0d 3cbd af01 1f3e
00000080: 2406 edbc 8233 05be c5d4 d4bd c06d a6bd
00000090: e7a2 c7bd 9e50 6d3e 0b4d 633d 28d6 c53d
000000a0: 5f5d 403d 11d9 ddbd ea17 0e3e 2776 4cbe
000000b0: cb1c 08be 0b2a 6abd 47b2 84bd a44d 623d
000000c0: 6f44 e1bc 50d4 873d af71 2c3e 150f da3d
000000d0: 1850 333e b7ee ba3c 3d5b ba3c ddf7 053d
000000e0: 784e e1bd fddd d3bd ca88 62bd 7e5a 46bd
000000f0: eb61 9e3d b506 903d c059 93bb 376a 713d
00000100: c796 a43d b701 96bd 2c77 f3bd 029f ab3c
00000110: 9348 243e dd31 613e ff78 aebd 4e03 bf3c
00000120: 74f1 5b3d c597 e13d ca9c e6bd 7b69 6e3e
00000130: a0bb 283e bcd2 e4bd 49d0 46be 2748 11be
00000140: a8eb a2bd b262 133e 48db 123e 3e84 eebd
00000150: 3af2 413d 2025 3dbd 190e babc 4baf a83a
00000160: 8905 fb3d 0693 47be 0f14 3c3e 0b31 de3d
00000170: 39d5 133d ff8b 4dbd e90c 66bb a8fc 8dbd
00000180: ea2f aa3c a8dd 893c 822d 863c 848f b5bd
00000190: 0dc4 583e e516 f33d 54b5 53bd f234 f6bd
000001a0: 6458 e9bd 2c93 1e3d f5dc 06be 893b 01be
000001b0: e7c2 673d dd4c 0b3d dac2 8e3b 9298 113e
000001c0: f966 fd3b cf16 b63d a78b 9e3d 8e4a 1ebe
000001d0: 359f 9cbd 6c5b 8c3c 0a62 aa3d 83db be3d
000001e0: 803d bd3d 5a86 f8b9 dd10 4a3c c7da 0f3d
000001f0: 0e5d 26be a863 e8bd 6930 70bd 7642 73bc
00000200: 7e5c 68bd 7736 bebd 8edd 3abd 86d5 4b3e
00000210: 4f69 4ebe 5f28 a9bd 9ed3 3b3c 3180 afbe
00000220: 624c 89bd 24a1 263c 8f72 783d a814 5c3e
00000230: f7f6 673e 793a c93d ad0f 7d3e cabf fdbc
00000240: 3ca8 36be 172c 89be c308 bf3c 0d29 bbbb
00000250: b664 ef3b 5d89 08be bd56 39be b4b2 33be
00000260: b06e 113d 2ff8 1d3e 5694 a03c 2355 08be
00000270: 4ea5 5b3d a305 99bd f4cd febc 438b bbbd
00000280: f186 9ebc 632e 6dbc 2e6a 06be 032b 26be
00000290: 51a1 113c 401a cbbc 2e2d acbc 0beb 383e
000002a0: 51f1 efbd 6e9c 08be ace0 ee3d b760 ba3d
000002b0: 25c2 8b3e f913 933d 9af7 91bd 88cb 983d
000002c0: 1315 4abd d190 d03d bb9a b43d 5552 0dbe
000002d0: 4a98 813d 93b0 5c3d afc6 ed3e d545 b6bb
000002e0: c603 7a3d efe4 813d 70c9 51bc 0572 503c
000002f0: 42eb 8cbd 0bae da3d 681f 663e 89ab 793c
00000300: 0a3a 5abe 353b 493d f512 21bf 2f5c 7cbd
00000310: bd0b adbd d28c a03d 5ba9 bcbc f534 f13c
00000320: fe9f d53c 7e58 cf3d d76f cabd 9f1b 27bc
00000330: 6173 8abd 4bf8 033e 7e83 193d eb69 013e
00000340: 0da1 cc3d 3f52 113e 82d8 a43b 8665 1dbc
00000350: b446 9d3d c523 973d 6997 a53c d4ca 963d
00000360: 2694 09be 977e 69bd 3650 0d3e da65 37be
00000370: fb9c 8a3c 6b04 143e 2969 0f3b 4dbc 91bd
00000380: 9a87 9fbd 9b67 fc3d 7f9e 67bd ae0a 9cbd
00000390: 9efd 30be ff0d b8bc 41ee cc3d 25db 573e
000003a0: 2410 153d c7d1 dc3d 9d49 623d 4627 93bd
000003b0: 89e0 bb3d e1fd dfbd c241 01be d1a4 013d
000003c0: 549f 773d bfb5 ca3d aaa1 30bd aa8c 78bc
000003d0: 99d2 97bc 0e95 b9bd c6bf 153e b362 1bbe
000003e0: dfb3 a4bd 2da5 093c b268 e4bd cefa 873d
000003f0: 50b2 f13d 1523 bbbd 6d60 b5bd 2c08 97bd
0.019333474 0.04835599 -0.119345136 0.002365847 -0.04304192 0.13373765 -0.010795483 0.1006536
-0.08678469 -0.124109484 0.0048430515 -0.06522345 -0.09423281 -0.12155857 -0.15280876 0.04432674
0.045748085 0.09029339 -0.045903325 0.045075346 0.12585352 0.108987935 0.00061357336 0.09505127
-0.07584652 0.0049786735 0.21667528 -0.12416122 -0.095015764 0.003962435 -0.045911066 0.15527986
-0.028933592 -0.1300793 -0.10392145 -0.08126402 -0.09747868 0.23175284 0.055493396 0.09659988
0.046964046 -0.10832418 0.1387631 -0.19966947 -0.13292234 -0.057169 -0.06479316 0.055249825
-0.027498452 0.06632292 0.16840242 0.10647408 0.17511022 0.022818906 0.022748584 0.032707084
-0.11001295 -0.10345075 -0.055306233 -0.048426144 0.0773352 0.07032529 -0.004496783 0.058939185
0.08036571 -0.07324546 -0.118879646 0.020949844 0.1604331 0.21991678 -0.08519172 0.023317005
0.053697065 0.11015276 -0.11260374 0.23282425 0.16477823 -0.11173007 -0.19415392 -0.1418768
-0.07955104 0.14393118 0.14341462 -0.11646317 0.047350146 -0.046177983 -0.0227118 0.0012869624
0.12256915 -0.19489679 0.18367027 0.10849198 0.036092017 -0.05018234 -0.003510291 -0.06932956
0.0207748 0.016829327 0.016379122 -0.08865264 0.21168537 0.11869601 -0.0516866 -0.12021817
-0.11393812 0.038714573 -0.13170226 -0.12620367 0.056582358 0.03400885 0.004356724 0.14218357
0.0077332226 0.08891069 0.0774148 -0.15458128 -0.07647554 0.017133437 0.08319481 0.09319212
0.09240246 -0.00047402346 0.012333122 0.03512075 -0.16246435 -0.11347133 -0.058639918 -0.0148473885
-0.056728832 -0.09287732 -0.045621447 0.19905671 -0.2015736 -0.08259653 0.011464028 -0.3427749
-0.06704022 0.010170255 0.060656127 0.21492255 0.22652803 0.09825606 0.24713011 -0.030975241
-0.17837614 -0.2679145 0.023319608 -0.0057116807 0.007305707 -0.1333365 -0.18099494 -0.17548639
0.03550595 0.15426706 0.019601982 -0.13313727 0.053624444 -0.07471778 -0.031104065 -0.091574214
-0.019351454 -0.0144763915 -0.13126442 -0.16227345 0.0088885585 -0.02479279 -0.021017637 0.18058412
-0.11715949 -0.13340923 0.116639465 0.09100478 0.27296558 0.07181544 -0.071273044 0.074606955
-0.049336504 0.101838715 0.08818575 -0.13800938 0.06327875 0.05387933 0.46440646 -0.005562524
0.061038755 0.06342494 -0.012804374 0.012722497 -0.06880809 0.10677727 0.22472918 0.015238651
-0.21311203 0.04912873 -0.6291955 -0.06161135 -0.084495045 0.07839359 -0.023029974 0.029444197
0.026077267 0.101243004 -0.09884613 -0.0101994565 -0.06760288 0.12887685 0.037478916 0.12638061
0.099916555 0.1419153 0.0050306926 -0.009606725 0.07679501 0.07379869 0.0202138 0.07362905
-0.1343542 -0.05700549 0.1380013 -0.17909947 0.016920557 0.1445481 0.0021882749 -0.07115994
-0.07789536 0.12324449 -0.056547638 -0.076192245 -0.17284247 -0.022467611 0.10006381 0.21079691
0.036392346 0.10782199 0.055245984 -0.07185225 0.09173686 -0.109370954 -0.12622741 0.03165132
0.06045468 0.098979466 -0.043122925 -0.015170256 -0.018533038 -0.09061633 0.14623937 -0.1517437
-0.0804212 0.008401197 -0.111527815 0.06639634 0.118015885 -0.09137551 -0.088562824 -0.073746055

fc1.bias f4 [64]
00000000: 8925 3c3e 6611 3a3d e6d8 d3bd d5ec 41bd
00000010: 6ab3 2e3e 4b93 6f3c 6c68 d4bd b347 293e
00000020: a1bd b33d fda9 11be a6b1 773e c94e 1e3e
00000030: 6bfe 823e 7ced 083e 392b 293b a2b1 22bc
00000040: 8827 ea3d c6ef e6bc dc43 583d c789 6cbe
00000050: a976 d2bd 2b5f b63d c6b1 8f3d 34e3 83bd
00000060: 4270 84bd a61f 5a3e 30b6 8cbc c244 19be
00000070: b94d 0c3e 304f 183e 0a54 0ebd f62f 2abe
00000080: c6d5 523e 821f bd3c 11bd 1cbc a172 8b3d
00000090: bbe1 953d 0c8a 8c3d 86b3 83bc 6e96 f3bd
000000a0: 5bf9 b4bd 53f5 7b3c f334 16be a0fe 8a3e
000000b0: 0887 a23d 06cc 8fbd 3b44 983d 750f 08be
000000c0: 1240 06be dde1 a83d ab9c babd d075 a33d
000000d0: fd6f b0bc d8d2 73bd 649f 0fbe acd0 003c
000000e0: 6c54 d53d db46 5ebd 9d04 bbbd 61e0 1fbd
000000f0: a34f b53d cbf6 cb3d bb47 bd3d 3438 883d
0.18373694 0.04542675 -0.103441045 -0.047345 0.17060629 0.01462252 -0.103714794 0.16531257
0.08776403 -0.14225002 0.24188861 0.15459742 0.2558473 0.13371843 0.0025813116 -0.009930046
0.11433321 -0.028190505 0.05279909 -0.23099433 -0.10276539 0.089048706 0.070163295 -0.0643982
-0.06466724 0.21301135 -0.017176718 -0.14967635 0.13701524 0.14873958 -0.034748115 -0.16619858
0.2058936 0.023086313 -0.009566561 0.06808973 0.07318445 0.06862268 -0.016076814 -0.118939266
-0.08836623 0.015378314 -0.14668636 0.27147388 0.079359114 -0.07021336 0.07434889 -0.13287146
-0.13110378 0.08246205 -0.09111913 0.07981455 -0.021537775 -0.05952725 -0.14025646 0.007862251
0.10416493 -0.05426679 -0.09131739 -0.039032344 0.0885308 0.099591814 0.09242197 0.06651345

fc2.weight f4 [64, 64]
00000000: 59a8 a43d 7dc8 f63d 4cf5 85bd 82c2 743d
00000010: d466 5d3d 83b4 11bd 498a 5fbb 9a49 bfbc
00000020: a281 533d d5a5 42bd 5d4c 813b a0b6 c2bd
00000030: 06c3 88bd 89fc c93d 82b6 233d 0937 ed3a
00000040: 2d34 29bd 73df 66bd f57c 943c ddf8 cb3d
00000050: 382d 09bd 5b80 f7bd 2cb3 0e3e 6596 923b
00000060: e09a e7bd 5224 c6bd b823 a53e c446 0d3e
00000070: c68b 3a3d 390e 13be b0b8 8b3c 5cd9 8fbd
00000080: 1f53 8a3d 35f9 9c3d 52c6 71bd bb85 9d3c
00000090: ba6a a6bd e9d2 343e 8edc 6dbd 249f afbd
000000a0: f952 1cbe 5385 d73b efcf b63d ff8e 0dbd
000000b0: bf5b e1bc 62d3 2abc bdec 89bd 1b8e c73d
000000c0: 6057 bbbd 6d54 023d 6bfe b6bd 2a24 cebd
000000d0: 45ae 2ebd 8c87 50bd 3f5d 6c3d 63a5 8fb9
000000e0: 9b2d 873b 692e 82bd ca78 2fbe 86c0 5ebb
000000f0: 410a bd3c 94ee 213e 5770 30be 3dc0 0d3d
00000100: 9c84 503d 2c50 bc3d 211a ccbc 6737 b83d
00000110: a253 413d 9450 ec3d 0e3e c8bd 555e 063e
00000120: 0aaf 88bd 083c 0abd 5c5d 94ba 1ad1 1c3e
00000130: 1920 e5bd b1f2 003e abce 86bd 87bc 513d
00000140: 9e8a ad3d c9cf 033d cafc 89bd 6989 0bbd
00000150: d95a 203d 450e e6bd fdc3 d73d 8d4d 28bd
00000160: ab71 8c3c 316c e13d aea6 8cbe 2fe9 e3be
00000170: 4cc3 a93d f03a 4f3c 8fe5 b83c f3f0 36bd
00000180: f0bb 91bd d233 a53b ba39 b03c 8d6c bdbd
00000190: df9d 9b3c fbfb d4bc 5c39 1a3e 6bef 56be
000001a0: 8377 7e3d e470 053e 25cf cbbb 8a5d f2bd
000001b0: c94c 683d 62be 9bbd fb74 09be be89 85bd
000001c0: 2e23 e9bd e534 bcbd ed81 ef3c 41a1 f33d
000001d0: 8e7d d3bd 4711 843d d23e 71bd 13af 1a3c
000001e0: 4b8e 9fbd bb62 9c3c 13ae 313e 7704 c13d
000001f0: f95d e3bd 21ea 463c 805c a4bd 30ab 89bd
00000200: c215 5dbd 42ba a7bd 1cac 643d 62d6 d93d
00000210: 1c24 563b c0be 893d e52e 88bd 6268 8a3d
00000220: c544 d13d 9291 8bbc 785b 453d 140b 983d
00000230: 1af4 093e 1cd5 323e 6d9d 993d ac86 a83c
00000240: 9092 84bd 2d6e 8a3d 5074 e43d 74e7 9ebd
00000250: 17a1 fbbd 8f17 9b3d 7f2e b73d 7f96 983c
00000260: f63a 153d 3b54 063e 210a 6c3e 74d7 1cbe
00000270: ade1 d33c fc19 863e 87ea 3d3d 799e c6bb
00000280: ec87 c6bd 17b2 f2bc a02f 82bd f102 a83d
00000290: 683c 393e c5d5 263e 6741 3b3e d0b2 debc
000002a0: 2cc3 423e a66b 46b9 a812 b1bd a49e 94bd
000002b0: e6e6 4c3d 9362 ce3c a540 203d a580 9bbd
000002c0: 15ec 09bc 102b 0bbe 0ff5 fdbc 8596 283d
000002d0: 89ef 04be 9ecf 943e 631d f7bd 54e6 41bd
000002e0: 6530 8c3c e561 2cbe 0d75 e63d 87c7 f23d
000002f0: f93f acbc a473 243e 9592 913d de4e 0e3e
00000300: 11ff 68bc 072b e2bd e385 223e 6d93 01be
00000310: 4039 3dbc 1c7a ff3c b1c7 efbb b215 2ebd
00000320: eb3f febd 5eae 573b 2e4b 0f3d 01f1 c03d
00000330: bdfe ecbc 2d7a a43d ae02 bb3d 39d1 d3bc
00000340: 6a36 69bc ddd8 1b3c 0138 e33c 3946 47bc
00000350: b096 3f3d 70b1 bb3d 3c71 fc3c 736f 3e3d
00000360: e18b b53d 9d93 aabd d33c c3bd 95d5 693e
00000370: b77a 6c3e 36d5 28be d562 743e 4df9 2c3d
00000380: 0c4f 94bb dcdb fabc cf6c 553d 88bf 093e
00000390: 6602 ddbd 1c9a 093d fd8d 203e 20c8 5e3c
000003a0: 3736 25bb b2ce 993c 945c 353d 3a0e 82bd
000003b0: 0283 71bd 91c2 2c3d 67a9 ac3d d19b 83ba
000003c0: ce46 82bc 9415 8b3d c858 19be 35b1 2bbd
000003d0: 3b0c d03d da67 00be db43 9ebc 14de ec3d
000003e0: afa4 ddbd c299 93bd b0a5 063b 9a83 053e
000003f0: cf7c 0ebe 80b4 773c 9c0f a5bd 26f1 e53c
0.08039922 0.12049959 -0.06540927 0.05975581 0.054053143 -0.03557254 -0.0034109524 -0.023350526
0.0516373 -0.04752143 0.003945871 -0.09507489 -0.06677823 0.098626204 0.039968975 0.0018098067
-0.041309524 -0.05636544 0.01812599 0.09959576 -0.03349039 -0.12085029 0.13935536 0.004473495
-0.11308837 -0.09674896 0.32253814 0.13796526 0.045543455 -0.14360894 0.01705584 -0.0702388
0.06754135 0.0766472 -0.059027024 0.019228807 -0.08125825 0.17658581 -0.058071665 -0.085752755
-0.15266027 0.006577173 0.08926379 -0.0345602 -0.027509568 -0.010426374 -0.06734607 0.09743901
-0.09147525 0.031818796 -0.08935245 -0.100654915 -0.042646665 -0.050910518 0.057706114 -0.00027398308
0.0041253096 -0.06356508 -0.17135921 -0.0033989265 0.023076179 0.15813667 -0.17230354 0.03460716
0.050907716 0.09194979 -0.024914803 0.08994942 0.0471989 0.115388066 -0.09777461 0.13121922
-0.06674011 -0.033748657 -0.0011319327 0.15314141 -0.11187763 0.1259258 -0.065823875 0.051205184
0.08473705 0.03218058 -0.06737669 -0.03406659 0.03914914 -0.112331904 0.10535429 -0.041089583
0.017144045 0.11006964 -0.27470917 -0.44513842 0.08289203 0.012648329 0.0225704 -0.04466338
-0.07115924 0.005041578 0.021511901 -0.0924922 0.018996177 -0.02599906 0.15060943 -0.20989768
0.062125694 0.13031346 -0.006219762 -0.118342474 0.056713853 -0.07604672 -0.13423531 -0.06520413
-0.11383663 -0.09189776 0.029236758 0.11895991 -0.10326682 0.06448608 -0.0588978 0.009441155
-0.07790812 0.019090047 0.1735156 0.0942468 -0.11101908 0.012140782 -0.080254555 -0.067221045
-0.053975828 -0.08189823 0.0558282 0.106365934 0.0032675331 0.06725836 -0.066495694 0.06758191
0.10218195 -0.017037187 0.048182935 0.07423988 0.13472024 0.17464107 0.0750073 0.020572029
-0.06473267 0.067592956 0.11154997 -0.0775899 -0.12286585 0.07572853 0.08944415 0.01862645
0.036433183 0.13118069 0.23050739 -0.15316564 0.025864447 0.261917 0.04636624 -0.006061372
-0.09693894 -0.029625935 -0.0635674 0.08203686 0.1808945 0.16292484 0.18286668 -0.027184874
0.19019765 -0.00018922854 -0.086461365 -0.07256821 0.05002489 0.025193488 0.03912415 -0.07592896
-0.008418103 -0.13590646 -0.031000642 0.04115917 -0.12982 0.2906465 -0.12066152 -0.0473388
0.01711292 -0.16834219 0.112527944 0.11854463 -0.021026598 0.16059738 0.071080364 0.13897273
-0.014220969 -0.11043363 0.15871386 -0.12653895 -0.011549294 0.031186156 -0.0073175062 -0.04250116
-0.12414535 0.0032910327 0.034983806 0.09420968 -0.028930062 0.08031116 0.091313705 -0.025856601
-0.014234165 0.009512153 0.027736666 -0.0121627385 0.046774566 0.09164703 0.030815713 0.046493005
0.088645704 -0.08328936 -0.09533086 0.22835381 0.23093687 -0.16487584 0.23865826 0.04222994
-0.0045260247 -0.030622415 0.05210572 0.1345197 -0.10791473 0.033594236 0.15679164 0.013597518
-0.0025209317 0.018775318 0.044277743 -0.0635037 -0.05896283 0.04217774 0.084307484 -0.0010040944
-0.015902903 0.06791225 -0.14975274 -0.041917045 0.10158583 -0.12539616 -0.019319465 0.115657955
-0.108224265 -0.07207061 0.0020545535 0.13038483 -0.13914798 0.015118718 -0.08059618 0.02806909

fc2.bias f4 [64]
00000000: a24d d7b9 e714 17bd a3ba 153e 35e4 393d
00000010: 6d82 053e 8eb5 10be 8143 67bd 8592 773d
00000020: d011 c73d 449c 563e d5a7 68bd 7e85 2f3e
00000030: db07 c83d 013e c4bc 6219 4bbd b8f1 3b3d
00000040: dfce ff3c f612 afbc faec 32bd 85ee c13d
00000050: f394 223e 7ac3 6e3e ba11 c1bd 597e 44bd
00000060: da27 b5bd b389 96bd c412 da3d 067e 45bd
00000070: 2707 99bd ca63 0a3e c944 ba3d 8032 9bbd
00000080: 00ef 9ebc 4e2a 873d e00b d03d 69fc 2abd
00000090: ca0d 89bd c04c ffbd 26a1 333e 79ea 5abd
000000a0: 109f 8dbd 49fd 823e 3747 013e e6ac f3bc
000000b0: 6ddb 733d f918 7fbd 27bd 2a3d d9dc d8bd
000000c0: d5c9 b63d af26 b2bd 8641 d5bc 7471 473e
000000d0: 7a15 62bd 0bb2 1bbd 48e0 0a3e 84ab 5abd
000000e0: af6e 30be a774 09be d1e8 073d a8cf 0cbd
000000f0: b42f 403d eab1 103e 6127 f53d f247 bebd
-0.00041065837 -0.03688517 0.14621978 0.04538365 0.13038035 -0.14131758 -0.05646086 0.060442466
0.09720194 0.20958048 -0.056800682 0.17140767 0.09767123 -0.023955347 -0.049584754 0.045884818
0.031226574 -0.021371346 -0.04368303 0.09469322 0.15877132 0.23316756 -0.09427209 -0.047972057
-0.08845492 -0.07350483 0.106481105 -0.04821589 -0.07472067 0.13514629 0.09095151 -0.075779915
-0.019401073 0.06599866 0.10158515 -0.041744623 -0.06692083 -0.12465811 0.17541942 -0.053446267
-0.069151044 0.25583866 0.12624823 -0.02974553 0.059535433 -0.062279675 0.041684296 -0.10588998
0.08925215 -0.086987846 -0.02603222 0.19476873 -0.055196263 -0.038011592 0.13562119 -0.053386226
-0.17229722 -0.13423406 0.033181015 -0.034377724 0.046920493 0.14130369 0.119704016 -0.09291066

fc3.weight f4 [4, 64]
00000000: 0318 4d3d 5026 5d3e ef4d 053e 55a0 c7bd
00000010: 4217 3b3e 061a 4dbd a642 b43e 35ec 9bbd
00000020: ef18 c63d 7c52 1c3d 2ff0 e3bd 189e 823e
00000030: 711a 483b 1217 573d b9b8 10be 2254 f7bd
00000040: b03d 293e 45cf 353e 512d 92bc 1df3 043e
00000050: f095 b73d 97b1 903d 7c55 673d 4ab5 b2bc
00000060: a93a e9bd 5b19 9ebd 990e bdbd f17a ecbd
00000070: 63ca 053c 98f7 cc3d 93ee 7dbd cb61 173e
00000080: a116 833e 4859 113e b6e8 a13d 3418 babd
00000090: 22c1 003e dab6 03be 8cc2 a93d bef4 c13d
000000a0: 0186 523e e4d3 833d 1167 ae3d f760 9c3d
000000b0: 7404 cf3d 3170 67ba e78d 143e a1ad ae3d
000000c0: 612c 7dbd 0683 663e 9f75 843d 0c0f 8a3d
000000d0: 6c67 2b3e aaa8 9ebd a72b b13d d5d2 363d
000000e0: 3787 9bbd a879 44bd 8662 a43e d815 fb3c
000000f0: 8d99 3dbd e64c 2b3e 86f1 783d 8b28 623e
00000100: 9e61 813e 1f69 0b3e 0268 383e b3e0 b3bd
00000110: bec5 173e 70a2 bc39 50f0 e83d 6bbc f8bc
00000120: 4536 4cbd eb3a 883d c1ea 8a3d 7029 2d3e
00000130: 2653 7fbd 9df3 c93d cb22 0abe ce3c b6bc
00000140: f317 d23d d92f 013e f1af a0bd e3e5 803d
00000150: 2d6a f83d 2a55 243e e041 583c 9a50 193e
00000160: 2f92 cebc 2710 86bd 31da 453c 4557 c9bc
00000170: c8ec c8bd 7e57 343e 3ece 7c3d 8751 213e
00000180: 5201 273e 1228 0ebc a4e9 2f3e 7652 a8bd
00000190: e4bd 803d f5f4 0dbe ffd7 0b3e c0d2 753c
000001a0: c2d2 3e3e 5a24 f73d c22e 98bc 3a55 b33d
000001b0: 0de7 a33d 5bb2 30bd aece 013e abb6 26bd
000001c0: 4a28 fc3c ae50 df3d e4c7 293b 5090 59bc
000001d0: 0be5 d93d c857 07bc cd14 a43d 70f1 e83c
000001e0: bb52 5fbd 5583 a1bd 9301 153e 7aed 8ebd
000001f0: 9419 4ebd 6fda c1bc 5116 24bd f260 ee3d
00000200: 2b2a 31bd 5a0f cd3d 6e10 2e3e b08a d43c
00000210: 4775 863e f065 f63b e6c7 913e 026c 263d
00000220: 4582 d83c 18f7 983d 4a97 abbd 8f84 413e
00000230: 5b59 133e 2cef ddbd ea14 d6bd 263f 0b3e
00000240: a585 893d b4bc 5a3d 1143 a8bd 0632 133d
00000250: 095d d53c 4bc5 383e f52a a7bd bf70 d73d
00000260: 9fb8 393c cbd3 79bd 74cc 8c3c 4362 93bd
00000270: 453e b73d 0816 1a3e bd5c 3e3e fa8b f1bb
00000280: 362c 75bd e771 85ba 891d 173e 6c5f 993d
00000290: 7c1b 223d 09ad 28be a721 c93d 9bee ae3d
000002a0: 7142 6c3e ca31 dd3d 91ae 0e3e e7c5 473d
000002b0: 14cf ed3d edf5 4cbd 116a e53d 3927 143e
000002c0: ce54 203e 2af6 943d e630 933d 3824 213e
000002d0: 521d e439 98e4 3b3d 0e40 963d 9318 653d
000002e0: 377a 8abd c9ec 36bd e481 033e d110 583c
000002f0: f9c1 28be 3c86 e23d a6d6 fbbd 8703 44bc
00000300: b197 743e ebb3 213e 691a d73d cc0e 4dbe
00000310: c2ef 613d 2e1c debb fdbc 353d 1cf4 9d3c
00000320: e5f2 de3d fb68 243e e6ee ca3d d99a 613d
00000330: ea27 d33d ab39 a33d e3a0 903d deba 823c
00000340: 6be7 8c3e 9b13 c33d a4c1 433d d9c1 cd3d
00000350: 83db 263d 5a11 2c3e 9b35 75bd ab95 3f3e
00000360: 4391 4b3d f992 2bbe 32d9 03bd 8851 443d
00000370: be35 c03d 7200 f13b acf7 e5bc e465 043e
00000380: 6379 fe3d 265c 673d 838a 1f3c 35e3 043b
00000390: d29f e2b9 0b7c b0bd 6228 1d3e 0736 3d3d
000003a0: bd17 9c3c 0fd0 1f3e 5c3e 373e 6e36 cabd
000003b0: 034f a43e 120f 12be 5e89 c13d 2ae6 07bd
000003c0: 5278 023d 31a2 ec3c 23c7 503e e0b1 b83d
000003d0: 69ed 29bc 4848 023c 2f2c bb3d ed98 373e
000003e0: 3f85 c5bd a5fb 05be b683 ad3d a482 b4bd
000003f0: b393 28bd 5a9c 2a3b ea22 173c b9d1 9bbc
0.050071727 0.21596646 0.1301801 -0.09747378 0.18270591 -0.050073646 0.352071 -0.07613412
0.096727245 0.0381646 -0.11129796 0.2551124 0.0030533338 0.052512236 -0.14132966 -0.12076594
0.16527438 0.17754848 -0.017843874 0.12983365 0.08964145 0.070651226 0.05647801 -0.021814961
-0.11388142 -0.0771968 -0.092313 -0.11546887 0.008165929 0.10008162 -0.0619951 0.14783399
0.25603202 0.14194214 0.07905714 -0.09086648 0.12573674 -0.12862721 0.0828906 0.09470509
0.20558931 0.06436899 0.08515752 0.07635682 0.10108271 -0.00088286685 0.14507256 0.08529211
-0.0618099 0.22510919 0.06467747 0.06741151 0.16738671 -0.07747014 0.08650904 0.04463466
-0.075941496 -0.047967583 0.32106417 0.030650064 -0.046289016 0.16728553 0.06077721 0.22085778
0.25269789 0.1361432 0.18008426 -0.08783092 0.14821526 0.0003597918 0.11373961 -0.030363282
-0.049856443 0.06651863 0.06783057 0.16910338 -0.062335156 0.09860919 -0.13489835 -0.02224579
0.10258474 0.12615909 -0.07846058 0.062938474 0.121296264 0.16048113 0.0131993 0.14972153
-0.02521619 -0.065460496 0.012075947 -0.024577746 -0.098107874 0.176115 0.061720125 0.15753756
0.16309097 -0.008676546 0.1717897 -0.08218853 0.06286219 -0.13862975 0.13656615 0.01500386
0.18635085 0.120674804 -0.018576983 0.0875649 0.08003054 -0.043138843 0.12676498 -0.04070155
0.03078093 0.1090406 0.0025906498 -0.013279036 0.106393896 -0.008260675 0.0801178 0.028435439
-0.054522257 -0.07886378 0.14551382 -0.06978889 -0.050317362 -0.023663728 -0.040060345 0.116395846
-0.043253105 0.10012694 0.16998455 0.025945038 0.2626135 0.007519476 0.28472823 0.040630348
0.026429305 0.074690044 -0.083784655 0.18898223 0.14389555 -0.10836634 -0.10453208 0.13598308
0.06714944 0.053402618 -0.08215917 0.035936378 0.02604534 0.18044011 -0.0816249 0.105195515
0.011335521 -0.060992997 0.017187335 -0.07196476 0.08947424 0.15047467 0.18590064 -0.007371423
-0.059856616 -0.001018104 0.1475736 0.074889034 0.039576992 -0.16472258 0.09820872 0.08541604
0.2307222 0.10800512 0.1393378 0.04877272 0.11611763 -0.05003922 0.11201871 0.14468087
0.1565735 0.072735146 0.07187061 0.15736473 0.00043509394 0.0458723 0.07336436 0.05593164
-0.06761592 -0.04465941 0.12842518 0.013187603 -0.16480245 0.110607594 -0.122968 -0.011963732
0.2388599 0.1579129 0.10503084 -0.20025176 0.05516029 -0.0067782616 0.044369686 0.01928144
0.10886172 0.16055672 0.099088475 0.055079315 0.103103474 0.07969984 0.07061937 0.015958246
0.27520308 0.09525224 0.047792092 0.10046739 0.040736686 0.16803494 -0.059865575 0.18709438
0.04969908 -0.16755284 -0.032189555 0.047929317 0.093852505 0.0073547894 -0.0280722 0.12929493
0.124254964 0.056484364 0.009737614 0.0020277028 -0.00043225155 -0.08617409 0.15347436 0.046194103
0.019054288 0.15606712 0.17894882 -0.09873663 0.3209153 -0.14263561 0.09450029 -0.033178486
0.031853028 0.028885933 0.20388465 0.09018302 -0.010371544 0.0079518035 0.09139287 0.1792943
-0.09644555 -0.13084276 0.084723875 -0.0881398 -0.041156482 0.0026033134 0.009224633 -0.019020902

fc3.bias f4 [4]
00000000: a1a4 e43d f1c8 1c3e 9812 b4bc 368d 3b3c
0.11164213 0.15311028 -0.021981522 0.0114472415
