duel_ddqn_checkpoint.pth (torch_old, 28799 bytes, 7 tensors)

fc1.weight f4 [64, 37]
000000 3b 2b 41 3d 13 17 9b 3d 37 15 a2 bd f4 7f 3e be
       0.04716037 0.075727604 -0.07914203 -0.18603498
000010 9e dd 22 be 40 a8 31 bc fa ad a5 3c 4c df 44 3e
       -0.15904853 -0.010843337 0.02022456 0.19225806
000020 27 f1 28 3d 5f 34 28 3e ca e4 5a bd f6 3f 1e bd
       0.041245606 0.16426228 -0.053440847 -0.038635217
000030 87 32 c4 bd a9 94 79 bd 1f d7 e7 bc 77 97 06 3e
       -0.0957995 -0.06093279 -0.02830082 0.13143717
000040 1f 7d 8b bc 73 c3 a5 3c 89 e7 76 bd 76 38 8a be
       -0.017027436 0.020234799 -0.060279403 -0.269962
000050 10 6c a0 3d 81 67 e9 3d ca 3a f7 3c b0 d0 fb 3d
       0.07833111 0.11396695 0.0301794 0.12295663
000060 54 5d 16 3d 71 12 ae 3d d7 5a 82 3d 93 f6 89 bd
       0.0367101 0.08499611 0.063649826 -0.067364834
000070 eb f9 00 be f9 d8 44 be 0c 11 91 bd e6 03 01 3e
       -0.12595336 -0.19223393 -0.070833296 0.12599143
000080 b7 4e d0 bc cc fa 0c bd b2 d5 99 bd ea ad bc bd
       -0.02542816 -0.034418866 -0.07511462 -0.09212859
000090 81 ee 20 bd 26 4e 5e 3e 4a 72 28 3d 42 85 5e 3d
       -0.039289955 0.21709499 0.04112462 0.054326303
0000a0 b9 76 5e 3b 71 1c ba bd 6c 36 cc 3d e6 69 8b be
       0.0033945276 -0.09087456 0.09971318 -0.27229232
0000b0 93 3d 33 be c9 ab ad bd d5 4f 3b be f8 03 4c 3d
       -0.17503957 -0.08480031 -0.18292172 0.049808472
0000c0 c0 7a 3e bd 4c 6a 82 3c 37 d3 09 3e 46 18 9f 3d
       -0.046503782 0.015919827 0.13459478 0.07768302
0000d0 25 a0 1f 3e 76 55 39 bd e2 61 29 3d 07 f2 7a bd
       0.15588434 -0.045247518 0.041353114 -0.06126597
0000e0 b7 31 68 bd e6 ea 02 be 3a 2f ea bd 18 86 ed bc
       -0.056688037 -0.12784919 -0.11434789 -0.028994605
0000f0 1f d3 75 3c 11 00 18 3e 6e 9e 34 3c 57 a7 14 bc
       0.0150039485 0.14843775 0.011024101 -0.0090731
000100 89 37 4a 3b 63 99 82 bd 26 4b 14 be fc f1 97 3d
       0.0030855855 -0.063769124 -0.14481792 0.07419202
000110 82 78 3c 3d 3f ca f9 3d 5d e5 5d bd 09 d1 58 bd
       0.046013363 0.121967785 -0.054173816 -0.052933726
000120 e0 28 d4 3d 99 05 ed 3d 1e b3 b5 3d 72 60 34 3e
       0.10359359 0.11573333 0.088720545 0.17614916
000130 39 54 e6 3d a1 1f 26 bd c3 09 73 bd d6 bc 88 be
       0.11246533 -0.040557507 -0.05933548 -0.2670657
000140 e7 d5 8f 3d 85 b6 43 3e 38 5c 97 3c df 6e 88 be
       0.070232205 0.19112594 0.01847659 -0.26647088
000150 21 78 e5 bc 05 62 9a 3b bd 54 12 3d d4 fe 79 bc
       -0.028011383 0.004711392 0.035725344 -0.01525851
000160 da e1 a4 3d c6 0c 20 be 2e 67 03 3e bb f2 20 3e
       0.0805089 -0.15629873 0.12832329 0.15717594
000170 68 87 b7 3d ec 50 a7 bd 0b e6 03 be 14 28 5f 3c
       0.089613736 -0.081697315 -0.12880723 0.013620395
000180 1d 3a af 3d 59 52 5a bd 5f 3b 9f bd 65 fd 0a be
       0.08556006 -0.05330119 -0.07774996 -0.13573225
000190 19 95 3e 3e b9 e2 30 3e 82 01 b2 bd ab 6a 93 be
       0.18611564 0.17273988 -0.08691694 -0.2879232
0001a0 c7 af 6b be ab 2e 1a 3d b9 2b e8 bc f7 9a 2e be
       -0.23016272 0.037642162 -0.028341161 -0.17051302
0001b0 12 c9 dd bd db 1b 29 3c e9 38 14 bb 44 48 0d 3e
       -0.10829367 0.010321583 -0.002261693 0.13797098
0001c0 c7 3c 3c bd 4d 8b 17 3e c2 3c ba 3d b3 c3 95 bd
       -0.0459564 0.14799233 0.0909362 -0.07312717
0001d0 e2 d1 2b bc 25 fb 54 bd e7 22 83 3d a3 ec 60 3d
       -0.010487052 -0.051997323 0.064031415 0.054913174
0001e0 0c b6 e9 3e 6c eb 75 3d 4c ed 3c bd 0e 1a 25 3d
       0.45646703 0.06003897 -0.04612474 0.04030805
0001f0 51 48 c3 bd bb 10 68 bd 54 b5 2d bd b3 33 15 bd
       -0.09535278 -0.05665658 -0.042409256 -0.036426257
000200 05 05 c2 bc ee ff 15 be 4c 0a 01 bb 49 a1 d8 3d
       -0.023684034 -0.1464841 -0.0019689975 0.10577638
000210 5a 24 7c bd 20 75 19 bc ca 2f 79 3c f8 d6 ac bc
       -0.061558105 -0.009366304 0.015209148 -0.021098599
000220 bf cf b7 3d 91 a2 b0 bd 1f 94 95 bc d1 ea 11 3e
       0.08975171 -0.08624757 -0.018259106 0.14249732
000230 07 01 0e 3e 4d 06 43 3e 2a 99 f5 3d 3c 0c 67 bd
       0.1386758 0.19045372 0.11992104 -0.056408152
000240 d9 b2 5a be a3 eb 1b be 74 d6 7e 3d 8c d6 03 3d
       -0.21357287 -0.15226607 0.062216237 0.03218703
000250 aa 12 61 bd bb 85 b0 bd f9 04 22 be a3 81 b7 bd
       -0.05494944 -0.08619257 -0.1582221 -0.08960273
000260 c9 e4 20 3e 6b a0 89 3e f0 e7 92 bd dc 85 25 be
       0.15712275 0.26880202 -0.07173145 -0.16164345
000270 b1 92 11 3d 65 07 26 be 96 b7 54 3d f9 4a 39 3c
       0.035540286 -0.16213758 0.051932894 0.011309379
000280 b0 69 84 bd b4 d5 51 bd 73 a8 91 bd a3 30 41 bd
       -0.06465471 -0.051229194 -0.07112207 -0.047165524
000290 a3 15 23 bd 88 fa 21 bd ac fb 54 3b 07 25 ae 3e
       -0.039815556 -0.039545566 0.003249864 0.34012625
0002a0 23 1e a9 3c d9 91 af bc d7 59 0d 3d 34 42 dc bc
       0.020644253 -0.02143185 0.034509506 -0.026887037
0002b0 2d 7c 22 3e c2 e6 15 3e fa d2 0c be 17 07 b8 3c
       0.15867682 0.14638808 -0.13752356 0.022464318
0002c0 1c 39 b7 3d 2c 52 37 3e 4d 4a 16 3e 87 6d 1c bc
       0.089464396 0.1790244 0.14676781 -0.009547598
0002d0 23 c0 4a bd c0 f1 60 3c 57 69 a6 3e 54 e5 d6 3c
       -0.049499642 0.013729513 0.32502243 0.026232399
0002e0 42 b2 66 3d 4f 1d 4a 3d 5d 46 1d bd 03 04 b2 bc
       0.056322344 0.049344357 -0.03839718 -0.021730429
0002f0 91 8d b1 bd 76 76 86 3d 44 c2 34 3e dc 92 af 3c
       -0.0866958 0.065655634 0.17652231 0.021432333
000300 15 b4 08 be 05 54 7d 3d 9d 1b 10 bf f9 ae 85 bd
       -0.13349946 0.061847705 -0.56292135 -0.06527514
000310 d7 b9 9b bd 21 a4 8e 3d 9d 0c c1 bd f9 06 0f bd
       -0.076038055 0.06964899 -0.09426234 -0.03491876
000320 7a b1 2a 3a 06 89 92 3d d3 54 6b bd 30 98 ae bd
       0.00065114314 0.071550414 -0.05745394 -0.08525121
000330 fd 09 c2 bd 57 fa 02 3e dc 20 f2 bb c7 59 07 3e
       -0.09474561 0.1279081 -0.007389171 0.13217841
000340 af 16 31 3d 3b ca 47 3c 29 7c 91 3c 3b 20 d8 bc
       0.043234523 0.012194212 0.0177594 -0.026382556
000350 64 75 0e 3d de e7 6a bc ea 74 8b bd c3 a0 5a 3d
       0.03477992 -0.014337508 -0.06809409 0.05337597
000360 df b6 f4 bd 53 91 63 bd 45 61 70 3d 7f 45 8a be
       -0.119489424 -0.055558514 0.058686513 -0.27006146
000370 26 84 cc 3c 31 cc 0a 3e 2a b3 8f 3d 44 f1 4b bd
       0.024965357 0.13554455 0.07016595 -0.049790636
000380 eb 83 6a bd 27 b2 3f 3d 59 c2 b6 bc 78 2b 3e bd
       -0.057254713 0.04680076 -0.022309469 -0.046428174
000390 a4 66 bd bd b1 01 30 bd 83 77 61 3d 46 4e 06 3e
       -0.09248093 -0.042970363 0.055045616 0.13115796
0003a0 cf 35 32 bc d5 04 12 3e a7 cb 63 3d 60 4d 8f bc
       -0.010877087 0.14259656 0.05561414 -0.01749295
0003b0 d5 a6 a4 3d 0c 0b 6a be fc c1 30 bd 9e a7 d1 3d
       0.08039633 -0.22855777 -0.043153748 0.102370486
0003c0 02 a1 68 3d a2 20 15 3e 24 41 9b bd 44 4d 4d 3d
       0.056794174 0.1456323 -0.07580784 0.050122514
0003d0 2b 10 26 bd 95 0d 99 bd f5 05 44 3e b3 ac 03 be
       -0.040542763 -0.07473294 0.19142897 -0.12858848
0003e0 a1 09 50 bd 50 ce c4 bc 11 49 9e bd 5a bd 62 3d
       -0.050790433 -0.024024159 -0.0772878 0.05535636
0003f0 60 8f 04 3e 2b cd 83 bd 3f 35 20 bd 90 38 e5 bd
       0.12945318 -0.06435617 -0.03911328 -0.11192429

fc1.bias f4 [64]
000000 3f 3b 3d 3e d7 28 50 bc 69 f4 ba bd cd bb 0e bd
       0.18479632 -0.0127050495 -0.09128649 -0.03484707
000010 ad 13 52 3e 2b f3 16 bc 3c 49 ad bd a2 ca fe 3d
       0.20515318 -0.009213249 -0.08461234 0.12440993
000020 ad 5b 88 3d 07 25 f3 bd 8f cc 38 3e 7c e9 be 3d
       0.06658111 -0.11872297 0.18046783 0.09321877
000030 5a 5c 4f 3e f0 24 0b 3e f2 b8 84 bb eb 8d f6 bc
       0.20250073 0.1358831 -0.0040503675 -0.030096969
000040 82 c0 77 3d 1b 51 e2 ba 26 75 1a 3d 68 49 5b be
       0.060486324 -0.0017266603 0.037709378 -0.21414721
000050 1c 65 d9 bd ea 7b 7f 3d 44 43 65 3d 98 ee 05 be
       -0.10614988 0.062374033 0.055972353 -0.13079298
000060 0c 48 f4 bd 4f b9 4c 3e a0 4a 91 3b dc b4 3e bd
       -0.11927804 0.19992565 0.004433945 -0.0465592
000070 ab 8f 58 3e 31 7b fd 3d d5 6c e9 bd 9a 2b 0f be
       0.21148555 0.123770125 -0.11397711 -0.13981476
000080 5c 82 1c 3e 90 ed 67 bd 5f 65 c3 bd 30 bb cb 3d
       0.15284103 -0.05662304 -0.095408194 0.099478126
000090 ab 81 62 3d 72 ba 46 3d 84 1f 2e bc 53 bd d4 bd
       0.055299442 0.04851765 -0.010627631 -0.10387673
0000a0 52 67 9e bd c7 20 80 39 47 10 ed bd bd fd 37 3e
       -0.077345505 0.00024438484 -0.1157537 0.17967887
0000b0 83 a7 78 3d fc d5 e9 bc 7b 64 7e 3d 30 06 18 be
       0.060706627 -0.028544419 0.062107544 -0.1484611
0000c0 73 1c 02 be d5 7b a6 3d fe 0c 06 be 02 68 87 3d
       -0.12706165 0.08129088 -0.13090894 0.06611635
0000d0 ef b9 3a bd 3e 47 92 bd 47 13 2c be 92 95 01 3d
       -0.045587476 -0.071424946 -0.16804229 0.031636782
0000e0 41 0e c5 3d bd 40 80 bc ab 16 ca bd 68 5d 9b bd
       0.09621859 -0.01565587 -0.09867605 -0.07586175
0000f0 3a 9f 5a 3d 4a 49 a0 3d 81 7a e4 3c cc 98 ef 3d
       0.053374507 0.07826479 0.027890446 0.116990656

fc2.weight f4 [64, 64]
000000 75 8f d1 3c c9 51 9f 3d 0a ff 22 3e fb 38 6b 3d
       0.025581101 0.07779271 0.15917602 0.057427388
000010 67 77 dc 3d 73 31 6e bd 83 9a 36 bd 90 74 c9 ba
       0.10764962 -0.058152627 -0.044580948 -0.0015369821
000020 cd 3c 1c 3d c6 d0 c9 3c c5 d4 20 3c d0 63 f5 bd
       0.03814392 0.024635684 0.009816353 -0.11981928
000030 0b 7d d5 bd f3 c9 fc 3d c5 8a 34 be 41 57 97 bd
       -0.10424241 0.12343206 -0.17631061 -0.07389689
000040 08 b0 40 bd cd e9 02 be 3d 63 62 3c 46 dd 2a bd
       -0.047042876 -0.127845 0.013817606 -0.04171493
000050 a3 eb b8 bd a8 ca d4 bd c7 86 d4 3d 77 94 74 bd
       -0.09029319 -0.10390216 0.10377269 -0.0597119
000060 58 03 ef bd ba d1 b2 bd e9 a0 1d 3e 66 e4 38 bd
       -0.1167056 -0.087314084 0.15393414 -0.045139693
000070 d2 13 17 3c 34 64 45 3d d2 c8 87 3d fd 7b bc bd
       0.009221034 0.048191264 0.066301 -0.092033364
000080 f9 14 83 bd 30 ac a7 3c 2a 57 93 3b 35 1c 2e 3c
       -0.064004846 0.020467848 0.0044964748 0.010626842
000090 50 ca 94 bd ed 4b c2 3d 34 07 fb 3d 2a 15 73 bd
       -0.072651505 0.09487138 0.12257233 -0.059346355
0000a0 7c 7b 86 bd 7c c7 8a bd 98 13 d8 bc 2f 38 7c bd
       -0.065665215 -0.0677633 -0.02637653 -0.06157702
0000b0 48 ea 3e 3d 09 27 c5 bc 75 83 a0 bd 9b e3 5d 3d
       0.046610147 -0.024066465 -0.078375734 0.05417214
0000c0 0d 64 d3 bd a8 9d 0f bb 57 68 f0 bc 35 bf e6 bc
       -0.103218175 -0.0021914039 -0.029346628 -0.028167346
0000d0 1b 98 19 be d9 af bf bd c5 5a 06 3e 79 bf f2 bd
       -0.1499943 -0.09359712 0.13120563 -0.11852927
0000e0 c4 97 17 bd 44 03 28 3d 13 ef f5 bd bf b6 16 3d
       -0.03700997 0.04101874 -0.120084904 0.036795374
0000f0 08 de bc 3d 22 a8 10 3e 9b fa 10 be 49 29 80 3c
       0.092220366 0.14126638 -0.14158098 0.015644686
000100 65 6b 02 3b 9a 81 03 3e 8d 73 02 be 14 e1 81 bd
       0.0019900438 0.12842408 -0.12739392 -0.06341758
000110 4b f5 ae 3d 46 88 be 3d a6 79 18 bd 54 09 a2 bc
       0.0854288 0.09303336 -0.037225388 -0.019779839
000120 98 10 4f bd a5 9f a2 3c 78 56 d7 bb 19 5c 21 3e
       -0.050552934 0.019851515 -0.006571587 0.15757789
000130 40 10 ad bd 9f 36 a6 3d 77 47 3f bd 70 19 23 3d
       -0.08450365 0.08115887 -0.046699014 0.03981918
000140 f9 59 bf 3d f2 ce 60 3d 8c 94 b5 3b 7a 73 ef 3c
       0.09343333 0.05488486 0.00554139 0.029229868
000150 f9 41 20 3c 01 50 07 bd 13 33 01 bc 68 d8 56 bd
       0.009781354 -0.033035282 -0.007885712 -0.052452475
000160 bc 8f 02 bd 61 c0 a5 3d 72 65 45 be b1 4e d0 bc
       -0.031875357 0.08093334 -0.1927698 -0.025428148
000170 7b 55 9c 3d 43 99 b5 bd 90 52 14 3d a7 98 aa bd
       0.076334916 -0.08867123 0.03621155 -0.083298974
000180 69 98 5d bd ad be 28 3d da 3a eb 3a 0e 1d ea bd
       -0.054100428 0.041197468 0.0017946616 -0.11431323
000190 e5 f8 9f 3d 9e fd 2f 3d d0 15 11 bd 9e df c0 bd
       0.07811145 0.042966478 -0.035421193 -0.094176516
0001a0 25 ad 05 be e4 3a 49 3d 70 f7 82 bc 4d 1e cd bd
       -0.1305433 0.049128428 -0.015987128 -0.10015545
0001b0 0c 29 35 be f3 f7 2f bd f9 6d df bd a8 fa d0 bc
       -0.1769144 -0.042961072 -0.109096475 -0.025510147
0001c0 7e 2b aa bd f0 c3 da bc bf 91 8a bd ca 4d c5 3d
       -0.08309077 -0.026704758 -0.0676608 0.09633978
0001d0 7d e8 89 bd 42 1f d9 3b 9e 7a 09 be f0 65 c5 3c
       -0.06733797 0.0066260407 -0.13425681 0.02409646
0001e0 bb fd c8 bd b1 34 fd bc c1 c7 1e 3e 70 1d e1 3d
       -0.0981402 -0.030908914 0.15505888 0.10991943
0001f0 3e 7e 11 be 4a 68 9f 3c f7 1f 90 bc 2c da 4a bc
       -0.14208314 0.019458909 -0.017593367 -0.012381118
000200 8d ad 3d bd 01 b5 78 bd 7b 02 38 3b b6 fe 86 bd
       -0.04630809 -0.060719494 0.002807765 -0.06591551
000210 00 36 01 3d e5 cf 65 3d da 05 8a bd a5 2b 3a 3d
       0.03154564 0.056106467 -0.06739397 0.04545178
000220 b2 64 f3 3d 5b 6d f7 3c f9 95 52 3d 3e 7a 13 3d
       0.118844405 0.030203512 0.051412556 0.03600525
000230 70 6d c2 3d ec 08 50 3e 13 b5 3e 3d 7a c9 e3 3b
       0.0949353 0.20315903 0.046559405 0.006951508
000240 f8 08 b3 bd 5b 4b c6 3d 20 25 b3 3d 61 78 4f bd
       -0.08741945 0.09682342 0.087473154 -0.05065191
000250 e1 5d b0 bd 0e 4a cb 3d 2e ef be 3c 87 9a 04 3d
       -0.08611656 0.09926234 0.02330741 0.03237393
000260 57 cb 90 bc 39 24 37 3e bf ff ff 3d 75 78 43 3e
       -0.017675085 0.17884912 0.124999516 0.1908892
000270 e5 80 ee 3c c4 a4 5d 3e fd 6a 9c 3d b5 b9 c2 3b
       0.029114196 0.21644884 0.07637594 0.005942548
000280 dc a3 a1 bd ca 2e 82 bd e0 17 d7 bd b8 9e ce 3d
       -0.07892582 -0.063565806 -0.10502601 0.10088867
000290 94 41 1b 3e 50 08 df 3d 13 91 17 3e d2 fa 4e 3d
       0.15161735 0.10890257 0.14801435 0.05053217
0002a0 47 7c 46 3e 7f 59 c3 bc 4b e0 cc bd 02 a6 c5 bd
       0.19383346 -0.023846386 -0.10003718 -0.09650804
0002b0 86 fd 2f 3d 89 ab e3 3c b5 d9 29 3d 79 0c 6c bd
       0.04296639 0.027791755 0.041467387 -0.057629082
0002c0 e6 9c ac 3c 70 2e b1 bd ec a9 21 bd 80 07 71 3d
       0.021070909 -0.086514354 -0.03946869 0.058845043
0002d0 af 0e dd bd cd 94 04 3e e7 25 8f be e4 cc 7a bd
       -0.10793816 0.12947388 -0.27958605 -0.061230555
0002e0 0e 4d b1 bb 52 bb ba bd 3d dc 0d 3e 75 ad e1 3d
       -0.005410797 -0.0911776 0.13853545 0.110194124
0002f0 f9 ee 17 bd f7 10 aa 3d b3 12 88 3d fb 6c d1 3d
       -0.037093136 0.08304017 0.066441916 0.102258645
000300 35 b4 68 bd d3 e4 d2 bd f4 09 e2 3c 67 ec 32 be
       -0.056812484 -0.10297551 0.027592637 -0.17472993
000310 6a b5 eb 3b d2 fa 08 3c e7 13 c7 bc 62 cf 91 bd
       0.007193257 0.0083605815 -0.024301482 -0.07119633
000320 ff 82 dd bd d9 c2 c3 3d 3e 0a 9f bd bf f5 0b 3e
       -0.10816001 0.095586486 -0.077656254 0.13667963
000330 f8 43 d0 bd f7 77 34 3e 53 cd d2 bc ad 30 ad bd
       -0.10169214 0.17623888 -0.025732672 -0.0845655
000340 c7 4f e2 bc da 05 1e 3c 4a 66 b3 bb db 8c 23 3c
       -0.027625931 0.00964495 -0.0054748403 0.009982313
000350 e4 56 2b 3d 88 ec dc 3d f6 7d bb 3c 6e 39 c6 3c
       0.041830912 0.10787302 0.022887211 0.024197306
000360 a1 be 3d 3d 4d ad c4 3d ef 10 07 bd d2 d2 9d 3d
       0.046324376 0.09603367 -0.032975134 0.077062264
000370 c3 27 ea 3d 37 6e 14 bd ce 3b 84 3c 10 21 2d 3c
       0.11433365 -0.03623792 0.016141798 0.010566965
000380 71 6a 32 bd c8 11 9c bd 2f c0 c6 3c 10 d5 92 3d
       -0.04355854 -0.07620579 0.024261562 0.07169545
000390 5d a2 c1 bd 4b 4c e7 3c 0e 57 7b bd d2 af 37 bc
       -0.094547965 0.028234622 -0.06136232 -0.011211352
0003a0 92 f4 a0 bd e1 33 85 3d 03 b0 0e bd 01 16 92 bd
       -0.07859148 0.06504036 -0.034835827 -0.07133103
0003b0 18 d8 11 bd c7 94 9a 3d 20 1d 8d 3c b4 65 1b 3c
       -0.035606474 0.07547908 0.017225802 0.009484697
0003c0 ff bd 66 3c 80 15 9b 3d 0f 6a 03 be 9d 01 92 3d
       0.014083385 0.0757246 -0.12833427 0.07129214
0003d0 67 65 a3 3d 67 67 e3 3c d6 89 d1 bd f4 23 4b 3d
       0.07978325 0.027759267 -0.10231368 0.049594834
0003e0 cc 58 1b be c2 a9 80 bd 9f 6d 00 bd 38 37 e9 3d
       -0.15170592 -0.06282379 -0.031354543 0.11387485
0003f0 19 1c 18 be 1d f6 da 3c 1f f8 9d bd ab fd 2e 3d
       -0.14854468 0.026728684 -0.07713341 0.042722385

fc2.bias f4 [64]
000000 b6 57 eb bc 73 a3 78 bd 3d f7 00 3e 53 85 0e 3d
       -0.028728347 -0.060702752 0.12594314 0.034795117
000010 65 91 13 3e 5d e4 10 be 33 07 3d bd 81 b9 ee 3c
       0.14410932 -0.14149614 -0.046149444 0.02914119
000020 df 0b d5 3d e4 7a bb 3d 5f fe 94 bd 9b 8d 32 3e
       0.10402655 0.09154299 -0.0727508 0.1743683
000030 b8 b7 df 3c d4 a7 83 bd 4c 18 2c bd cd f7 35 3d
       0.027309284 -0.06428495 -0.04201536 0.044425774
000040 b2 f2 d8 3b b1 38 34 bd 80 fa 28 bd 98 45 04 3e
       0.0066207284 -0.043999378 -0.04125452 0.12917173
000050 f7 78 2f 3e 68 93 06 3e 8e bf 13 3d 11 8a 86 bd
       0.17135988 0.13142169 0.036071353 -0.06569303
000060 ed b0 b6 bd 32 57 3c bd 37 0f 97 3d 38 4e 1e bd
       -0.08920465 -0.045981593 0.07375949 -0.038648814
000070 d2 38 26 bd 21 a4 e1 3d 98 3c b3 3d 53 f8 bb bd
       -0.04058153 0.11017633 0.08751792 -0.091782235
000080 7c e0 c0 3d 1b 52 73 3d cf 67 75 3d 16 bf a4 bd
       0.09417817 0.059404474 0.059913453 -0.08044259
000090 ab f6 e2 bc 42 eb a9 bd b5 81 ad 3d 77 74 b5 bc
       -0.027705511 -0.08296825 0.08472005 -0.022150261
0000a0 f6 a6 af bd 1e a7 2c 3e 66 45 9d 3c 52 32 dc bc
       -0.08576767 0.16860625 0.01919813 -0.026879463
0000b0 ff 81 b3 3d ed 55 18 bc 60 42 4f bd 02 2c a8 bd
       0.08765029 -0.00929783 -0.05060041 -0.08211519
0000c0 37 91 79 3d d1 f3 ac bd da be e4 bd 85 22 0b 3e
       0.060929503 -0.08444942 -0.111692145 0.13587387
0000d0 88 59 7b bd d2 e6 45 bd 25 7c cb 3c db 02 12 be
       -0.06136468 -0.04831583 0.02483947 -0.14258902
0000e0 4e 92 2d be 24 85 d3 bd 47 29 5e 3d 2b 4c f3 3c
       -0.16950342 -0.10328129 0.054238584 0.029699406
0000f0 a6 95 21 3d 52 a2 27 3e 3d a9 36 3e 44 0d a8 bd
       0.039449356 0.16370514 0.17837997 -0.08205655

V.weight f4 [1, 64]
000000 92 02 9a bd 34 35 41 3e 1a 87 1e 3e a9 e0 b9 3d
       -0.075200215 0.18867952 0.15481225 0.09076054
000010 b0 ba 19 3e 8f d9 60 bd ed 7e 88 3e dd 20 9d bd
       0.15012622 -0.05489498 0.26659337 -0.07672284
000020 c8 54 1f 3e 76 af 32 3d 11 7d de bd e2 9c ad 3d
       0.15559685 0.043624364 -0.10863698 0.08477189
000030 dd 60 8e bd 17 29 30 3b 3f b3 39 bd ea b1 9d 3c
       -0.06952069 0.002687996 -0.045336958 0.019249875
000040 8d f1 fb bd fd 7f 22 3d 2f 9e 98 3d f5 a1 15 3e
       -0.123019315 0.03967284 0.07452046 0.14612563
000050 ce fc dd 3d 33 a7 95 3c be 63 b6 3d 97 0d 37 bd
       0.10839234 0.018268203 0.08905743 -0.044690695
000060 9b 2a f0 bd 00 2b 14 3d 21 1f 17 bd f4 a7 88 bd
       -0.11726876 0.03617382 -0.03689492 -0.066726595
000070 b0 ca bb 3d 53 4f 37 3d 3a 6c f3 bd b8 e3 00 3e
       0.09169519 0.044753384 -0.11885877 0.12586868
000080 5c 55 1a 3e 1e cf 92 3e 28 f9 97 3d 09 54 44 bd
       0.15071625 0.28673643 0.0742057 -0.047931705
000090 ff bf eb 3d c2 b5 fd bc 8b 52 cc 3d e5 4a 8c 3d
       0.1151123 -0.030970458 0.09976681 0.068502225
0000a0 eb f3 16 3e 55 dc a9 3d 2c ac a3 3c b8 f3 8a 3d
       0.14741485 0.08293978 0.019979559 0.06784767
0000b0 fe fe 90 3d cc ca 96 3d 8e 63 0e 3e f0 33 00 3e
       0.07079886 0.07362899 0.13905165 0.12519813
0000c0 57 b0 87 bd 9b 58 44 3e 95 58 03 be 98 71 11 3e
       -0.06625431 0.19174425 -0.1282676 0.14203489
0000d0 e3 6c 23 3e dc c5 c0 3d 87 5a cb 3d 33 44 b7 bc
       0.15959506 0.09412739 0.09929376 -0.022371387
0000e0 58 8e 54 bd 57 b9 17 bd 45 78 77 3e 4f 84 cf 3d
       -0.051893562 -0.03704199 0.24166973 0.10132658
0000f0 b7 a8 09 be 55 aa 30 3e db 93 f2 3d fe dc 4a 3e
       -0.13443266 0.17252477 0.118446074 0.19810864

A.weight f4 [4, 64]
000000 56 05 14 be 1b a6 62 3e 87 eb 18 3d 79 63 3f 3e
       -0.1445516 0.22133677 0.03733399 0.1869029
000010 cc 5c cf 3a 57 e4 be bd 77 16 bc 3c a0 6a d0 bd
       0.0015820502 -0.09320896 0.02295993 -0.10176587
000020 c0 a7 9e 39 79 c5 c5 3d 2a f2 b1 3c 2c 73 2a bd
       0.00030261092 0.096568055 0.021721918 -0.041613743
000030 01 3a f0 bc a9 55 b1 bc 54 ed 3c 3c 41 c5 14 be
       -0.029324533 -0.021647291 0.011531193 -0.14528371
000040 65 d3 93 bc 30 44 a8 bd 43 8c 80 bd 07 78 be 3d
       -0.018045137 -0.08216131 -0.06276753 0.09300237
000050 d4 94 89 3d ee ee 5c bd ab 26 c8 3d c5 46 99 3a
       0.0671784 -0.0539388 0.09773 0.0011694065
000060 74 32 a4 bd 4f 88 10 3e 3f 68 a5 3c 52 a4 c4 bd
       -0.08017436 0.14114498 0.02019131 -0.09601654
000070 7b 2f 32 3e 18 5d e4 3d c9 75 47 3d 99 8a 0e 3c
       0.17400925 0.11150569 0.048696313 0.008700036
000080 c3 df c2 bd 64 81 2a 3e b8 0e 83 bd 15 79 72 bd
       -0.095153354 0.16650921 -0.06399292 -0.059197504
000090 f3 96 d9 bd 53 5d d0 3d e9 1b 1a 3d 2a f8 b3 3d
       -0.106244944 0.1017405 0.037624273 0.08787568
0000a0 0e eb 7e 3d b2 e5 00 be 40 ba af 3d a4 7a 9c bd
       0.062235884 -0.12587622 0.08580446 -0.07640579
0000b0 64 65 92 bd 59 f0 f4 3d 49 49 96 bd 44 d1 84 bd
       -0.07148245 0.11959905 -0.07338197 -0.06485227
0000c0 53 4c 47 bd 51 15 d9 3d 82 f7 69 bd be 63 38 3e
       -0.048656773 0.10599769 -0.057120807 0.18006799
0000d0 79 44 cb 3d a4 7d 4e 3e e6 80 55 3d b8 91 85 bd
       0.099251695 0.20165116 0.05212488 -0.06521934
0000e0 bd 61 a9 bd 23 32 8f 3d 8c bd 13 3e 4e 74 bb bd
       -0.08270595 0.06991985 0.14427775 -0.09153043
0000f0 cc 50 68 be da cc 94 bd 24 a0 79 3d 06 fb 5d bc
       -0.22687072 -0.07265635 0.060943738 -0.013548618
000100 7d e6 8d 3d 2c 03 b6 3d 7b 45 25 3d fa fc 45 3e
       0.06928728 0.08887324 0.040349465 0.19334784
000110 3f 1b 3f bb 80 87 0e 3e a4 4a d0 3c b7 5f 14 bd
       -0.0029160527 0.13918877 0.025426216 -0.036224093
000120 0b aa 66 3d 44 2b 8d bd e3 94 4d 3d 7d 3c a0 3d
       0.05631451 -0.06893018 0.050190818 0.07824037
000130 b6 72 98 bd 88 5c 95 bd 8a 29 aa 3c 57 f9 8b 3b
       -0.074437544 -0.072930396 0.02077176 0.004271667
000140 94 da 1e bd f4 e8 29 be 86 a2 2d bd 28 14 32 bd
       -0.03878267 -0.16592771 -0.042391323 -0.043476254
000150 b6 97 e3 3d 0f ba 7c bd 7c 2c a3 3c 25 a3 9d 3c
       0.11112921 -0.061700877 0.019918673 0.019242832
000160 2d 23 18 3c 4c 52 21 3e a8 a8 23 bd 50 f8 14 3d
       0.00928573 0.1575405 -0.039955765 0.03636962
000170 3d 1d d4 bc d6 0f 80 b9 f8 60 27 bd 5b df 99 bc
       -0.025892848 -0.0002442586 -0.04086396 -0.018783262
000180 54 1d 6b bd 93 c7 fe 3c d1 c0 c1 3d b2 b0 cc bb
       -0.057401016 0.031101024 0.09460605 -0.0062466497
000190 1d 2a f5 bd a3 2a ab 3d 3e e8 22 bc 13 cd 2e 3d
       -0.11970923 0.08357742 -0.009943066 0.042676043
0001a0 a9 2b 08 bd 8d d3 50 3d 8c d8 32 ba 1b 86 91 bc
       -0.033244763 0.050983 -0.0006822429 -0.017764142
0001b0 df 8b da bc f1 fc 69 3d 13 f7 c2 3d 9a 12 65 3d
       -0.026678024 0.05712599 0.09519782 0.055925943
0001c0 79 5d 55 bd 42 7b 77 bb 56 a6 44 3d 07 67 30 bd
       -0.052091096 -0.0037762676 0.048010193 -0.043067005
0001d0 f1 f4 5c 3d 3e 47 48 3c ed 4b 14 bc b1 50 f7 bd
       0.05394453 0.012224017 -0.009051305 -0.120759375
0001e0 95 ce 57 bd 4d 4f 08 3a 9a 6e 70 bd 0b 46 87 bd
       -0.052687246 0.0005199805 -0.058699228 -0.066051565
0001f0 3b 10 db 3c 70 b1 89 bd 92 b8 2c bc 09 38 ad 3b
       0.026741138 -0.06723297 -0.010542052 0.005286221
000200 7d af df 3c 8d 67 05 be 28 e1 8f bc f0 b5 c7 bd
       0.027305359 -0.13027783 -0.017563418 -0.09751499
000210 25 cf 07 bd 0f 71 8e bd 58 0e 23 3e c9 25 c7 3c
       -0.033156533 -0.06955158 0.1592344 0.02431001
000220 bd 4e a3 3d 11 8d b7 3d a2 4a 69 bd b2 4f 5a bc
       0.079740025 0.08962453 -0.05695594 -0.013324665
000230 d9 34 68 3d dd 75 35 3d 20 21 2f be 25 3d ff 3d
       0.056691024 0.044301856 -0.1710248 0.12462834
000240 8b bb 4a bd 8b 05 9f 39 d4 88 35 3e e8 f9 ea bc
       -0.04949526 0.00030330973 0.17727977 -0.028683618
000250 09 07 d6 3d ce c1 90 bc 3e 41 12 3d 23 d9 a7 bd
       0.104505606 -0.017670538 0.03570675 -0.081957124
000260 f4 f8 65 be df 15 68 bd 71 3f 08 3d e3 90 99 3d
       -0.2245825 -0.056661483 0.033263627 0.07498338
000270 75 d5 b3 bb ac 03 d3 bd 36 4b e3 3d b8 78 d8 bd
       -0.0054880925 -0.10303435 0.1109833 -0.105699
000280 4c 19 3e 3c 33 4e 00 be f2 eb 31 3d 59 92 80 bd
       0.011602711 -0.1252983 0.043437906 -0.062779136
000290 bc 02 e1 bb 78 a0 3f bb bb 9d b8 3b 0d 9f ed bd
       -0.006866781 -0.0029239934 0.0056340373 -0.11602602
0002a0 5a fe 93 3d 82 36 b6 3d ce 69 ee bd ea 7e 95 3d
       0.07226248 0.08897115 -0.116412744 0.072995976
0002b0 59 34 00 be b3 db 6e 3d 02 8f 06 bd 9c e7 e8 3d
       -0.12519969 0.05831499 -0.032851227 0.11372301
0002c0 39 f5 bd bd 04 2b 6d 3d e8 e3 55 bd 83 6a 91 bb
       -0.09275288 0.05790235 -0.0522193 -0.004437746
0002d0 04 3d 12 3d 50 54 f0 3d c8 d4 32 3e ba 68 b0 bd
       0.03570272 0.11734831 0.17463982 -0.08613725
0002e0 3b c4 d9 bd f8 8d c9 bd b8 b3 69 bd 9f 17 8c bd
       -0.10633131 -0.098415315 -0.05705616 -0.06840443
0002f0 01 c1 04 be 92 2c 63 bd 62 ec b6 bc ab 27 e2 3d
       -0.1296425 -0.055462427 -0.022329513 0.11042722
000300 a9 07 5d 3c 56 d8 8e bd 67 e9 da bd 44 b7 c8 bd
       0.013490596 -0.069748566 -0.10689049 -0.0980058
000310 29 6d 90 bd b2 8c 8c 3c 68 d8 c5 bd 92 a2 cf bb
       -0.07052071 0.017156933 -0.09660417 -0.0063365186
000320 70 54 a2 3c e5 e4 dd bd 71 e6 29 bd 16 1e 91 bb
       0.019815654 -0.10834674 -0.04147953 -0.0044286354
000330 5f e5 62 be cf 7c d5 bd 91 40 18 3e 41 05 2d bd
       -0.2215781 -0.10424196 0.1486838 -0.04224134
000340 30 7c e0 bd 7a d3 18 3e 2a ce 8d 3d a1 fd db bd
       -0.10961187 0.14924422 0.06924088 -0.10741735
000350 95 4e ce 3d c5 be 92 bd d3 db 0c 3d 4f a0 8a 3d
       0.10073582 -0.07165293 0.03438933 0.06768858
000360 03 7d 5c bd 10 7c 92 3d 72 0d 90 bd b2 25 41 3e
       -0.053830158 0.07152569 -0.070338145 0.18862036
000370 d3 ff 63 3d 51 8c c2 bd b4 e2 51 be b6 9d 1e 3e
       0.055663895 -0.094994195 -0.20496637 0.1548985
000380 44 f0 bb bd 3d e7 f0 3d 1b 17 d4 3c 17 63 dd 3c
       -0.091766864 0.11762855 0.025889924 0.027024789
000390 d2 8f 0d 3d 1a cf 5a 3e 58 1e 1b 3e dd e7 d3 3d
       0.034560986 0.21368065 0.15148294 0.10346959
0003a0 1c 55 23 bc f7 df c7 bd 23 9f b4 bc 0d b2 02 3e
       -0.009969022 -0.09759515 -0.022048539 0.12763233
0003b0 43 64 a4 bd cf 48 6f 3c b0 7c 9c 3d c0 40 be bd
       -0.08026936 0.014604761 0.0764097 -0.09289694
0003c0 a4 75 be bd 66 6b c8 3c 0e 2c e5 bd f3 51 e0 bc
       -0.09299782 0.024465274 -0.111900434 -0.027382826
0003d0 61 e9 1f be cf 8c c8 3d 88 4f af bd d2 a6 ac bd
       -0.1561637 0.09792482 -0.08560091 -0.08430256
0003e0 cb 5b 7c 3c a0 21 67 bd 2a e3 3e bd cc a9 17 3c
       0.0154027445 -0.05642855 -0.04660336 0.009256791
0003f0 4e d7 b0 bd 5e 0f cc 3d 8a 84 a3 ba 18 65 55 bc
       -0.08634816 0.099638686 -0.0012475413 -0.013024591

A.bias f4 [4]
000000 35 82 58 bc e1 f5 c7 bd a0 5e 00 be dd 72 1e 3d
       -0.0132146375 -0.097636946 -0.12536097 0.03868376
