duel_ddqn_checkpoint.pth (torch_old, 28801 bytes, 7 tensors)

fc1.weight f4 [64, 37]
0.013391006 -0.013629872 -0.018640682 -0.06480125 -0.0782551 0.020885466 0.041458312 0.07878965
0.12310753 0.041100897 0.21499309 -0.6940008 -0.37770915 -0.31107923 -1.5966021 0.061984934
-0.0190069 0.04344347 0.005322831 -0.006104953 -0.07874422 0.16056067 0.090019725 0.14395447
0.050409798 0.029654251 0.025490617 0.0062980703 -0.0064090057 0.04016159 -0.12265383 0.0015891015
0.025669182 0.040072475 0.055417743 -0.004701909 5.2433912e-05 0.17952812 0.12204874 0.12519813
0.11742277 -0.0090040965 0.3493651 -0.41022587 -0.5535223 -0.6589776 -1.6317859 0.06123905
0.050193787 0.07142746 0.09863914 0.088920094 0.11189319 0.059130576 0.089942984 0.048788287
0.082718275 -0.014844475 -0.041386474 -0.03277983 -0.033849034 0.05869102 0.044548437 0.04136701
-0.0054833437 0.007780682 -0.05450271 0.07473315 0.19961452 0.19382206 0.005081529 -0.08314296
0.028754178 -0.003766922 0.15350208 0.1443214 0.03926071 -0.21798274 -0.3223908 -0.006076497
-0.013437121 0.058095533 0.033085424 -0.13475208 -0.076656744 -0.23181903 0.10944883 0.0444532
-0.050367415 -0.22852372 0.14591841 0.05110063 0.14492229 0.12653027 -0.20096157 -0.32610136
0.22812247 -0.2742584 -0.06796219 -0.10308587 0.11658101 0.15603015 -0.13250239 -0.11123643
-0.03316071 -0.34187543 -0.16691457 0.028538264 -0.108045064 -0.024624914 -0.02785557 0.043056604
0.089568384 0.16560726 -0.16650154 -0.3895251 -0.10724778 -0.06245572 0.16019839 -0.10362992
-0.4292446 0.15547746 -0.09117773 -0.13148111 -0.27615494 0.08122461 -0.32173127 0.18066485
0.06258816 -0.10723242 -0.28383267 0.07499782 -0.04397018 -0.02847731 -0.292066 -0.07608111
-0.24248672 0.10351483 0.2733563 -0.15358773 -0.38039443 0.11597995 0.1553471 0.010393444
-0.4579916 -0.19722651 0.10412888 0.0250716 -0.13849238 -0.1421343 -0.11186634 -0.018614458
0.1826136 0.33052862 0.050683506 -0.22287355 -0.1551409 -0.56324685 -0.099274635 0.04689286
-0.023677098 -0.019722858 -0.06083047 -0.21939802 -0.07008429 0.04541404 0.10513946 0.38185808
-0.06371274 -0.03977121 0.07444335 0.021307634 0.36500254 0.04730131 -0.029481972 0.06667548
-0.04888035 -0.008415952 0.21170247 -0.06886461 -0.05969455 -0.0071914336 0.21562876 -0.029475048
-0.007675119 0.060162183 -0.04200669 0.04971862 -0.067242414 0.045450564 0.29025066 -0.059998345
-0.2810009 -0.1543303 -1.429442 -0.0073677585 -0.067955874 0.038066033 -0.03625211 -0.086383544
-0.024591042 0.07099795 -0.06661205 0.04899483 0.02902088 0.1366941 0.03458822 0.11582831
0.04905607 -0.006971765 0.027434759 -0.08890562 -0.0080513675 0.1731577 0.08663828 -0.05294492
0.011564602 0.025821147 0.14747228 -0.011334586 -0.009991959 0.039525352 -0.17103937 0.06253562
0.003967201 0.09018648 0.026437018 -0.06812209 -0.18069983 -0.058609996 0.101942174 0.26385558
-0.15472265 0.23587881 0.051453203 0.023543397 0.030265804 -0.26537463 -0.12956649 0.08416767
0.20837268 0.21803159 -0.18640737 0.067211196 0.09361346 -0.10753449 0.09589812 -0.08536462
-0.2884232 -0.023920042 0.017794108 -0.024169441 -0.024363909 -0.08778944 0.02198305 0.13631524
00000000: f365 5b3c d44f 5fbc 58b4 98bc 85b6 84bd
00000010: 3644 a0bd ff17 ab3c 31d0 293d 785c a13d
00000020: cd1f fc3d 6a59 283d 2627 5c3e 09aa 31bf
00000030: 1863 c1be c745 9fbe 755d ccbf eae3 7d3d
00000040: 5cb4 9bbc c8f1 313d 256b ae3b 0f0c c8bb
00000050: a644 a1bd 046a 243e 435c b83d cd68 133e
00000060: 817a 4e3d 79ed f23c b3d1 d03c 0b60 ce3b
00000070: a302 d2bb 7b80 243d ee31 fbbd 6649 d03a
00000080: 2d48 d23c 0923 243d b7fd 623d 7912 9abb
00000090: 7cec 5b38 38d6 373e b1f4 f93d f033 003e
000000a0: 597b f03d eb85 13bc fbdf b23e 2009 d2be
000000b0: a3b3 0dbf c2b2 28bf 5cde d0bf ccd5 7a3d
000000c0: 0098 4d3d 8f48 923d 5103 ca3d bd1b b63d
000000d0: 4228 e53d e732 723d 0734 b83d 3ad6 473d
000000e0: 3368 a93d 3e36 73bc dd84 29bd 2544 06bd
000000f0: 49a5 0abd ff65 703d 6c78 363d 7470 293d
00000100: 9fad b3bb 17f5 fe3b 3c3e 5fbd b20d 993d
00000110: c067 4c3e 4a79 463e f482 a63b db46 aabd
00000120: e28d eb3c 77de 76bb a62f 1d3e fdc8 133e
00000130: d7cf 203d de36 5fbe 6810 a5be 5a1d c7bb
00000140: 5f27 5cbc 95f5 6d3d 9584 073d 73fc 09be
00000150: 36fe 9cbd f861 6dbe b526 e03d 8f14 363d
00000160: 104e 4ebd 1f02 6abe a36b 153e e54e 513d
00000170: 8266 143e 2791 013e dfc8 4dbe c2f6 a6be
00000180: f098 693e 996b 8cbe c32f 8bbd af1e d3bd
00000190: 06c2 ee3d 5ec6 1f3e b5ae 07be edcf e3bd
000001a0: 86d3 07bd 4c0a afbe a7eb 2abe 14c9 e93c
000001b0: bb46 ddbd 30ba c9bc 5d31 e4bc 1f5c 303d
000001c0: a16f b73d f394 293e 617f 2abe d56f c7be
000001d0: b9a4 dbbd 92d1 7fbd 0c0b 243e ec3b d4bd
000001e0: f3c5 dbbe 7c35 1f3e 64bb babd fca2 06be
000001f0: 2e64 8dbe 1759 a63d f6b9 a4be 3500 393e
00000200: 392e 803d ac9c dbbd 8452 91be 7598 993d
00000210: 131a 34bd 3f49 e9bc ad89 95be 6ad0 9bbd
00000220: 704e 78be 95ff d33d 5bf5 8b3e 1a46 1dbe
00000230: 0fc3 c2be e586 ed3d 4f13 1f3e 4449 2a3c
00000240: e07d eabe bff5 49be 8641 d53d f562 cd3c
00000250: f2d0 0dbe a78b 11be 2e1a e5bd 597d 98bc
00000260: 0fff 3a3e 0c3b a93e 8299 4f3d f738 64be
00000270: 42dd 1ebe f230 10bf 8050 cbbd ba12 403d
00000280: 79f6 c1bc d591 a1bc 5f29 79bd e0a9 60be
00000290: 5a88 8fbd 1304 3a3d 5b53 d73d e782 c33e
000002a0: d37b 82bd 23e7 22bd c175 983d 598d ae3c
000002b0: 9de1 ba3e 05bf 413d 2d84 f1bc 278d 883d
000002c0: c336 48bd 10e3 09bc 88c8 583e e308 8dbd
000002d0: 4682 74bd 1ea6 ebbb c9cd 5c3e a875 f1bc
000002e0: 917f fbbb 9f6c 763d 350f 2cbd c0a5 4b3d
000002f0: 64b6 89bd 5f2a 3a3d bc9b 943e d3c0 75bd
00000300: 5adf 8fbe c308 1ebe f5f7 b6bf 3d6d f1bb
00000310: 732c 8bbd 21eb 1b3d 187d 14bd dbe9 b0bd
00000320: 2773 c9bc 6067 913d e66b 88bd ceae 483d
00000330: 32bd ed3c 8af9 0b3e 61ac 0d3d 6537 ed3d
00000340: 05ef 483d 6773 e4bb dcbe e03c 2614 b6bd
00000350: e2e9 03bc 4150 313e 696f b13d c6dc 58bd
00000360: 7579 3d3c df86 d33c f902 173e b3b4 39bc
00000370: 50b5 23bc 56e5 213d f224 2fbe ad12 803d
00000380: 4bff 813b b0b3 b83d 7292 d83c 9883 8bbd
00000390: 6009 39be 0911 70bd 0fc7 d03d 1418 873e
000003a0: 9d6f 1ebe 378a 713e 98c0 523d 15de c03c
000003b0: feef f73c 2fdf 87be 14ad 04be 1960 ac3d
000003c0: a65f 553e ac43 5f3e 93e1 3ebe 06a6 893d
000003d0: 6ab8 bf3d 0b3b dcbd 3c66 c43d a5d3 aebd
000003e0: 35ac 93be f7f3 c3bc f3c4 913c fefe c5bc
000003f0: d296 c7bc f3ca b3bd cc15 b43c 3996 0b3e

fc1.bias f4 [64]
0.15841383 0.067005664 -0.19571544 -0.04547468 0.14321826 0.009902853 -0.114663206 0.075792536
0.01773478 -0.20401807 0.14668971 0.12011689 0.1163818 0.08536206 -0.001686492 -0.14794645
0.030118177 -0.04266494 0.05055909 -0.27308685 -0.22252966 0.10858519 0.00027148335 -0.10729777
-0.09037754 0.16203271 0.026340645 -0.23183927 0.10124218 0.14455324 -0.020953998 -0.16991706
0.11274087 -0.07055107 -0.08347578 0.077446915 -0.06735457 0.003945391 0.028294459 -0.19176812
-0.11920309 -0.0022359965 -0.08099136 0.12878166 0.016635844 -0.07255178 -0.029172473 -0.101259366
-0.12422301 0.034603506 -0.19893971 0.04722664 -0.03392507 -0.19445199 -0.15241593 -0.05713179
0.14217162 -0.0060743988 -0.010756169 -0.17199531 -0.0027773718 0.09110517 0.03860615 0.048729815
00000000: 3c37 223e 443a 893d a169 48be a843 3abd
00000010: cfa7 123e 933f 223c 8bd4 eabd 1e39 9b3d
00000020: 8848 913c 1dea 50be d435 163e d8ff f53d
00000030: 9559 ee3d 4ed2 ae3d 480d ddba 467f 17be
00000040: 65ba f63c 6fc1 2ebd 0c17 4f3d 0ad2 8bbe
00000050: d1de 63be e961 de3d e155 8e39 efbe dbbd
00000060: dc17 b9bd e7eb 253e 56c8 d73c 4667 6dbe
00000070: 0f58 cf3d c405 143e b8a7 abbc bdfe 2dbe
00000080: afe4 e63d 147d 90bd 5af5 aabd 7d9c 9e3d
00000090: 31f1 89bd 5748 813b c8c9 e73c dd5e 44be
000000a0: c020 f4bd cc89 12bb ccde a5bd 57df 033e
000000b0: e547 883c 0796 94bd 1cfb eebc 1261 cfbd
000000c0: a268 febd 68bc 0d3d dab6 4bbe b970 413d
000000d0: 04f5 0abd 6c1e 47be ec12 1cbe 0603 6abd
000000e0: 7095 113e c00b c7bb a53a 30bc 8a1f 30be
000000f0: 9104 36bb 5995 ba3d 7b21 1e3d ea98 473d

fc2.weight f4 [64, 64]
0.07248072 0.017640445 -0.02372742 0.34157813 0.0117979385 -0.16427793 0.00054876116 0.088590115
0.087040335 0.0753103 0.056671634 -0.014164792 -0.15164316 0.13800897 0.16442907 -0.036709867
-0.10800768 -0.0027786586 0.03441068 0.0046124877 -0.10108456 -0.09710376 0.057721615 -0.16537403
-0.11107736 -0.09640737 0.11170082 -0.2112217 -0.09728932 -0.04495626 -0.04612566 -0.26630747
-0.045661833 0.07254292 -0.0504346 -0.075077474 -0.22614531 0.03659188 0.01494855 0.021271873
-0.24124092 -0.23175655 0.057995215 -0.25539434 0.023019126 -0.064271644 -0.24896865 -0.024268262
-0.38550758 -0.14564405 -0.1866673 -0.01857792 0.04668869 -0.50689924 0.23388752 -0.17193033
-0.07950945 -0.10684329 -0.250997 0.2909877 -0.112564445 0.2118187 -0.14868104 0.011906505
-0.15547247 0.30130923 0.02289795 0.08081252 0.14560507 0.18074992 -0.026691006 -0.006912755
0.010565935 -0.18401755 -0.10430452 0.07396564 -0.117206365 0.07979609 -0.041239653 0.050697677
0.11892328 0.13046318 -0.09399952 0.07232073 0.12892991 -0.0092426585 -0.09108836 0.03961397
-0.09286334 0.068469465 -0.3400282 0.02089379 0.02724899 -0.14272642 -0.039388567 -0.03038909
0.039122686 -0.16104849 -0.20810172 -0.14736728 -0.0020051617 -0.20934504 0.012418767 -0.1483023
-0.08734241 -0.1119593 0.07263079 -0.14821678 -0.10613338 -0.14814438 -0.07037016 -0.10682618
-0.075525485 0.06858047 0.050236844 0.19549818 -0.075302854 0.07422168 -0.01103335 -0.0018622312
-0.00783926 0.060709663 0.25777435 0.026194783 -0.11263205 0.08364419 0.012950896 -0.10551853
0.010339571 -0.28556144 -0.0721601 -0.021954486 -0.030371625 0.06316789 -0.30614427 0.013051074
0.1648343 -0.28379318 0.008285098 -0.0009201408 0.15050963 0.13710324 0.0038116463 -0.06441307
-0.4189913 0.021090224 -0.32322583 0.012012296 -0.08299182 0.16471642 -0.14582878 -0.22726858
-0.16105096 -0.08410604 -0.20623201 -0.19298291 -0.06529282 -0.14273906 0.17389539 -0.23032738
0.053273074 -0.011821727 -0.13112848 0.14437099 0.09957133 0.1718919 -0.11824035 -0.18898839
-0.26303992 0.038172476 -0.076324694 -0.40119743 -0.14249404 -0.23992477 -0.032678466 -0.1213245
0.0903331 -0.21776792 -0.10206842 -0.015804311 -0.14638886 -0.047918256 0.06365833 -0.04645146
-0.20225856 -0.5004851 0.02081172 0.020599503 -0.10429486 -0.026415516 0.1453794 0.12575579
-0.026120722 -0.4348666 -0.047524914 -0.018436579 0.1276864 -0.14424515 -0.13456523 -0.22315004
-0.048904892 -0.15739383 -0.031391 0.20384356 0.02789371 0.016633648 -0.016943058 -0.035540596
-0.2564302 -0.26838082 0.060746036 -0.1172506 -0.0068901596 0.18985985 -0.1678743 0.18123752
0.07789184 -0.14157239 -0.09101385 0.09407002 -0.23788872 -0.2888074 0.16034174 -0.40451062
-0.14128305 -0.060602356 0.07898184 0.16706327 -0.04512809 0.14637987 0.3728341 -0.032920197
-0.4692862 0.051631544 -0.031262714 -0.26869804 -0.27276284 -0.06889179 0.034804136 -0.1266828
-0.06460606 0.075312175 -0.12181586 -0.06648906 0.105239235 0.021380534 0.094084635 0.09049222
-0.1052961 -0.11797128 -0.2240976 -0.011970615 -0.16731994 -0.099314876 -0.32696164 0.09045331
00000000: c670 943d b282 903c 0260 c2bc 54e3 ae3e
00000010: 244c 413c 7938 28be bdda 0f3a bc6e b53d
00000020: 3442 b23d 493c 9a3d 8420 683d 7213 68bc
00000030: 5848 1bbe 3952 0d3e 1860 283e 165d 16bd
00000040: 2133 ddbd 281a 36bb 37f2 0c3d 5a24 973b
00000050: 6c05 cfbd 56de c6bd 806d 6c3d cf57 29be
00000060: 877c e3bd 3a71 c5bd 66c3 e43d 804a 58be
00000070: 9f3f c7bd 0e24 38bd 43ee 3cbd 7459 88be
00000080: e707 3bbd 6291 943d 8394 4ebd 38c2 99bd
00000090: a392 67be 5ee1 153d c3ea 743c 5a42 ae3c
000000a0: dc07 77be 9751 6dbe 648c 6d3d 0cc3 82be
000000b0: 9b92 bc3c daa0 83bd a3f1 7ebe 3cce c6bc
000000c0: 4061 c5be b723 15be b625 3fbe b930 98bc
000000d0: a43c 3f3d 26c4 01bf 3680 6f3e 810e 30be
000000e0: dad5 a2bd a8d0 dabd ae82 80be 57fc 943e
000000f0: 3088 e6bd 00e7 583e d83f 18be 8013 433c
00000100: 2d34 1fbe 3445 9a3e 7b94 bb3c 0981 a53d
00000110: 7f19 153e 8216 393e 19a7 dabc 6484 e2bb
00000120: be1c 2d3c 196f 3cbe 9c9d d5bd 4c7b 973d
00000130: e409 f0bd 226c a33d e9ea 28bd 5ea8 4f3d
00000140: 0c8e f33d 2498 053e d282 c0bd e41c 943d
00000150: 3406 043e 856e 17bc 898c babd 4242 223d
00000160: 232f bebd b839 8c3d 2d18 aebe 7429 ab3c
00000170: 4639 df3c e026 12be e855 21bd 8af2 f8bc
00000180: 1c3f 203d e5e9 24be 9e18 55be 73e7 16be
00000190: 0869 03bb 8c5e 56be 1678 4b3c 8fdc 17be
000001a0: 94e0 b2bd eb4a e5bd 74bf 943d 24c6 17be
000001b0: 755c d9bd 29b3 17be 3b1e 90bd afc7 dabd
000001c0: 1bad 9abd eb73 8c3d 26c5 4d3d ad30 483e
000001d0: 6238 9abd 8901 983d 39c5 34bc 1c16 f4ba
000001e0: 3d70 00bc b2aa 783d 00fb 833e 7196 d63c
000001f0: a2ab e6bd a54d ab3d ff2f 543c 191a d8bd
00000200: 4e67 293c 1c35 92be adc8 93bd e5d9 b3bc
00000210: eacd f8bc 2b5e 813d f1be 9cbe 2cd4 553c
00000220: 53ca 283e 574d 91be 38be 073c 9b35 71ba
00000230: 321f 1a3e cb64 0c3e d0cc 793b 00eb 83bd
00000240: 0786 d6be 68c5 ac3c db7d a5be 39cf 443c
00000250: 9ef7 a9bd 6cab 283e 2454 15be 18b9 68be
00000260: 8bea 24be ca3f acbd 7c2e 53be 509d 45be
00000270: 3eb8 85bd 302a 12be a211 323e f1da 6bbe
00000280: de34 5a3d ebaf 41bc 8b46 06be fdd5 133e
00000290: 0eec cb3d 6e04 303e ff27 f2bd 2c86 41be
000002a0: 2bad 86be be5a 1c3d 1f50 9cbd c069 cdbe
000002b0: f5e9 11be d7ae 75be dbd9 05bd fb78 f8bd
000002c0: 8f00 b93d 8efe 5ebe 3f09 d1bd 0b78 81bc
000002d0: f6e6 15be ef45 44bd 4c5f 823d e343 3ebd
000002e0: de1c 4fbe cb1f 00bf 577d aa3c 4ac0 a83c
000002f0: 8b98 d5bd 5a65 d8bc 56de 143e 20c6 003e
00000300: 20fb d5bc d6a6 debe 7ca9 42bd 4f08 97bc
00000310: 39c0 023e 00b5 13be 78cb 09be 7281 64be
00000320: 7f50 48bd d92b 21be d993 00bd 5ebc 503e
00000330: 5a81 e43c 4a43 883c 2bcc 8abc 0493 11bd
00000340: d24a 83be 3669 89be d6d0 783d 1521 f0bd
00000350: d9c6 e1bb 9f6a 423e 3ee7 2bbe 5496 393e
00000360: c285 9f3d 5af8 10be 7865 babd c8a7 c03d
00000370: 1a99 73be 90de 93be a030 243e 041c cfbe
00000380: 81ac 10be 2d3a 78bd 3bc1 a13d a212 2b3e
00000390: 3bd8 38bd 9be4 153e 1ce4 be3e 54d7 06bd
000003a0: 4846 f0be 997b 533d 550d 00bd ca92 89be
000003b0: 92a7 8bbe 2417 8dbd c88e 0e3d 23b9 01be
000003c0: 2f50 84bd 453d 9a3d 987a f9bd 6b2b 88bd
000003d0: ab87 d73d 3b26 af3c 72af c03d fc53 b93d
000003e0: 7ba5 d7bd ed9a f1bd d779 65be 6620 44bc
000003f0: eb55 2bbe 9965 cbbd 8467 a7be 963f b93d

fc2.bias f4 [64]
-0.0864484 -0.0015224069 0.011310175 0.06617804 0.10600943 -0.12915982 -0.11750858 -0.023944605
0.23175661 0.058209606 -0.10451987 0.1137125 -0.0007807962 0.035890196 0.05791691 0.12476033
-0.01955396 -0.13018401 -0.13963158 0.14934562 0.08081707 0.05705369 -0.056094076 -0.011569027
-0.1596165 -0.12030181 0.095719524 -0.1292998 -0.032073867 0.0134809585 0.1194846 -0.11148129
-0.010354276 0.0949731 -0.056243554 -0.10784187 -0.14149955 -0.15347798 0.06529176 -0.044530626
-0.12992314 0.4163255 0.0014745634 -0.07846442 -0.036482655 -0.022934789 0.010797272 -0.05646258
0.07060511 -0.05989688 -0.13575234 0.15263087 -0.027965894 -0.0031955687 0.03347988 -0.15440744
-0.23317248 0.020991031 -0.04919835 -0.009904623 0.07150762 0.11519679 0.17455365 -0.061060242
00000000: dc0b b1bd 808b c7ba 504e 393c 5a88 873d
00000010: 791b d93d 7942 04be 57a8 f0bd 7a27 c4bc
00000020: 9b51 6d3e 326d 6e3d 830e d6bd 19e2 e83d
00000030: 59ae 4cba 9901 133d 483a 6d3d 5882 ff3d
00000040: a02f a0bc f54e 05be 95fb 0ebe 0fee 183e
00000050: 6c83 a53d 21b1 693d e7c2 65bd 048c 3dbc
00000060: 8272 23be cc60 f6bd 9908 c43d 2b67 04be
00000070: e35f 03bd 3ddf 5c3c 58b4 f43d 4d50 e4bd
00000080: fba4 29bc 4281 c23d a45f 66bd 33dc dcbd
00000090: 42e5 10be 5529 1dbe b0b7 853d bf65 36bd
000000a0: 920a 05be 9e28 d53e 2346 c13a f4b1 a0bd
000000b0: d66e 15bd bde1 bbbc 0be7 303c 4e45 67bd
000000c0: 6999 903d 6e56 75bd a902 0bbe 444b 1c3e
000000d0: bb18 e5bc bf6c 51bb 3322 093d fc1c 1ebe
000000e0: c4c4 6ebe 62f5 ab3c 3684 49bd 0047 22bc
000000f0: 9672 923d 4bec eb3d 31be 323e 4e1a 7abd

V.weight f4 [1, 64]
-0.083589554 0.21348433 0.18935013 0.20321293 0.30399537 -0.14521876 0.06812224 -0.16670614
0.1863959 -0.10843559 -0.1683195 0.038647093 -0.022814764 0.15397622 0.19588427 0.024673188
-0.020653307 0.01535846 -0.014131377 0.23666205 0.09492668 0.12266535 0.26625183 0.07414097
-0.13596077 -0.046524882 -0.20409256 -0.09676217 0.0063441955 -0.028484825 -0.2035921 0.31803936
0.3373504 0.16077673 0.028972112 -0.0025301885 -0.026790386 -0.25827575 0.37949076 0.17339878
0.35357884 0.2697991 0.28167477 0.02919477 -0.13253601 0.12614079 0.15480131 0.25350815
-0.2006167 0.19526641 -0.18300223 0.15385981 0.09752828 0.10950924 0.11162092 -0.04303366
-0.123655185 0.17063022 0.1251741 0.3519381 -0.14756489 0.18142359 0.06024535 0.32962376
00000000: 0031 abbd a39b 5a3e 00e5 413e 0d17 503e
00000010: 48a5 9b3e 3ab4 14be ac83 8b3d 04b5 2abe
00000020: 91de 3e3e 7b13 debd f25b 2cbe 6a4c 1e3d
00000030: 07e6 babc f1ab 1d3e e395 483e 6d1f ca3c
00000040: 2031 a9bc 0da2 7b3c 4b87 67bc 8957 723e
00000050: eb68 c23d f937 fb3d 2952 883e 39d7 973d
00000060: 4d39 0bbe e090 3ebd a4fd 50be 3f2b c6bd
00000070: f8e2 cf3b 0259 e9bc 737a 50be 0ed6 a23e
00000080: 31b9 ac3e a8a2 243e ec56 ed3c 85d1 25bb
00000090: 8377 dbbc b83c 84be 9d4c c23e 738f 313e
000000a0: 4908 b53e 1c23 8a3e ad37 903e df29 ef3c
000000b0: 85b7 07be 0d2b 013e 3c84 1e3e d2cb 813e
000000c0: 776e 4dbe ebf3 473e f064 3bbe 6d8d 1d3e
000000d0: e8bc c73d 6146 e03d 8299 e43d 1044 30bd
000000e0: ee3e fdbd b0b9 2e3e a42d 003e 3b31 b43e
000000f0: 401b 17be 1bc7 393e d4c3 763d 72c4 a83e

A.weight f4 [4, 64]
-0.19882202 0.19700314 0.08828425 0.06478661 0.07981928 -0.07110895 0.00864818 -0.17672358
-0.009948471 0.13836786 -0.02677441 -0.20964709 0.14407119 -0.049800813 0.17500496 -0.22864746
0.04129451 -0.06833739 0.0158571 0.1308589 -0.020321371 0.025562799 0.21263637 0.004607715
-0.11985598 0.06670104 -0.040159035 -0.08327402 -0.009542494 0.023983529 0.1416568 -0.0447598
0.102274425 -0.037925288 -0.1912668 0.028951943 -0.103775114 -0.058102876 0.25460938 -0.13049465
0.17370081 -0.088252775 0.1607937 -0.25274825 -0.107865274 0.1689298 -0.06684714 -0.08509445
-0.06374535 -0.0010500518 0.05163948 0.13440311 0.023087496 0.19697362 -0.0700383 -0.08375776
0.07380895 -0.049805064 0.0032555584 0.031764686 -0.32129112 -0.026228331 0.057419177 0.104306675
0.121160224 0.16162778 0.24723156 0.4650439 0.3113015 0.04713737 0.024051424 0.06433975
-0.11332938 -0.24834475 0.038551982 0.11251895 0.04666528 -0.0017240205 0.16716073 -0.12652119
-0.041598845 -0.045861106 -0.040179215 0.019169537 0.07652606 -0.14103846 0.037866876 0.17276384
-0.07190021 -0.01974565 -0.17667174 0.016322501 -0.018322196 -0.014039943 0.14412385 0.14014299
0.12923932 0.09513571 -0.002602582 0.05253574 -0.15512595 -0.053321373 0.004577982 -0.009826504
0.0264252 -0.020807337 0.03974025 -0.098371945 0.011433432 0.15421836 0.05543412 -0.0002934837
-0.22731413 -0.07930643 0.25725874 -0.00607878 0.11164045 0.074110605 -0.005483896 -0.094645984
-0.09467806 0.01253828 -0.120720915 0.013358285 0.16070783 -0.13181998 0.09076116 -0.0040820884
0.3622098 -0.14077072 -0.33726647 -0.2697493 0.1295477 0.25050935 -0.0029197426 -0.10108776
0.03000313 0.20833659 -0.07734809 -0.0019659633 0.06622358 0.13824952 -0.06938524 -0.04744151
0.014559098 0.032891087 0.030968871 -0.075159326 0.055191413 0.13694622 0.08779083 -0.19752671
-0.25383988 -0.055716768 0.054924622 0.073721394 -0.21015553 -0.26228622 -0.016067088 -0.26425368
0.1819094 -0.047552668 0.036863275 -0.049023576 0.06596071 -0.07270591 -0.09645126 0.21471092
0.3372501 -0.026655957 -0.0634478 0.10842678 -0.17723346 -0.10615405 -0.1157376 0.09629086
0.099748775 0.1332128 -0.06618421 -0.03211709 -0.15680888 0.20872125 0.33175617 -0.12208975
-0.27005994 0.03589033 -0.06273698 -0.10136603 -0.005511232 -0.06557559 -0.069336854 0.117881164
-0.21836983 -0.016758151 -0.17223182 -0.0014576161 -0.14135909 -0.13549483 -0.11707136 0.0007721275
0.019588845 -0.21126395 -0.08214148 0.09970256 -0.2487022 -0.040295534 0.17116553 -0.19957994
0.0040978612 0.10775215 0.047789752 -0.10592967 0.05990954 -0.031106034 0.09888668 0.1401989
-0.01899859 0.061587173 -0.0215191 0.111751094 -0.037172996 0.06548881 -0.22026603 0.35674953
-0.13572782 -0.053652626 0.029834187 0.04776593 -0.1202139 0.24883322 0.35250777 0.25135514
-0.11420078 -0.06467647 0.16439939 0.14259169 -0.23417857 -0.017702734 0.08999651 -0.008638435
-0.26092896 0.02183773 -0.067248 -0.060372356 -0.14104377 -0.078520656 -0.19309703 -0.085834846
-0.092763074 0.14036886 -0.007844407 0.24256247 -0.2008544 0.057738833 -0.20706002 -0.08855328
00000000: 0098 4bbe 31bb 493e 5fce b43d d8ae 843d
00000010: 4a78 a33d 92a1 91bd 19b1 0d3c 07f7 34be
00000020: e9fe 22bc 4eb0 0d3e 0256 dbbc baad 56be
00000030: 6687 133e f0fb 4bbd 8034 333e 8f22 6abe
00000040: 6f24 293d 79f4 8bbd c0e6 813c e0ff 053e
00000050: 0179 a6bc 1369 d13c 59bd 593e 51fc 963b
00000060: 0d77 f5bd 8e9a 883d cd7d 24bd 928b aabd
00000070: 1f58 1cbc 1b79 c43c 7b0e 113e 0d56 37bd
00000080: 4175 d13d 8c57 1bbd 72db 43be a02c ed3c
00000090: 0c88 d4bd 48fd 6dbd 295c 823e 64a0 05be
000000a0: a0de 313e dfbd b4bd 1ba7 243e 3868 81be
000000b0: 78e8 dcbd effb 2c3e 27e7 88bd 0046 aebd
000000c0: ec8c 82bd e4a1 89ba eb83 533d f8a0 093e
000000d0: fd21 bd3c 74b3 493e 3d70 8fbd 3089 abbd
000000e0: 2629 973d 6500 4cbd 355b 553b b01b 023d
000000f0: 4580 a4be ccdc d6bc 5f30 6b3d bd9e d53d
00000100: da22 f83d c181 253e 452a 7d3e 3c1a ee3e
00000110: e962 9f3e 1d13 413d 7e07 c53c 8fc4 833d
00000120: 3c19 e8bd 164e 7ebe afe8 1d3d 5670 e63d
00000130: 1824 3f3d 87f8 e1ba 2f2c 2b3e c58e 01be
00000140: 8d63 2abd dbd8 3bbd f692 24bd 6f09 9d3c
00000150: b2b9 9c3d 636c 10be 4c1a 1b3d 01e9 303e
00000160: 6b40 93bd a1c1 a1bc 70e9 34be c4b6 853c
00000170: 6e18 96bc ca07 66bc 3495 133e a581 0f3e
00000180: 5057 043e 83d6 c23d 1590 2abb b72f 573d
00000190: 56d9 1ebe 8367 5abd e502 963b 58ff 20bc
000001a0: a979 d83c 2674 aabc acc6 223d 3b77 c9bd
000001b0: 4a53 3b3c 6beb 1d3e e30e 633d b7de 99b9
000001c0: 09c5 68be 696b a2bd 6bb7 833e 8130 c7bb
000001d0: c0a3 e43d 4dc7 973d 41b2 b3bb c1d5 c1bd
000001e0: 92e6 c1bd 5c6d 4d3c 873c f7bd b5dc 5a3c
000001f0: 9890 243e d1fb 06be fde0 b93d 0ac3 85bb
00000200: 9073 b93e 3326 10be 31ae acbe 951c 8abe
00000210: 27a8 043e c342 803e 2759 3fbb 1907 cfbd
00000220: 20c9 f53c 3056 553e ad68 9ebd 64d7 00bb
00000230: 3aa0 873d 4891 0d3e d919 8ebd 0752 42bd
00000240: 4889 6e3c ceb8 063d 6eb2 fd3c 22ed 99bd
00000250: 6410 623d a13b 0c3e aecb b33d 7144 4abe
00000260: 4df7 81be 4437 64bd a4f8 603d 3efb 963d
00000270: 0333 57be 614a 86be 209f 83bc 424c 87be
00000280: 7546 3a3e 96c6 42bd f2fd 163d f2cc 48bd
00000290: 6916 873d d6e6 94bd 3d88 c5bd 2edd 5b3e
000002a0: 0cac ac3e 985d dabc ecf0 81bd dc0e de3d
000002b0: b07c 35be 4b67 d9bd d607 edbd 2434 c53d
000002c0: 1649 cc3d f068 083e 968b 87bd 368d 03bd
000002d0: 8292 20be 06bb 553e f2db a93e 310a fabd
000002e0: 4c45 8abe bd01 133d 3f7c 80bd fe98 cfbd
000002f0: 9197 b4bb 7f4c 86bd 7b00 8ebd ae6b f13d
00000300: 579c 5fbe 6448 89bc 8a5d 30be 7b0d bfba
00000310: 70c0 10be 28bf 0abe 1cc3 efbd 9968 4a3a
00000320: c978 a03c 9455 58be cb39 a8bd db30 cc3d
00000330: caab 7ebe ee0c 25bd 0446 2f3e af5e 4cbe
00000340: 5a47 863b 29ad dc3d 30bf 433d a8f1 d8bd
00000350: b563 753d 15d2 febc 1a85 ca3d 4d90 0f3e
00000360: eea2 9bbc d542 7c3d d348 b0bc c2dd e43d
00000370: b642 18bd ff1e 863d 6b8d 61be e0a7 b63e
00000380: 3cfc 0abe dbc2 5bbd d366 f43c 35a6 433d
00000390: b532 f6bd 23ce 7e3e e67b b43e 9fb1 803e
000003a0: 19e2 e9bd 1975 84bd 5058 283e 8e03 123e
000003b0: 82cc 6fbe 5305 91bc 1750 b83d 3988 0dbc
000003c0: 7b98 85be 0ae5 b23c 52b9 89bd 0149 77bd
000003d0: c76d 10be 70cf a0bd 3abb 45be 2eca afbd
000003e0: 91fa bdbd dbbc 0f3e d485 00bc 4c62 783e
000003f0: c7ac 4dbe 8e7f 6c3d 8b07 54be 6c5b b5bd

A.bias f4 [4]
0.012692023 -0.09308783 -0.11053115 -0.007762627
00000000: 34f2 4f3c d5a4 bebd 285e e2bd a35d febb
