duel_dqn_checkpoint.pth (torch_old, 28795 bytes, 7 tensors)

fc1.weight f4 [64, 37]
00000000: af28 963c 3c70 9f3d 9b15 a2bd 3b43 16be
00000010: 4874 cfbd 0700 5f3d 273a 88bc b385 263e
00000020: 765e bb3b ca9d d4bc 2387 45bd f2e9 933b
00000030: e084 aebd 734e 25be f5cd 19be 626e 9c3d
00000040: 66fd 253c 70b1 ca3d d87b a9bd 5ac8 a6bd
00000050: a67b 083e a818 f13d ec90 e0bb a55f b13d
00000060: 803d 8dbd 277b c63b e0b6 123e b85f a8bd
00000070: 2845 4bbd 9238 b4bd c49b 63bd 10c2 103e
00000080: c3bb c8bd 7765 4ebc 25f8 12be e7cf c4bd
00000090: 64c6 b5bd e7f5 583e cae9 973d 4d16 c73d
000000a0: ddc2 463d eabd 5fbd 196a 193e d081 79be
000000b0: 5e41 46be e2b0 a8bd e0f1 2abe a244 4e3d
000000c0: 0b54 6b3b 0bfe 0a3d 99c8 313e 0326 f53d
000000d0: f92a 0a3e 875c 06bc f05c cb3d afa3 7fbc
000000e0: 33b4 383b 7bcd edbd 6cbc 82bd 868c 32bd
000000f0: e59e bd3d 67a3 2d3e 496e b8bc 7329 b83d
00000100: a748 5a3d 21a3 3cbd 9f2e 5f3b d5f1 873c
00000110: bd28 0a3e d9a7 633e f65e 21bb ef68 ebbb
00000120: 1762 d63c 2f3e fa3d cc24 e23d 66ba 113e
00000130: 4d96 ff3d 6452 4fbd d111 81bd 3e43 41be
00000140: ef2d 8b3c 7cf2 363e 6727 b83c 0c3a 9bbe
00000150: 5426 b7bc 277e fc3c 85fa 343d cc72 20bd
00000160: 9587 343d 76da 57bd 64ee d73d 27e1 e83d
00000170: d9b9 293d 00e3 6bbd a05d 4bbe 2b1e 1f3d
00000180: 95ab 013e 2a34 b5bd 31a3 12be ee3e 20be
00000190: f5e1 313e 4c6a 3d3e c01d 41bd 1ac1 84be
000001a0: 78bc 4fbe 9681 003d ddf0 afbc 32b6 32be
000001b0: 5e0a 1cbe f87c f13c 821c 90bb 0346 423e
000001c0: ff44 813c ea97 db3d 55d7 6b3d c7f4 78be
000001d0: 3417 26bc 4148 5c3d ad20 623d 295c 4e3d
000001e0: f3b8 2d3e d224 743c 7029 fbbc e618 573d
000001f0: 456b 2abc de62 13be 0b00 563d fa75 83bb
00000200: 28a0 b0bd 60b1 38be 4101 3fbe 20f4 043e
00000210: 0a20 a13c 7895 92bd e93a 023c cecf 39be
00000220: 238b c13d ef7c d13c ea13 563d 6e87 563d
00000230: 7183 393d 8ef8 493e 0e9e 2d3e f29f 1cbd
00000240: 97bc 3cbe 759a 8bbe 1a44 503d 4148 533c
00000250: 4705 28bd df65 38be b225 16be e8ad 43be
00000260: 7164 8f3d 8888 ff3d d8fb 3e3c 2064 16be
00000270: 867b 313d 83af ffbd eb3a 7dbc 67e9 16bd
00000280: 5d34 80bd 1d71 fbbc 8765 04be 50da 01be
00000290: d326 07be 9eb1 03bd 6e12 83bc 02ec 0f3e
000002a0: 8181 09be d2c5 3dbc 9a5e e53d 1e2b 94bd
000002b0: 1063 403e 6eb9 913c 2064 1cbe 2885 763d
000002c0: 3375 ec3d 09fc d53d 0fd1 123e 8846 a5bd
000002d0: dab0 71bd d220 febc 2fd4 163e d825 3b3d
000002e0: a6d5 893d 42fc 603d dab5 49bc 5206 2fbc
000002f0: a2d5 aebd 47c1 e23d 0cd5 413e b1b2 153d
00000300: fa3e 0fbe 8104 f53d 237a fcbe 40d4 85bd
00000310: c6d8 47bd ab4b 713d 5705 c5bd 28fd 863c
00000320: 5ff4 b63b 71fc 873d fa77 72bd 070e 80bc
00000330: 1c71 8fbd 318c 1c3e d930 003c 1877 da3d
00000340: f316 5a3d e7ce 2a3c 956c 413d 42c0 2abd
00000350: 2d16 5c3c 00a8 1a3c d1be c53a ae06 853d
00000360: 424e c0bd a848 59bd 1429 ad3d 1b90 5dbe
00000370: 1545 e93c 0351 113e 1b5b ff3c 57eb 58bc
00000380: 7c03 80bc 9634 f03d 3e4f fc3b 829d 16be
00000390: 0586 423c c7bb ca3c acef aa3d dd86 933e
000003a0: 2711 333c 4c48 333e 6f02 113e de08 c3bc
000003b0: 63d5 353e b5b7 09be f694 1fbc 25b2 a13d
000003c0: e031 9f3d fad0 683e e28c 11be 38cd a63d
000003d0: b4ee 0a3e 76a7 2fbd d5ba 8c3e 9528 1bbe
000003e0: f21e 193d 09df 443c 036b 82bd 6d48 d93d
000003f0: 34b9 f83d bb0a 40bc 728b 41bd 0527 a4bc
0.018329946 0.07785079 -0.07914277 -0.14674084 -0.10129601 0.054443385 -0.016629292 0.1626194
0.0057180477 -0.025954146 -0.04822458 0.0045139724 -0.08521438 -0.16143207 -0.15019973 0.07638241
0.010131216 0.09897125 -0.082755744 -0.08143683 0.13328418 0.11772281 -0.0068532135 0.08660821
-0.06896496 0.0060571614 0.14327574 -0.08221382 -0.0496265 -0.087998524 -0.05556847 0.14136529
-0.09801438 -0.012597433 -0.14352472 -0.09609967 -0.08875731 0.21187554 0.074176386 0.097210504
0.04852568 -0.054624476 0.1498188 -0.24365926 -0.19360873 -0.08236863 -0.1669383 0.050358422
0.0035908248 0.03393368 0.17361678 0.11970141 0.13492955 -0.008200771 0.09929836 -0.01560299
0.002818358 -0.11611458 -0.06383595 -0.043591045 0.09258822 0.16956864 -0.022513526 0.08992281
0.053291943 -0.04605401 0.0034054888 0.016594807 0.13492103 0.22231998 -0.0024623252 -0.00718414
0.02616982 0.12218892 0.11042175 0.14231262 0.124798395 -0.050615683 -0.06302226 -0.18873307
0.016989676 0.17865938 0.022479726 -0.30317724 -0.022357143 0.030821873 0.044184227 -0.03917198
0.044074614 -0.052698575 0.10543516 0.113710694 0.041437004 -0.05758953 -0.19859934 0.03884713
0.1266311 -0.0884784 -0.14320065 -0.15649006 0.17371352 0.1849758 -0.047147512 -0.25928575
-0.20286739 0.031373583 -0.021477157 -0.17452314 -0.1523833 0.029478535 -0.0043979296 0.1897202
0.01577997 0.10722335 0.057578404 -0.24312125 -0.010137368 0.053779844 0.055206943 0.05038086
0.16965084 0.014901357 -0.030659407 0.05251398 -0.010401552 -0.14393184 0.052246135 -0.0040118666
-0.086242974 -0.18036413 -0.18652822 0.12983751 0.019668598 -0.07157415 0.007948616 -0.18145677
0.09450366 0.025572268 0.052265085 0.05237525 0.045291368 0.19723722 0.16954824 -0.038238473
-0.18431316 -0.2726628 0.050846197 0.012895645 -0.041020658 -0.1800761 -0.14662817 -0.19109309
0.070015796 0.12477213 0.011656724 -0.14686632 0.04333069 -0.12484648 -0.015455942 -0.036843684
-0.062599875 -0.030693585 -0.12929355 -0.12680936 -0.13198404 -0.03215181 -0.015999999 0.14054874
-0.13428308 -0.011582809 0.111996844 -0.072347865 0.1878779 0.017788615 -0.1527257 0.06018558
0.115457915 0.104484625 0.14337562 -0.080700934 -0.05900655 -0.03102151 0.14729379 0.045690387
0.06730203 0.05492807 -0.012311423 -0.010682659 -0.08536841 0.11072021 0.18928927 0.036547367
-0.13988867 0.1196375 -0.49311933 -0.06534624 -0.048790716 0.058910053 -0.09620159 0.016478136
0.0055833305 0.06639946 -0.05919645 -0.015631689 -0.07003996 0.15287854 0.007824146 0.106672466
0.053244542 0.010425306 0.047222693 -0.041687258 0.0134330215 0.009439468 0.0015086775 0.06495415
-0.093899265 -0.053047806 0.08455101 -0.21637003 0.028475324 0.1419106 0.031171372 -0.013239703
-0.015626661 0.1172878 0.007699876 -0.14708522 0.011872773 0.024747742 0.08346495 0.2881383
0.010929382 0.17508048 0.14161085 -0.02380794 0.17757182 -0.13448985 -0.009740105 0.078953065
0.07773185 0.22735968 -0.14213899 0.08144611 0.1356762 -0.042884313 0.27486292 -0.151522
0.037383027 0.012016066 -0.06368067 0.10609517 0.121447 -0.011721308 -0.047252126 -0.020038137

fc1.bias f4 [64]
00000000: d6e2 303e 5536 093d f5c1 b8bd 5139 0fbc
00000010: 143a 0e3e ddb0 1d3c 8269 9fbc e9ad 923d
00000020: 84b8 213c 2160 18be 95c0 3f3e d908 163e
00000030: 0b60 453e cc09 043e bd62 e33b 0e4c 0abc
00000040: 926b 613c 26b0 93bc 4564 e53c 999d 36be
00000050: cd12 a6bd c4af ad3d c210 3c3d a82b f7bd
00000060: 90c8 ffbd 59bc 5f3e 9178 31bb 7bd6 9ebd
00000070: 925b 1e3e f45d 033e a2ce 65bd 98be 35be
00000080: 2f71 563e a42d 6bbc 1eba f6bd ab1e ca3d
00000090: 448d f43c 69c3 893d c82e a8bc a715 9abd
000000a0: b80b a7bd d0a6 233b af5a fbbd 49db 373e
000000b0: 5bd6 633d ba3e 5bbd 17dd 553d 0f0e 0fbe
000000c0: a615 07be 1d09 7f3d 18d4 09be a19b 8d3d
000000d0: 4b7d babc 9bd6 89bd 2f73 27be a53a f23c
000000e0: 4b7b ed3d 5295 afbc 1d2d eebd 4c89 09be
000000f0: f01d 803d 8998 a93d 99a0 e43c 9905 dd3d
0.17274031 0.03349908 -0.09021369 -0.008741693 0.13889343 0.009624687 -0.01945949 0.07162077
0.009870652 -0.1488042 0.18725808 0.14651813 0.19274919 0.12894362 0.0069392608 -0.008440984
0.013758557 -0.01802833 0.028001914 -0.17833556 -0.08109055 0.0848079 0.04591442 -0.12068874
-0.12489426 0.21849193 -0.002707992 -0.07755753 0.15464619 0.12828809 -0.056105264 -0.17748487
0.20941614 -0.014354143 -0.12047218 0.09869131 0.029852517 0.06726725 -0.02053012 -0.07523661
-0.08156532 0.0024971254 -0.12273156 0.17954744 0.055624347 -0.053526618 0.0522128 -0.13970207
-0.13191852 0.06226455 -0.13459814 0.069144495 -0.022764822 -0.06730386 -0.16352533 0.02956898
0.11595782 -0.021433506 -0.116296984 -0.13431281 0.0625571 0.08281047 0.02790861 0.10792083

fc2.weight f4 [64, 64]
00000000: ddab 853c 3cb2 803d 8bac 893d c716 243e
00000010: 5444 283d af23 5fbd 06a9 96bd fb40 8abc
00000020: 88f6 a33d 895d b83c 4109 c13b 3318 30be
00000030: 7626 67bd 1d46 a93d 73c9 21bc de75 85bd
00000040: 068b 50bd 7b71 6c3b 98c0 a53d 5252 a63d
00000050: 9ae6 1dbd 6359 50bd 4ff5 003e fcee adbd
00000060: 98d8 d4bd 1ca2 44bd 670e 393d af12 b7bc
00000070: 7c55 5d3c 1b91 0b3d 5209 ac3d 6cb9 5fbd
00000080: 5fdb e23d 6e7a 6bbc 558a 4f3c 9ea4 9ebd
00000090: e9ee e3bd b0fd cb3d 33d8 603e 98c9 e4bd
000000a0: 73be bcbd dcdc 20bc b00b eebc 539c 05bd
000000b0: 9183 033e b275 63bc 41e1 f5bd 21ae 273d
000000c0: 5668 a1bc d2e9 483d 8f94 52bd 85da 0abd
000000d0: 8058 bbbd cb93 05be 8fc1 63bd 98b7 afbc
000000e0: fca3 4cbd 89c5 51bc 8e16 1bbe f042 9c3d
000000f0: eab2 653d 686c cd3d 5028 a8bd 261e cebd
00000100: 62fb 8d3d 5015 003e 1903 15be 867e 28bd
00000110: 77c4 b53d 9e2f bf3d 3432 bcbd f581 533d
00000120: d848 56bd 1ceb 223d f4f1 b53a f542 183e
00000130: b7c3 a7bd 440b f73d df90 a5bd 1931 de3b
00000140: c573 e23d 7e22 4a3d d496 0a3c cf4a 2fbb
00000150: 407d a63c cf12 7cbc ab12 8a3d 3dea 643c
00000160: f06d eabc 324d ba3d 70f0 64be 7ce3 4cbd
00000170: 37f2 ab3d 33af c1bd ac6b 313d bfd3 68bc
00000180: 7ef7 a1bd 2489 f1ba a23c 16bd 9d36 c5bd
00000190: 61a1 98b8 9d75 c13d a326 393d 920a 41be
000001a0: 0f8c e73c 7a47 873d 1077 c738 4fa5 0abe
000001b0: b78c a0bd fead 3bbd 3b20 e2bd 8a89 e9bc
000001c0: 53a4 b1bd 91c6 53bc c865 0dbd 4ff7 e13d
000001d0: 3a21 a0bd c264 b33c d750 14be 4749 bd3c
000001e0: 5ab5 dbbd a238 ab3c ef9a 183e 16e5 033d
000001f0: 99aa 1fbe 1f36 7d3c 412f 36bc 1e73 423d
00000200: a812 8ebd 225c 70bd 582b 443c ff85 1d3c
00000210: 4a95 ef3c 39d0 a83d a21e 9fbd 6cb8 2d3d
00000220: 09fc d73d afa8 b2bb c73a 6b3d 4c3e 433d
00000230: 9904 803d 7542 3f3e a6d5 c2bb eab0 7e3c
00000240: 3250 dcbd 6a1b c13d 5009 943d e9a5 42bd
00000250: 04b1 d0bd 2718 c13d f224 6d3c 3246 0c3d
00000260: a948 c93b 10af 2c3e 75f5 343e 9b16 0e3e
00000270: f690 453c bbbd 573e 4704 993d 46aa 713b
00000280: 7026 c4bd 9798 68bd 784e 04be 3524 b33d
00000290: f4f9 073e bb2e 063e 2f0c f13d 1c95 ddbb
000002a0: 8f63 353e 0778 ddba 1ac0 43bd d61f afbd
000002b0: 13a5 3f3d e743 ca3c 7577 503d 35a5 4bbd
000002c0: 4aea 0e3d f45a d1bd 79b3 fa3a 5b1d 823d
000002d0: 1fa1 d9bd 65f9 453e 95bd 85be 8a9a 77bd
000002e0: 33c1 5e3b ae58 a2bd ec53 0a3e ee37 933d
000002f0: a79e b2bc 9f8c e23d c821 923d 9518 9b3d
00000300: 8299 88bd e829 3bbe c152 f33c d4ba dbbc
00000310: 4d93 98bd 0845 aebc d621 bcbc 94cc bcbc
00000320: 7d74 83bd 955a e73b d0a1 513c b971 5c3c
00000330: 9091 1dbd 1f09 a83d 1478 e83c 48f5 a3bd
00000340: 97c9 a4bc 5020 0fbd 2492 13bc 7b32 c8bc
00000350: bf69 653d f4bb d23d 07bc 053d ea97 d03c
00000360: f22a 1f3d fa25 04ba 6e0c 4b3c 184f 41bd
00000370: f604 453c 050d 1bbe b64e 133d 26d5 98bc
00000380: 5007 283d 6426 46bd 6b11 973d 1fd3 c13d
00000390: 52d9 e6bd f2ca 453d 902d 913d 506d dc3d
000003a0: 562d 09bd 3312 3e3d a239 c2bc d1b6 8fba
000003b0: 7763 ae3c 0d41 bd3c bce4 943d df79 c3bd
000003c0: c4eb 193d f058 6c3d 09e5 d7bd 3113 2fbd
000003d0: 6223 b23d a4b1 e8bd 009b ecbc 1733 133e
000003e0: ec9d 5dbd ffd1 1fbd 7ac0 a0bc e2f4 963d
000003f0: 72f4 6ebd af07 debd 902a 08bd 0a79 44bd
0.016317302 0.062839955 0.06722363 0.16024314 0.041080788 -0.05447739 -0.073564574 -0.016876688
0.080060065 0.022505539 0.0058909957 -0.17196731 -0.056433164 0.08265326 -0.009874689 -0.06516622
-0.050913833 0.0036078382 0.08093375 0.0812117 -0.038549997 -0.050866496 0.12593578 -0.08492848
-0.103928745 -0.048006162 0.04517975 -0.022347776 0.013509151 0.03407393 0.08400215 -0.05462019
0.11076998 -0.014372451 0.012667258 -0.07746242 -0.11129553 0.099604964 0.21957473 -0.111712635
-0.09216013 -0.009818282 -0.029058307 -0.032619786 0.12843157 -0.013883041 -0.120058544 0.040937547
-0.019703072 0.049051113 -0.051411208 -0.033899803 -0.091477394 -0.1304466 -0.055604514 -0.021449849
-0.049961075 -0.012803444 -0.15145323 0.07629955 0.05607883 0.100304425 -0.08210814 -0.10064344
0.06932713 0.1250813 -0.14551963 -0.041136287 0.08875363 0.09335254 -0.09189263 0.05163761
-0.052315563 0.039775 0.0013881312 0.14869292 -0.081916265 0.120626956 -0.080842726 0.0067807552
0.110572375 0.0493493 0.008458812 -0.002674747 0.020323396 -0.015385344 0.06741842 0.013971862
-0.028616875 0.09096755 -0.22357345 -0.050021634 0.08395808 -0.09457245 0.043315575 -0.01421064
-0.079085335 -0.0018427712 -0.036678918 -0.09629557 -7.277984e-05 0.09446261 0.045202862 -0.18851689
0.028265027 0.0660543 9.5112366e-05 -0.13539623 -0.07839339 -0.04582023 -0.11041304 -0.028507967
-0.086739205 -0.01292576 -0.034520894 0.110334985 -0.078188375 0.021898631 -0.14483963 0.02310623
-0.107279494 0.020901028 0.14902852 0.032200895 -0.15592422 0.015454798 -0.011119665 0.047473066
-0.06937152 -0.058681615 0.011973225 0.009614467 0.029245991 0.0824284 -0.077695146 0.042412207
0.10546119 -0.0054522376 0.0574291 0.047666833 0.06250877 0.18677695 -0.005945879 0.015545109
-0.107574835 0.09429057 0.07228339 -0.047521506 -0.10190013 0.09428435 0.0144741405 0.03424663
0.006142695 0.16863656 0.1767176 0.13875811 0.012058487 0.2106847 0.07471519 0.0036875173
-0.09577644 -0.056786146 -0.12920558 0.0874714 0.13278943 0.13103764 0.11769902 -0.00676216
0.1771376 -0.0016896733 -0.047790624 -0.08550994 0.046788286 0.024690581 0.050895173 -0.0497181
0.034891404 -0.10222426 0.0019126973 0.06353255 -0.106264345 0.19333418 -0.26121202 -0.060450114
0.0033989667 -0.079270706 0.13508576 0.07188402 -0.021804167 0.110619776 0.071353495 0.07573048
-0.06669904 -0.18277705 0.029702546 -0.026822485 -0.074499704 -0.021273151 -0.022965353 -0.02304677
-0.06418703 0.0070603588 0.012794927 0.013454848 -0.038468897 0.08204865 0.02837757 -0.08005768
-0.020115657 -0.034942925 -0.009007011 -0.024438133 0.05600905 0.102897555 0.03265002 0.025463063
0.038859315 -0.00050410593 0.0123931 -0.04719457 0.012025109 -0.15141685 0.035963736 -0.018656325
0.0410226 -0.048376456 0.07376369 0.09464096 -0.11271919 0.048289247 0.070887685 0.10763037
-0.0334905 0.046404075 -0.023709122 -0.0010964518 0.021287663 0.023102308 0.0727019 -0.095447294
0.03757836 0.057702005 -0.10541732 -0.04274291 0.08698155 -0.11362007 -0.028882504 0.14374958
-0.054105684 -0.039018627 -0.01962303 0.073709264 -0.05833859 -0.10841309 -0.033243716 -0.047966994

fc2.bias f4 [64]
00000000: d6f9 7ebc 21a4 38bd 3a0c de3d 8ce1 813c
00000010: 267e 293e 442c 01be 6518 46bd 8c4a d93c
00000020: 1acd 023e f116 a63d 223f 8cbd 45e7 413e
00000030: 0401 5b3d f0ea d5bc 7233 9abc 63db 583d
00000040: 03dd a63b 2012 4fbd 7735 3abd 9bba 083e
00000050: d598 133e c3c7 123e 147c d93c 45a1 70bd
00000060: 1bfa bfbd 9785 b1bd 9f86 c93d 0fca 95bd
00000070: fb92 42bc 2770 963d 1985 ca3d 8c54 5bbd
00000080: 8497 ab3d d3eb ad3d 8c63 713d 0483 80bd
00000090: 2b47 20bd ab85 fcbd f59b de3d 8fb5 afbc
000000a0: 45af a0bd 7116 313e 6c76 d63c 8a58 ae3b
000000b0: 90db c03d 7d99 9dbc a155 18bd b40e c4bd
000000c0: d644 913d 2d03 b9bd 3f41 d9bd 9b44 123e
000000d0: 435b 58bd 2506 14bd 2c42 8a3c 6ac5 16be
000000e0: d5cd 2ebe 0f57 d5bd 5f9a 8a3d 5a47 333d
000000f0: 086a 6d3d 7086 2a3e b550 343e 5b69 21bd
-0.015562495 -0.0450784 0.10842176 0.01585462 0.16552028 -0.12614542 -0.04836311 0.026524805
0.12773553 0.081098445 -0.06847979 0.18935879 0.053467765 -0.026113003 -0.01882336 0.0529436
0.0050922646 -0.050554395 -0.045461144 0.13352434 0.1441377 0.14334016 0.026548423 -0.05874755
-0.09373876 -0.08668058 0.0984013 -0.0731393 -0.011875863 0.0734561 0.098886676 -0.053547427
0.08378509 0.084922455 0.058932826 -0.06274989 -0.03913037 -0.12330183 0.1086959 -0.021448879
-0.0784593 0.17293717 0.026179515 0.0053206133 0.09416878 -0.019238228 -0.037191037 -0.09573117
0.070932075 -0.09033809 -0.10608148 0.14283983 -0.05282141 -0.036138672 0.016877256 -0.14723745
-0.17070706 -0.10416996 0.06767725 0.043769218 0.057962447 0.16652846 0.17608912 -0.039407115

V.weight f4 [1, 64]
00000000: b224 4b3d f424 5c3e 08af 0c3e 1061 d9bd
00000010: c492 2d3e fdef acbd 00af 5a3e d445 91bd
00000020: d237 f33d e904 d93c bfe8 c8bd 3a7f 153e
00000030: c2d7 853d f4c0 c23c 876c 3bbd f946 2c3c
00000040: 4730 603d 6f06 813d 466b 8ebd 19be 0b3e
00000050: 3f93 da3d 7932 163c 7fae ad3d 7c8a 3b3d
00000060: b4a9 9cbd 87c1 f4bd 045f e1bd 2cf5 fcbd
00000070: bb4b fb3d 0148 823d 9410 15be 26f9 bb3d
00000080: f0d6 173e f3c5 7f3e d306 923d 90e7 8dbd
00000090: a849 c73d 6772 16be 801f 2a3e a61c 813d
000000a0: 8083 3f3e 07b5 a63d 03db 843d 5f45 9c3d
000000b0: ef97 933d c7f6 cc3d 82de e83d ac14 053e
000000c0: fa75 02bd a189 3f3e 73bc 583d 2efd 3e3e
000000d0: c9c9 da3d 1917 93bb c99b 4d3e 5b0d 05bd
000000e0: e4d0 80bd 5ba4 8dbc 5ae1 733e 6bac ee3d
000000f0: 468c 5dbd b356 3a3e 1448 043e ea3e 7f3e
0.049595542 0.21498471 0.13738644 -0.10614216 0.16950518 -0.08444212 0.2135582 -0.07093397
0.11875881 0.0264916 -0.09810018 0.14599314 0.06535293 0.023773648 -0.045757797 0.010514968
0.05473354 0.06300055 -0.069540545 0.13646735 0.10672616 0.009167307 0.08480548 0.045786366
-0.07649556 -0.11950975 -0.11004451 -0.1235145 0.12270304 0.0636139 -0.14557105 0.09178381
0.14828086 0.24977855 0.07130208 -0.06928933 0.09730846 -0.14692079 0.16613579 0.063042924
0.18702507 0.08139997 0.06487086 0.07630419 0.072067134 0.100080065 0.11370565 0.12996167
-0.031850792 0.18704845 0.052914094 0.18651268 0.10683019 -0.0044888374 0.20078959 -0.03248344
-0.06289843 -0.017290285 0.23816434 0.1165398 -0.054088853 0.18197136 0.1291812 0.24926344

A.weight f4 [4, 64]
00000000: 0b2e 46bd 5b15 823e 1187 f33c d844 2c3d
00000010: c6cd 313d 37ad 5cbd 110f 04bd 97e0 bfbd
00000020: 543f 0bbd 2417 dc3d e2fe 333d 192e 04be
00000030: 0d1e 073d c3ac 0cba 9bc7 d9bc f58b eabd
00000040: 93f8 433e bbab 06be 4a22 9dbd e85b bd3d
00000050: 3c10 5a3d 9178 f0bd a219 c63d e5c0 1abd
00000060: 97a0 983d 5b25 08bc 8ea8 203c 578b cbbd
00000070: 5aca df3d cef6 f93d 1749 113d 7e7a 7bbc
00000080: de01 dabd 72aa 073e c56d 52bd 5f07 09bd
00000090: c49d efbd 7930 333d a58d 5c3e 1caf c33d
000000a0: 7c74 6abd c47f fabd 3209 173e 1a43 8bbd
000000b0: f7c5 9fbd 994b 023e 7646 b0bd bb0a 5bbd
000000c0: e701 8bbc 095c cb3d 736a 5d3d dc68 123e
000000d0: f280 163d adb1 d23d 04d3 f13d 4c58 c1bd
000000e0: 3dea 83bd 5a8c 993d 530a 73bd 4649 9bbd
000000f0: db6a 08be 0352 63bd 2f3d 243d a8a3 a43d
00000100: 48b2 843d f106 893d ed05 233d f432 9f3d
00000110: e38c 84bc 9dcf 023e 5615 563c 6a48 bebc
00000120: 7a04 2d3d 4737 55bd 4e1e 813c ae7a 0a3d
00000130: e673 c1bd 25b3 93bd dbab 593d d014 803c
00000140: c5c6 6ebd c23a 50bd 8b8f 3bbd 0cb1 37bd
00000150: f1ee 053e 44b0 68bd 387f b23c 19f2 ce3d
00000160: 4c8d 0bbc 57ce 16bd 74ad 0abd 3f88 da3d
00000170: 1cb3 3a3d e0cd ba3c d2b6 b5bb 34e7 80bd
00000180: 841c 3abd 236d 383d 0403 893d c7fc 82bc
00000190: a974 d5bd 20cb ff3b 4d5a 19bd a399 efbc
000001a0: 6fe4 463c 7954 893d 43c9 6bbb 4f85 c7bc
000001b0: 2c89 babb b97a 2c3e 60f4 9f3d abb4 32bd
000001c0: 3f29 80bd 5a7a d1bc d245 2b3e 322d 24bd
000001d0: 4d5d c2bd 86cd e03c a8a4 ab3d 3698 93bd
000001e0: 6b84 84bd 5881 69ba 5a15 34bd 6711 94bd
000001f0: a1e4 d53c 08c8 7ebd 72f1 58bd 984c 593c
00000200: 5b83 443e 7579 87bd cb8f 4fbd 7bf8 cabd
00000210: 7209 ecbc 0a01 4b3d 05b0 963d 26ff 0c3d
00000220: 7f5c e43d ef94 af3d ff0a 3fbd 5e9f f33d
00000230: c0e1 9e3d 5d24 893d 3968 a1bd 7495 d73d
00000240: bf2e 39be 1bad 8d3d 37e5 aa3d bde9 34bd
00000250: 8ccf f73d 6f40 06bd 7224 223d 2e73 99bd
00000260: 5b1d 22be ccee dcbc 16a7 d8bc 3853 693d
00000270: 480d 15be 0cd3 67bd 1833 cd3d 5a6e 9fbd
00000280: 3f28 ed3b d203 223d 8ebe 9c3c fe92 0bbe
00000290: 123e 173c f0dc 8f3c dc5b 733d 232c e3bd
000002a0: 1f48 c63d 3ef0 ab3d 4277 d8bd cee8 373e
000002b0: 5578 02be e4b4 ab3c da68 96bc 6a4b 8c3d
000002c0: a5d9 6abd 98f1 993a fca9 e73c 1203 803d
000002d0: 193e 8abd 30ce de3d f5f0 7a3e 6fba 12bd
000002e0: b2c7 d8bd 0cd1 dabd 2b5e 13bd 21c3 c6bd
000002f0: b7d5 75bd 5323 8cbd a330 a03b 9a4b 0cbc
00000300: 2f62 b7bb 2ffe d0bd 3909 acbd 3683 fcbd
00000310: ae02 f2bd ef75 73bd de25 12bc 0e02 8bbc
00000320: d003 80bc 7939 e7bd f2c0 5bbd 016b a23d
00000330: 742d 58bd 506c 0bbe 246f 153e 5d91 8dbd
00000340: a1ec b3bd 96f0 103e aeff 6f3d b026 e5bd
00000350: 032d c93d 98cd 75bd 4b9c 423d a026 603e
00000360: 20e8 e6bd efa6 073e 2ffa 94bd d69b f03c
00000370: 2ff9 983e 0ed2 cbbd 57ae 7ebe f39f c33d
00000380: cbf4 b5bd 3baf 8bbd 7aca 813d e3bb 603d
00000390: c164 8e3c d9c8 bd3d e801 873c 9cd5 fc3d
000003a0: 01ec 873d 973a e0bd df98 d3bc d497 bb3d
000003b0: 3bb4 a2bd 4574 583d b9f2 423d e2a6 593c
000003c0: b179 37be be8e f03b 7ed3 ccbd 4c1f 36bd
000003d0: c249 ff38 a3e1 0a3d c059 17be 1413 fdbd
000003e0: 360f 00bc 8431 c1bc d048 5d3a 291a 903b
000003f0: 8239 fdbd 761d e53d 1967 2a3c 3fab 48bd
-0.048383754 0.25406918 0.02972749 0.042057842 0.04340913 -0.053876128 -0.03224093 -0.09369009
-0.03399594 0.10746601 0.043944247 -0.1290821 0.032987643 -0.00053663197 -0.026584437 -0.11452476
0.19137792 -0.13151447 -0.07672556 0.09246045 0.05323814 -0.11741746 0.09672858 -0.037781615
0.07452505 -0.0083096875 0.009805812 -0.09938686 0.109272674 0.122052774 0.035470095 -0.015349029
-0.106448874 0.13248613 -0.051374216 -0.033454295 -0.11700013 0.0437474 0.21538408 0.09554884
-0.057239994 -0.122314006 0.14749601 -0.06799908 -0.07801431 0.1272415 -0.08607189 -0.05347703
-0.01696868 0.09929664 0.054056596 0.14297813 0.036744066 0.10287795 0.11807826 -0.094406694
-0.06441162 0.07497473 -0.059336018 -0.07582335 -0.13322012 -0.055498134 0.04009741 0.080390275
0.06479317 0.06690777 0.039800573 0.077733904 -0.016180461 0.1277451 0.01306661 -0.02322789
0.042240597 -0.05205467 0.01576152 0.033808403 -0.09445934 -0.072119035 0.05314241 0.015634924
-0.05829503 -0.050837286 -0.04579119 -0.04484658 0.1307943 -0.056808725 0.021789178 0.1010477
-0.0085175745 -0.036817875 -0.033856824 0.10670518 0.04558097 0.022803247 -0.0055454755 -0.062940985
-0.04543735 0.045025956 0.06690028 -0.015989674 -0.10422642 0.007806197 -0.037439633 -0.029248064
0.012139424 0.06705565 -0.0035978116 -0.024355559 -0.0056926217 0.1684369 0.07810283 -0.04362933
-0.06257867 -0.025571037 0.16725853 -0.040082164 -0.09490452 0.027441751 0.08381015 -0.07206766
-0.06470569 -0.00089075183 -0.043965675 -0.07229882 0.026109995 -0.062202483 -0.052964635 0.01326289
0.19190733 -0.06614963 -0.05067424 -0.09910675 -0.028813098 0.049561538 0.07357792 0.034423016
0.11150455 0.08573329 -0.046641346 0.11895631 0.07757902 0.06696389 -0.07881207 0.10526553
-0.18084238 0.06917783 0.083445005 -0.044168223 0.12100133 -0.032776292 0.03958554 -0.07492672
-0.1583151 -0.026969336 -0.02644686 0.05696413 -0.14555848 -0.056597754 0.10019511 -0.0778472
0.0072374637 0.039554425 0.019133832 -0.13630292 0.009231107 0.017561406 0.059413776 -0.11092403
0.09681725 0.08395432 -0.105696216 0.17959902 -0.12741216 0.020960279 -0.018360544 0.068503216
-0.05733647 0.0011744974 0.028279297 0.062505856 -0.067501254 0.10879171 0.2450598 -0.03582233
-0.10584964 -0.10684404 -0.035978477 -0.09705187 -0.060018267 -0.06842675 0.0048886104 -0.008562947
-0.005596421 -0.10204732 -0.084001966 -0.12329714 -0.11816917 -0.059438642 -0.008920161 -0.016968753
-0.015626818 -0.11290259 -0.053650804 0.079305656 -0.052777722 -0.13615537 0.14593178 -0.069124915
-0.08785368 0.14154276 0.058593445 -0.1118902 0.098230384 -0.060010523 0.047512334 0.21889734
-0.11274743 0.13247274 -0.07274281 0.029371183 0.29877612 -0.09952174 -0.24871193 0.09551992
-0.08884581 -0.06820532 0.063374475 0.054866683 0.017382028 0.09266824 0.016480401 0.1234543
0.06636811 -0.10948675 -0.02582973 0.09159818 -0.079445325 0.05284526 0.04759476 0.013284417
-0.17917515 0.007341235 -0.100012764 -0.04446344 0.00012173086 0.03390659 -0.1478033 -0.123571545
-0.007816127 -0.023583181 0.0008441331 0.00439765 -0.12364484 0.1118726 0.010400557 -0.048991438

A.bias f4 [4]
00000000: d954 99bc e28d cabd a4da dbbd 5636 d23c
-0.018717216 -0.09890343 -0.10735062 0.025660675
