duel_dqn_checkpoint.pth (torch_old, 28801 bytes, 7 tensors)

fc1.weight f4 [64, 37]
000000 9d 78 74 3c da 30 c0 bd fb 7b a4 bd ce c2 97 be
       0.014921335 -0.09384318 -0.0803146 -0.29640812
000010 cd aa e5 be c1 85 23 be 8e 89 30 bd 4b eb ff 3d
       -0.44856873 -0.15968992 -0.043099932 0.124960504
000020 03 5a 98 3b f6 95 15 bd 3f c4 aa be 33 86 e2 3c
       0.004649402 -0.036519967 -0.3335285 0.027651882
000030 37 0c f8 bd 6f ed b0 bd 22 b3 91 be 14 3b 1f 3d
       -0.12111705 -0.08639037 -0.2845698 0.0388747
000040 7f 94 08 bd 21 fc 50 bd 21 c2 e6 bd 91 68 c3 bd
       -0.033344742 -0.0510217 -0.11267496 -0.09541429
000050 43 bf 58 be 6f 98 19 3e 44 93 ea 39 bd 7f 52 3d
       -0.2116671 0.14999555 0.0004474168 0.051391352
000060 3f 0d 7e be b7 a9 eb bd a5 1d dd 3d 0f 27 a7 3c
       -0.2480974 -0.1150698 0.1079667 0.020404367
000070 d9 71 36 be 00 87 a8 3d 52 d0 28 be 67 f9 0e 3e
       -0.17816867 0.08228874 -0.16485718 0.13962327
000080 34 00 0d be 03 cb 37 be 75 02 a8 be 3f 72 fe bd
       -0.13769609 -0.17948537 -0.32814375 -0.124241345
000090 f6 ed 48 bd ae 23 44 3e df 8b 02 3e 78 45 8d 3d
       -0.049055062 0.19154236 0.12748669 0.06898016
0000a0 d1 39 bd bd 0b 32 a3 be 94 02 5d bd f8 5c 29 be
       -0.09239543 -0.31874117 -0.053957537 -0.16539371
0000b0 44 db 04 3d ea 08 18 be 5e 69 28 3e 61 7d 31 3d
       0.03243567 -0.1484715 0.16446444 0.04333246
0000c0 e4 39 61 bd 50 44 a4 3c 8f e4 ba 3d d3 a6 87 3d
       -0.05498685 0.020052105 0.09125625 0.06623616
0000d0 ff 27 50 3d dd f3 23 3e eb 0c c4 3d 39 a4 3f be
       0.050819393 0.16010995 0.095727764 -0.1871499
0000e0 eb f2 c0 bd e3 c5 c8 bd 35 63 64 be 57 67 d1 bc
       -0.09421333 -0.09803369 -0.2230347 -0.025561972
0000f0 63 13 13 3d 53 03 6c 3e 38 38 ac bc b3 9c 5a 3d
       0.03590716 0.23048143 -0.021022901 0.053372096
000100 aa ff 83 3d 0b 45 12 be 63 ee f5 bd 8d 2d 9e bd
       0.064452484 -0.1428415 -0.12008359 -0.07723532
000110 ab de 2d 3e ee 00 1a 3e a2 f2 4e 3c 59 b0 07 3d
       0.16979472 0.15039417 0.01263109 0.033127163
000120 b1 af 26 3d 49 f0 04 3d e9 76 a2 3c 38 d0 4c 3e
       0.040694896 0.032455716 0.019832091 0.20001304
000130 a2 b8 01 3e bc c5 f9 bd 07 7b 24 bd c1 e6 97 be
       0.12668088 -0.12195918 -0.04015639 -0.2966824
000140 60 2b 35 be ef e9 8b 3e 02 bb 32 3c f9 e7 a1 be
       -0.17692327 0.27326915 0.010908844 -0.31622294
000150 64 74 97 bd 76 05 1c bd 9f e5 a5 3d b3 68 0f be
       -0.073952466 -0.038091145 0.081004374 -0.14004783
000160 d7 24 6d 3e 98 7f 1b be b8 fe 23 3c 5a a0 b1 3d
       0.23158585 -0.15185392 0.01000946 0.08673163
000170 4d a4 5f 3e f9 f9 36 3d 1a 7d d7 bd ad ac 35 bd
       0.2184002 0.044671986 -0.10521908 -0.04435413
000180 79 f0 14 3d a3 c1 d2 bd 58 6a 81 3d 6d c0 1c be
       0.036362145 -0.102908395 0.063191116 -0.1530778
000190 61 0c 3d 3e 90 4d 21 3e 9c 63 54 bc ca 75 1c be
       0.18461753 0.15752244 -0.012963202 -0.15279308
0001a0 c0 28 80 be 51 40 54 bd 4c 9f 26 3d 58 08 1a be
       -0.2503109 -0.05181915 0.04067926 -0.15042245
0001b0 ad 04 6d be a7 91 73 3d 5e 0d 7e bd b4 c4 88 3e
       -0.23146315 0.059465077 -0.062024467 0.26712573
0001c0 36 37 ad be 80 26 21 3e b4 1c 10 be f8 68 b0 bf
       -0.33831185 0.15737343 -0.1407345 -1.3782034
0001d0 0c b9 a2 bd 92 e1 71 3c 01 9a 47 3d 9c 27 d4 3d
       -0.07945451 0.014763253 0.048730854 0.103591174
0001e0 83 52 a3 3d da f9 0b 3c 93 19 5b bd 1a e8 dc 3d
       0.07974722 0.008543456 -0.053491186 0.10786457
0001f0 ec db 37 be 56 ed c2 bd 96 96 4b be 32 24 fe bc
       -0.17954987 -0.095179245 -0.19881663 -0.031023119
000200 aa bf 07 3d bb 83 19 bd 05 e1 22 be 5c 00 1d 3d
       0.03314177 -0.037479144 -0.1590615 0.03833042
000210 f9 58 d9 bc e9 b5 97 3d 1a 74 46 bd b7 36 cf bd
       -0.026531683 0.074077435 -0.048450567 -0.10117858
000220 14 09 d9 bd 72 6f 02 bc c6 ba 18 3e d5 a8 0d 3e
       -0.10597435 -0.007961141 0.14914998 0.13833936
000230 f2 9c 8c 3d 40 dd d2 bc 99 58 c7 3d ad a7 6a 3d
       0.068658724 -0.025740266 0.097336955 0.057288814
000240 50 e3 99 bd e5 84 a2 bd 6b e2 39 3e 0f 17 09 bd
       -0.075140595 -0.07935504 0.18152778 -0.033469256
000250 37 e2 32 3d 29 c5 36 be 2f fe 4c be 63 09 dc bd
       0.043672767 -0.17848648 -0.20018838 -0.10743978
000260 28 34 c5 bd 5d 83 9c 3e 01 ce b8 3c 39 2b 75 be
       -0.09629089 0.30568972 0.022559168 -0.2394227
000270 c1 80 0a be 39 d4 90 bf 5c 03 37 bd 0b a7 98 bd
       -0.13525678 -1.1314765 -0.044680938 -0.07453736
000280 8a 0d 11 bc a7 6e 43 bc 94 fc 90 3c 9a 28 ed bd
       -0.008853326 -0.011928237 0.017698564 -0.1158001
000290 ab 82 c6 bd 51 98 b1 3d 57 7f 05 3c aa b8 9a 3e
       -0.09692892 0.0867163 0.008148036 0.30219012
0002a0 e5 95 fb bd 2e 5c f1 3c 87 46 0f 3e bf a5 1b bd
       -0.122844495 0.0294629 0.13991748 -0.037999865
0002b0 58 c5 88 3e 52 b8 b6 3d 56 a9 1a bd 4c 1f e4 3d
       0.2671306 0.08921875 -0.037759148 0.11138782
0002c0 9e a4 2f 3d d0 e1 03 3d c0 20 12 3d c3 b6 c0 3d
       0.0428816 0.032197773 0.035675764 0.09409859
0002d0 9a cf 7d 3d e7 8b ae 3d 21 08 91 3e 5b f0 37 3d
       0.061965562 0.08522778 0.28326514 0.044906955
0002e0 f4 a6 48 ba b2 11 af 3d fc 39 0c bd 15 d1 9c bc
       -0.00076542725 0.08548297 -0.034234986 -0.019142667
0002f0 a8 b4 c1 3c eb 59 bd 3d c6 80 b2 3e 4e 96 00 be
       0.023645714 0.09245666 0.3486387 -0.12557337
000300 f9 7c 02 be 63 9e c3 be 41 81 e1 bf 24 2b 56 bc
       -0.12742986 -0.38206777 -1.761757 -0.013071809
000310 b5 93 8d 3c 04 5a 6b ba f8 2f 35 bd dc a1 67 3d
       0.017282346 -0.0008977952 -0.0442352 0.056550846
000320 ac ff 0a 3d e1 71 a1 3d ea 0f dc 3a b3 d5 a8 bd
       0.033935234 0.07883049 0.0016789411 -0.08243885
000330 d2 db d7 bd 32 ab 1e 3e a0 fa 27 3d 4c ff e7 3d
       -0.10539974 0.15494993 0.0410105 0.11327991
000340 f1 69 cc 3d 46 70 ba 3d f4 72 d5 3c 13 c8 26 3e
       0.09981144 0.09103446 0.02605579 0.1628726
000350 d2 fe c6 3c 69 74 01 be 10 5d 81 be eb f8 92 3d
       0.02429143 -0.12642063 -0.25266314 0.071763836
000360 a8 73 1d 3d f6 16 6a bd 0c a6 a9 3d 3b 7c 36 be
       0.038440377 -0.057150804 0.08283624 -0.17820828
000370 09 3c ad bc 97 18 95 3c d1 f4 b7 bd d0 bd 7c bb
       -0.021146791 0.018200202 -0.08982242 -0.0038565286
000380 bc 99 86 3d d1 1a 15 be 47 94 de 3c cc 25 e9 bd
       0.06572291 -0.14561011 0.027170314 -0.11384162
000390 04 0f 08 bd 2e 80 90 bd b1 80 e0 bc c8 25 86 3e
       -0.033217445 -0.07055698 -0.027405115 0.262007
0003a0 51 0a a5 bc 87 29 45 3c 4b 88 c0 3d fa 56 d1 bb
       -0.02014652 0.012033827 0.09400996 -0.0063885422
0003b0 15 e0 db bd 13 04 5f be 94 1c 23 be 0b 79 3f 3e
       -0.107361 -0.21778898 -0.1592887 0.18698518
0003c0 21 b4 23 bd f1 48 aa 3b 6d 9e 2c be a9 7b 69 3d
       -0.039966706 0.0051966836 -0.1685731 0.057002697
0003d0 1b d0 6f 3d 96 8b 7b be a6 3c 67 3e 33 c7 9a be
       0.058548074 -0.24564967 0.2258173 -0.30230102
0003e0 e1 0d 3d 3b eb dd de 3d f7 44 1d be 45 f1 e8 3d
       0.0028847384 0.10882171 -0.15358339 0.113741435
0003f0 51 dc c7 3d d6 dc 1f be ab 70 20 be 94 b9 8b 3d
       0.09758819 -0.15611586 -0.1566798 0.068225056

fc1.bias f4 [64]
000000 d4 b9 40 3d 95 74 9c bc 3c 3d 1b be e5 26 58 bd
       0.04705222 -0.01909856 -0.15160078 -0.052771468
000010 fd 76 3b 3e 8e 57 26 3d fe d4 2a be 87 4f 52 3c
       0.18307109 0.040610842 -0.16682813 0.012836344
000020 0d 8d f9 3d a8 bc 20 be a7 21 f5 3d 5c 83 14 3e
       0.121851064 -0.15696967 0.11969309 0.14503235
000030 7c e9 d6 3d 2e ad c7 3d 60 34 a6 ba 9a e0 7c bd
       0.10493752 0.09749828 -0.0012680404 -0.061737634
000040 9a e7 ba bc 77 96 b9 3b 19 9f cf bc d2 3b 44 be
       -0.022815514 0.0056636888 -0.025344418 -0.19163445
000050 5d 31 2d be 4e e5 83 bc 01 ef 06 3c 9f b4 af bd
       -0.16913362 -0.016100552 0.008235694 -0.085793726
000060 f3 70 10 be 0e 34 95 3d 98 70 e9 3c b0 6f 80 3c
       -0.14105587 0.07285319 0.028496072 0.015678257
000070 1a bc ae 3d b6 e8 65 3d cb 56 61 bd eb e4 31 be
       0.08531971 0.056130134 -0.055014413 -0.17372482
000080 63 21 a1 3d 7e 09 5f bd 00 ec 18 be 93 32 02 3e
       0.07867696 -0.05445241 -0.14933777 0.12714605
000090 a9 5b 5d bd d4 d9 31 bc 79 b7 dd bd 24 d7 f5 bd
       -0.054042492 -0.010855157 -0.1082601 -0.120039254
0000a0 b4 dc b0 bd 58 86 09 bd 1f ab 98 bd c2 7e e5 3d
       -0.08635846 -0.033575386 -0.07454514 0.11205818
0000b0 a2 e6 76 3c c5 4a 2f bd db 5a 03 3e c7 3e bd bd
       0.015069636 -0.042795915 0.12827627 -0.092404895
0000c0 72 22 f2 bd 22 cd 78 bd b5 5c 0d be df 58 43 3d
       -0.11822976 -0.060742505 -0.13804896 0.047692176
0000d0 4c 25 93 bb 6b 93 60 bd 73 9b 57 be bc 3c e4 bc
       -0.00449053 -0.05482809 -0.21055393 -0.027860992
0000e0 66 65 29 3d 1d 99 b1 bd 1b 69 42 bc c8 a9 41 be
       0.041356467 -0.08671782 -0.011865879 -0.18912423
0000f0 b4 93 7d 3d b0 8e 1f 3c f5 26 5c 3c 1e b2 16 3d
       0.06190844 0.009738609 0.013437022 0.03679096

fc2.weight f4 [64, 64]
000000 67 23 09 3e f2 cd d7 3d 4c d0 2f 3e da 69 8a 3e
       0.13392411 0.10537328 0.17169303 0.27033883
000010 64 e0 96 bd 53 67 97 be c1 c1 18 bd 9c 70 d9 3c
       -0.07367018 -0.29571018 -0.037294153 0.026542954
000020 f0 eb 47 3d 77 12 dc bd 20 c5 a9 3d 39 7a 81 be
       0.048808992 -0.107457094 0.08289552 -0.2528856
000030 7b 91 1a bd 77 cb 39 3e 7d 7a 4c bd cb c3 66 bd
       -0.037736397 0.18144022 -0.0499215 -0.056339066
000040 ee 65 d9 bc 4a 52 fc bd 66 fa 1e 3e 05 04 b0 bd
       -0.026537862 -0.12320383 0.15525207 -0.08594517
000050 13 ae 94 bd 2c b6 86 be 57 87 17 3f b2 52 79 be
       -0.072597645 -0.2631086 0.5919089 -0.24347952
000060 f9 c3 9a be c2 4a c6 bd 3a be 53 3d b9 7b a4 be
       -0.3022764 -0.09682228 0.051695086 -0.32125643
000070 bc 80 ab 3d 69 f3 8d 3d e1 8b 58 3e b6 5b 03 be
       0.083741635 0.069311924 0.2114711 -0.12827954
000080 52 32 ab 3d e7 87 9f 3d c4 0a f1 3d 3d 00 f8 3d
       0.08359207 0.07789593 0.117696315 0.121094204
000090 08 31 73 be 0b ec b0 3d 5a 37 4f 3e fd 1d 80 be
       -0.23749173 0.086387716 0.20235959 -0.2502288
0000a0 48 4c 69 bd 31 e2 83 bd ea b0 3d 3e f4 c6 13 bd
       -0.056957513 -0.06439627 0.18524519 -0.03607841
0000b0 96 f8 42 3e 6c 64 7f bd 5a b0 04 3d 2d c6 62 3d
       0.1904014 -0.06235163 0.032394744 0.055364776
0000c0 e7 5f e5 bd 7b dc f3 bd df 9e 0e 3d ff cd e8 bd
       -0.111999325 -0.11907288 0.03481948 -0.11367416
0000d0 3e d7 e8 bc ef 7a ca bd eb 69 94 bd 94 f3 7b bd
       -0.028422948 -0.09886729 -0.07246765 -0.06151159
0000e0 0c 3a 18 be 27 92 16 bd 8c 50 0a 3c a3 d3 e8 bb
       -0.14865893 -0.036760475 0.008442055 -0.007105307
0000f0 8a a0 48 ba b1 63 7b 3e 43 96 4a bd ee 3c 11 be
       -0.0007653317 0.24549748 -0.049459707 -0.14183399
000100 7f f6 d8 3c bf d2 18 3d af 63 55 be a7 cb 88 3d
       0.026484726 0.037310358 -0.20838808 0.066794686
000110 a4 6b ee 3d 3d 83 69 3d e7 f1 97 bd 0e 93 04 3e
       0.116416246 0.057009924 -0.07419186 0.12946722
000120 a2 f9 19 3c 51 5a 6f bd bd ca 72 bd eb a3 31 3e
       0.009397896 -0.05843574 -0.059275378 0.17347686
000130 52 4e 8a bd d4 d2 0f 3e 30 c2 3b be 48 92 d2 3d
       -0.0675322 0.14045268 -0.18335795 0.10281807
000140 23 a2 1e 3e f4 33 77 3c 9c 01 27 bc 82 ec 61 3c
       0.15491538 0.01508807 -0.010193255 0.013789298
000150 39 5c d7 3d 7d 27 75 3d ac a3 25 bd e8 b0 4c 3d
       0.10515637 0.059852112 -0.040439293 0.0499734
000160 ad 72 46 bd 45 65 87 bd 29 fe 57 be b4 5b 88 3d
       -0.048449207 -0.066111125 -0.21093048 0.06658116
000170 81 47 8b 3e 25 53 0e bf d8 10 ae 3d f8 bb e5 bd
       0.2720299 -0.5559562 0.084993064 -0.11217493
000180 00 7d 9c 3c 25 88 af 3b 92 d5 4a be 17 69 81 bd
       0.019102573 0.005356806 -0.19808033 -0.063188724
000190 7e 1c ab bb b5 b2 9f 3d 8a 09 32 3e 72 5b d7 bd
       -0.0052219024 0.077977575 0.17386451 -0.10515489
0001a0 bc 4b 30 be 05 91 a4 3d cc 46 a9 be d1 a4 97 3d
       -0.1721639 0.08035473 -0.33061826 0.07404483
0001b0 7b 09 83 be 45 08 d2 bd ee 13 01 be 99 72 2d 3d
       -0.2559317 -0.102554835 -0.12605259 0.042345617
0001c0 47 d3 89 bb dd 9d 2b bc 8c 48 a5 bd 9c c4 3e 3e
       -0.0042060944 -0.010474649 -0.08070478 0.18629688
0001d0 37 60 d9 bd 0b 14 ae 3d 36 6f 01 be 4d b1 25 3b
       -0.10614055 0.08499917 -0.1264008 0.0025282681
0001e0 ff 10 80 3b 11 50 8b bd 93 48 46 3e a7 57 f5 bd
       0.003908276 -0.06802381 0.19363622 -0.11979609
0001f0 13 97 b4 bc 9d 37 6e bd b8 c5 bb 3d 6e b8 b0 3d
       -0.022044694 -0.058158506 0.09168571 0.08628927
000200 c7 a8 6b bd f8 0e 8a bc 87 1d 11 3e b0 71 9c bd
       -0.057534005 -0.01685284 0.1417142 -0.07638872
000210 43 de 03 3e 76 83 29 3d a7 87 1e bb b1 c7 eb 3c
       0.12877755 0.041385137 -0.0024189742 0.028781744
000220 b2 a5 0b 3e 38 30 64 3d ff c3 63 3d 22 75 38 3e
       0.13637426 0.055710047 0.05560684 0.18013433
000230 2e 81 85 3c 3a 4a 5c 3e 0a 34 be 3d 9b 40 7e 3d
       0.01629695 0.2151269 0.092872694 0.06207333
000240 47 e4 9f bd 64 1a 73 3d 97 87 32 3d 81 a8 1d bd
       -0.07807212 0.05935134 0.04358634 -0.038490776
000250 d5 c6 50 bd 26 0b f6 3d 40 c3 1b 3e 4f 2a 06 3d
       -0.05097087 0.12013845 0.152112 0.032755192
000260 e2 d9 62 bd 2d 31 cf 3d 28 04 51 3e de ac c1 3e
       -0.05538357 0.101168014 0.20411742 0.378272
000270 37 bc d3 bb 88 08 89 3e 6b cf 62 bb 7f 23 d6 3c
       -0.006461646 0.2676432 -0.0034608494 0.026139973
000280 6b 00 ac bd d3 0c b3 bd 3c 0d fa bd e6 bd 02 3e
       -0.08398517 -0.087426804 -0.122095555 0.12767753
000290 ef 4b 3f 3e 80 ff 05 3e d4 99 85 3e cf 9b 0c 3d
       0.1868131 0.13085747 0.26093924 0.03432828
0002a0 3c 3d 1f 3e f1 a0 13 3e 00 01 07 be 08 f0 ab bc
       0.15550703 0.14416863 -0.13183975 -0.02098848
0002b0 f0 f8 b2 3d 4a 6d b2 3d 9f 42 9d 3e 4d 0c c3 bc
       0.08738887 0.087122515 0.3071489 -0.023809576
0002c0 e8 7a 2b 3d 40 06 43 bd 6b f2 c3 bc ed 04 48 3e
       0.04186526 -0.047613382 -0.023919305 0.19533129
0002d0 5c fe 1b 3d 88 80 6c 3d c6 bf 8c bd 4e 7f 06 3c
       0.038084373 0.057739764 -0.068725154 0.008209063
0002e0 b1 51 07 3d e4 02 5c bd 1d 35 32 3e a2 f8 1a 3e
       0.03303689 -0.053713694 0.17403074 0.15133908
0002f0 31 c8 a4 3d 47 bc fc bc 69 bb de 3d 1d db 16 3e
       0.08045996 -0.030851496 0.108755894 0.14732023
000300 c4 9d 8f bd 48 76 bf bd 73 c4 db 3c 6c 1a 82 be
       -0.07012513 -0.09348732 0.026827073 -0.25410783
000310 c0 36 9a bd 2c da 14 be d5 22 ba bd b1 b4 76 3d
       -0.07529974 -0.14536351 -0.09088675 0.060230915
000320 76 36 15 be e7 13 e3 bc e7 fb 40 3c 81 de f3 3e
       -0.14571556 -0.027719451 0.011778808 0.47630695
000330 cb 07 b8 bd 5d d6 c0 bc 8d 64 1d bd 47 7c 4b bd
       -0.089858614 -0.023539716 -0.03842597 -0.049679067
000340 d4 35 2d be 3d 22 1b bd 0c 75 50 bc d7 44 26 3e
       -0.16915065 -0.03787445 -0.012723219 0.16237198
000350 95 5b b5 bd df 55 1f 3e 71 66 30 bf 4c e9 d9 3c
       -0.088553585 0.15560101 -0.68906313 0.026600502
000360 55 bd c3 3c bf ec 01 3e 5c 14 56 3d 01 91 d3 bc
       0.023893991 0.12687968 0.05226551 -0.02582598
000370 c5 fc a1 3c f7 4c ce be 6d 94 35 3e 04 07 da 3d
       0.01977385 -0.40293095 0.17732401 0.106458694
000380 91 0a b5 bc a7 d5 fc 3c 4d 39 3b 3d 5b 23 5e 3d
       -0.022099765 0.030863596 0.045708943 0.054232936
000390 91 2d 57 bd 3b 12 d8 bc af f8 81 3e b1 91 1f bd
       -0.05253369 -0.02637588 0.25385043 -0.0389573
0003a0 0f 68 a9 bd 65 24 00 3e 38 00 a4 3b b6 72 e6 3c
       -0.08271801 0.12513883 0.005004909 0.02813087
0003b0 3d 5d 20 bd ee 00 82 bd 30 1e 98 3d e4 c4 d2 bd
       -0.03915142 -0.063478336 0.07427633 -0.1029146
0003c0 4b d3 1d bd 3d 4a a3 bd 1e ec e2 bd 70 3e c6 bd
       -0.038531583 -0.07973144 -0.11080192 -0.09679878
0003d0 ce 9a 89 3d c5 a8 ec 3d 2b 32 37 be bd da 22 bb
       0.0671898 0.11555628 -0.17890231 -0.0024849616
0003e0 22 5b 02 be 30 92 a2 bd eb ee 5e bd 2d ad 0a 3e
       -0.12730077 -0.07938039 -0.05442707 0.13542624
0003f0 06 3c 86 bd d9 38 e0 3d ad 37 bb bc b7 7c 88 3d
       -0.06554417 0.10948343 -0.022853697 0.066644125

fc2.bias f4 [64]
000000 cd 25 94 ba 91 f9 09 3c 1b 19 8e 3e 2c de 86 3b
       -0.0011302769 0.008421318 0.2775353 0.0041158404
000010 49 be f7 3d 1c d0 11 be 7f 04 ed bd 71 28 f6 ba
       0.12096841 -0.14239544 -0.11573123 -0.0018780363
000020 73 b3 71 3d 95 e0 96 3d 1c cd ee bd 70 a6 82 3d
       0.059009027 0.073670544 -0.11660215 0.06379402
000030 5f d5 4b bc ec f6 5b bd 0a c2 e8 bd 7f 64 2a 3d
       -0.012441008 -0.05370228 -0.11365135 0.041599747
000040 a4 a1 20 3d 05 84 2a bd 80 0d c9 3c f2 be 8c 3e
       0.039216653 -0.04162981 0.02454257 0.2748943
000050 19 4d cb 3c fd e0 8a 3e 69 4f 8d bd d9 48 e9 bd
       0.024817036 0.27124777 -0.06899912 -0.11390848
000060 2f 09 06 be 81 1d 8c bd 7a 56 9d 3d 05 69 01 3b
       -0.13089441 -0.06841565 0.0768251 0.0019746434
000070 5b 04 c5 3c 0d f2 8b 3d ea ef cb 3d 2f f6 32 bd
       0.024049928 0.06833277 0.09957869 -0.04369181
000080 d6 33 69 3e 25 6a 4f 3d 53 d1 91 3c 8d 71 66 bd
       0.2277368 0.050638337 0.017800009 -0.056260634
000090 57 02 c4 bd a4 c2 f3 bd ba a8 81 bc 35 27 05 3d
       -0.09570759 -0.11902359 -0.015827525 0.032508094
0000a0 47 55 e0 bd b9 41 19 3e fc 47 95 bc e0 07 dd bd
       -0.10953765 0.14966477 -0.018222801 -0.10792518
0000b0 5e 05 2f 3b 1e dc c9 ba 0a b6 c9 bc 0e e0 1d be
       0.002670608 -0.0015400683 -0.024622936 -0.15417501
0000c0 db 97 fc 3c 1c 97 1c be a4 63 13 be 3b 24 4b 3e
       0.03083413 -0.15292019 -0.14393479 0.1983804
0000d0 94 82 70 bd 0f 69 f2 bd 16 5c cc 3d d8 4d 29 be
       -0.05871828 -0.118364446 0.099785015 -0.16533601
0000e0 03 5b c3 bd a1 5d 1f be c6 62 38 3e 83 a9 05 bd
       -0.095388435 -0.1556306 0.18006429 -0.032632362
0000f0 fb 3f 50 3c 77 77 6a 3d c9 fa be 3d 72 78 c1 bd
       0.012710567 0.057242837 0.09325177 -0.09446801

V.weight f4 [1, 64]
000000 91 18 6d bc 3e ae 25 3e 85 88 49 3e 5e 04 77 3e
       -0.014471189 0.1617975 0.19680984 0.2412276
000010 f9 7c 91 3e 51 18 9c be 9a c4 af 3d 71 48 81 be
       0.2841566 -0.30487302 0.08582421 -0.2525058
000020 e0 56 1d 3e 41 9a 19 3e 76 bf 88 be eb 05 26 3e
       0.15365171 0.1500025 -0.26708573 0.16213195
000030 7d f6 77 3e 60 09 da 3d 5b d8 48 bc 66 f1 55 3e
       0.24215122 0.106463194 -0.012258614 0.20892867
000040 be fb 50 3e 98 b6 d1 3d 2a e4 16 3e 5e d9 5d 3e
       0.20408532 0.10239905 0.14735475 0.2166495
000050 66 38 82 3d 39 93 de 3d 83 de 03 3e ef d2 93 bd
       0.063584134 0.10867924 0.1287785 -0.07217967
000060 aa 7d 3a bd fd de 23 be 19 60 f2 3d 3f 28 a6 be
       -0.04553 -0.16003032 0.118347354 -0.3245258
000070 5c 9d 2b 3e 0f fb 58 3d d6 58 b8 be 46 b3 55 3e
       0.16759247 0.052973803 -0.36005276 0.20869169
000080 ef db 46 3e f6 3e c8 3d 5d 69 88 3e ae 35 05 be
       0.19419836 0.09777634 0.26642886 -0.13008758
000090 a0 8c 82 3d 2f a6 8a bc b0 48 d5 3d 25 7c 83 3e
       0.06374478 -0.016924946 0.10414255 0.25680652
0000a0 d5 3f 66 3e d3 2c 56 3d a4 eb 50 be ee 4c 7f 3d
       0.22485287 0.05228884 -0.2040239 0.062329225
0000b0 fc d9 83 bd 5a 75 a2 3d db 7c 13 3e 01 91 a5 3d
       -0.064380616 0.07932539 0.14403097 0.08084298
0000c0 a3 7d 65 be ed 65 3b 3e f1 84 c6 bc 2f 78 26 3e
       -0.22411208 0.183006 -0.024233313 0.16256784
0000d0 0a dd c6 3e a9 e1 62 bd 10 0c 32 3e 73 42 a0 3c
       0.38840514 -0.055390988 0.17387414 0.019562935
0000e0 4b eb bf bb 33 c1 cf bd 54 a1 5d 3e e4 96 8e 3e
       -0.0058569065 -0.10144272 0.21643573 0.27849495
0000f0 5c 06 de bd 0f bd c1 3d 4c be 26 3e 84 51 ba bc
       -0.10841057 0.09459888 0.1628353 -0.022743948

A.weight f4 [4, 64]
000000 b9 de 3a be 37 f9 2c 3c 9c 4d 46 bd 7b 76 32 3e
       -0.18249024 0.010557464 -0.048413858 0.17428009
000010 10 b1 cf 3d 58 a2 6d 3e 0b 76 60 3c a2 15 ae be
       0.10141194 0.2320646 0.013700019 -0.3400088
000020 21 93 73 bd b4 75 45 3e 8d 63 d4 3d 88 ed 54 be
       -0.059466485 0.19283181 0.1037055 -0.20793736
000030 71 90 44 3e 26 e1 30 bc e0 f3 22 3d 99 a7 d9 bc
       0.19195725 -0.010795867 0.03978336 -0.026569175
000040 10 16 a8 3c 78 fb f9 bd 18 5a d8 bc 57 24 4f 3d
       0.020518333 -0.12206167 -0.026410148 0.050571766
000050 e8 85 82 bc a0 ed b5 bd a0 0f f9 3c 54 93 0e be
       -0.015932992 -0.08883214 0.030402958 -0.13923389
000060 d6 d4 47 bd d1 39 b7 bd da 27 04 3e 2a dd 4f bd
       -0.04878696 -0.089465745 0.12905827 -0.050748028
000070 da 78 dc 3b d9 38 9f 3d bb 63 e3 bd dc 2e 15 3c
       0.006728274 0.07774515 -0.111030065 0.00910541
000080 67 12 88 bd 90 f4 84 bd 1b 41 1c 3e 0b 3b 9d bc
       -0.06644135 -0.06491959 0.15259211 -0.019193193
000090 f4 79 a7 3d d7 c7 ba 3d c5 8a 0f be bf 23 7a 3c
       0.081775576 0.09120148 -0.1401778 0.015267312
0000a0 f4 7f 47 3e 61 a4 42 be d3 a6 33 3e 7c 44 43 be
       0.19482404 -0.19008018 0.17544107 -0.19069093
0000b0 8d b0 d0 bd bc ef 4b bd a3 5e 07 be 91 45 7f bd
       -0.101899244 -0.049789175 -0.13219695 -0.062322203
0000c0 c3 e1 9c be fa 99 7e 3c 26 9f 99 bd e7 7a 77 3e
       -0.30640993 0.015539641 -0.07501058 0.24167977
0000d0 c2 f0 fd bd 2e 78 81 3d fb f9 0d bd 04 c0 4a bd
       -0.123994365 0.063217506 -0.034662228 -0.049499527
0000e0 30 11 c2 bd 93 a4 0b 3c 45 88 1f be 47 b3 07 3e
       -0.094759345 0.008523124 -0.15579326 0.13251983
0000f0 b0 7b 64 be 17 93 cd bd 9b 13 8d 3d d5 86 00 3d
       -0.22312808 -0.10037821 0.06888505 0.031378586
000100 31 82 8f 3e 55 03 57 3d 8f 13 40 bd 71 1f b6 3d
       0.28029016 0.052493412 -0.046893653 0.08892716
000110 65 43 20 3e 0a 80 4d 3e 93 a8 4d bc c6 5c 6f 3d
       0.15650709 0.20068374 -0.012552398 0.058438085
000120 09 21 12 3c 42 8c 13 3e f1 85 7c 3d 40 5f 7c 3e
       0.008919009 0.14408973 0.061651174 0.2464571
000130 8a 75 c2 3c 2f 9b 52 3d 96 3f c0 3d 56 d8 0e 3d
       0.023737688 0.051417526 0.09387128 0.034874283
000140 6d 46 dc bd a6 f1 25 be da 55 58 be e4 f7 9f bd
       -0.1075562 -0.16205463 -0.211265 -0.07810953
000150 92 13 16 3d 69 bd ff bc a6 40 a7 3d 8e c6 16 bc
       0.036639757 -0.031218247 0.081666276 -0.009202613
000160 e3 46 23 3c a4 a9 fb 3c b8 db 35 3e 90 e0 01 3e
       0.009965631 0.03072054 0.17759597 0.1268332
000170 97 9a eb 3d bf 48 48 bc a5 72 a9 bb 10 e4 35 3d
       0.11504095 -0.012224375 -0.0051711374 0.04440695
000180 06 5c 15 bd c2 0c 4c 3e 87 d0 ea 3d bd 0f 64 3d
       -0.036464714 0.19926742 0.11465555 0.05567907
000190 df 6c 28 be 5b 24 aa 3d 5d b3 5e bd 60 26 1a 3e
       -0.16447781 0.083077155 -0.054370273 0.15053701
0001a0 da 10 2e be 1f 46 c4 bc c2 88 03 be b7 ce e9 bd
       -0.16998616 -0.023959218 -0.12845138 -0.11416381
0001b0 b5 f0 93 bd e4 8d c5 bc 37 86 99 bd e6 ae d8 3c
       -0.072236456 -0.02411551 -0.074963026 0.026450586
0001c0 53 53 a7 3d 82 a4 34 bd 30 f1 81 3d 25 28 28 bd
       0.0817019 -0.0441022 0.06344831 -0.04105391
0001d0 ea 5c 6a 3e 73 4f 84 3d 4a e5 35 3d 3a 5b 76 bc
       0.22887006 0.06460466 0.04440812 -0.015036399
0001e0 4b ad 34 be 1f 1f 3a bd 85 69 6a bd 7a 8f 92 bd
       -0.17644231 -0.045439836 -0.057229538 -0.07156272
0001f0 79 5d 21 be db 44 46 be 30 63 41 3d 24 d0 ef 3d
       -0.15758313 -0.19362204 0.047213733 0.117096215
000200 94 39 3c be 08 87 3d 3d fb c5 63 bd 31 bd 66 bc
       -0.1838134 0.046271354 -0.05560873 -0.014083193
000210 9d de fa 3d 49 a5 7b be c7 e1 02 3c e8 b5 b4 3c
       0.12249491 -0.2457477 0.0079884 0.022059396
000220 ef 7e cd 3d f7 8a 02 be 19 58 16 be 3c a1 65 be
       0.10033976 -0.12748323 -0.14682044 -0.22424787
000230 d7 3a 20 3e 25 6c ca 3d 04 2b 25 bd e8 ca a2 3e
       0.15647446 0.09883908 -0.040324226 0.3179543
000240 17 ea ad 3d c4 90 65 3d 90 c4 c2 3d 1c 41 b3 bd
       0.08491915 0.056046262 0.095101476 -0.08752653
000250 96 50 80 bc 63 36 47 3d ec 77 50 3e 78 01 27 ba
       -0.015663426 0.04863585 0.20358247 -0.00063707633
000260 74 72 44 bd 5a e8 57 be 84 f3 3f bd 67 14 73 be
       -0.047960714 -0.21084729 -0.046863094 -0.23738252
000270 84 19 dd bb 7c 22 d2 3d cf 65 94 3d 05 a8 94 bd
       -0.0067474265 0.102604836 0.07245981 -0.0725861
000280 f0 ba 91 bd a5 51 2f bc 7e 60 f2 bc a8 f2 05 be
       -0.071157336 -0.010700618 -0.029587027 -0.13080847
000290 02 e3 a1 bd 0f 2b 06 be 9c 32 40 3e d8 e9 27 be
       -0.079046264 -0.13102363 0.18769306 -0.16397798
0002a0 de 44 65 3c 38 62 27 bd 20 90 c0 bd 81 bd 01 3e
       0.01399347 -0.040865153 -0.0940249 0.12669946
0002b0 89 50 ec bc c0 7a af 3d f7 aa 38 3d 7b fe d2 bc
       -0.028846996 0.085683346 0.04508492 -0.025756111
0002c0 3e f7 9d bd bf 3f 91 3e c5 c0 6b bb 3b 96 de bd
       -0.07713173 0.28368947 -0.0035973054 -0.10868498
0002d0 22 ba 63 be da 87 8e 3d d8 ba 56 3e 1e dd 9a bd
       -0.22238973 0.069595054 0.20969713 -0.07561706
0002e0 87 0a 43 bd 97 d5 1f bd 77 60 23 bc 56 48 e4 bd
       -0.04761746 -0.039022055 -0.0099717295 -0.111466095
0002f0 8b a2 ec bc 11 9c 10 be ea c4 16 bc e1 c7 9e 3d
       -0.0288861 -0.14122035 -0.009202221 0.077529676
000300 a2 81 c0 3d c2 30 a5 bd 02 b3 66 bd 36 94 80 3e
       0.093997255 -0.080659404 -0.05632306 0.25113076
000310 83 cd b1 be 69 b5 dc bd c0 3d 2b bd 2f e2 97 bd
       -0.34727105 -0.10776789 -0.041806936 -0.07416188
000320 81 05 94 3d ea 1d b3 bd e4 a6 f3 bd 90 e8 94 be
       0.07227612 -0.0874594 -0.11897066 -0.2908368
000330 bb 43 60 3c a1 1e 93 bd c6 03 fe 3d c1 c7 40 be
       0.013688023 -0.071835764 0.124030635 -0.188262
000340 f2 e9 39 3e 56 bc 10 3e f3 9f 1c 3e ee 40 c5 bd
       0.1815565 0.14134344 0.15295391 -0.09631525
000350 ac f6 d8 3d 4e 5d 22 be 99 ef 8c bd eb e3 1f 3d
       0.10593924 -0.15855905 -0.06881637 0.03903572
000360 2f 94 c7 bd b0 e8 17 bd 05 98 1c be d0 2f 11 3e
       -0.09745061 -0.037087142 -0.15292366 0.14178395
000370 e7 6e d7 3d ac 98 26 be 0b 43 4f be e0 58 1f 3e
       0.105192 -0.16269177 -0.20240419 0.15561247
000380 25 b7 75 bd 74 bf 89 be 81 73 36 3e 7d 68 ff bb
       -0.059989113 -0.2690388 0.17817499 -0.0077944384
000390 c4 32 94 3d 02 41 6e 3e 96 35 a9 bd af e7 a2 3e
       0.07236245 0.23266986 -0.08262174 0.31817386
0003a0 5e 51 58 bd da e4 12 be df 9f f6 bd eb 13 28 3e
       -0.052811973 -0.14345112 -0.12042212 0.16413848
0003b0 90 fd 8a be 8c b2 c3 3d aa aa 20 3c b9 28 9c bd
       -0.27146578 0.095555395 0.0098063145 -0.07624955
0003c0 b9 77 e2 bd e9 68 c8 bd 78 cc 21 3d 61 c6 a9 bd
       -0.110579915 -0.09785635 0.039501637 -0.08289791
0003d0 aa 51 00 3e 23 9f 96 3d 0d 0c 01 be ac d9 da bd
       0.12531152 0.07354572 -0.12602253 -0.10686049
0003e0 4f ca 34 3d c4 6b 83 bd 95 45 75 bc 9f dd 18 3e
       0.04413825 -0.06417039 -0.014970203 0.14928292
0003f0 68 55 74 be aa 6d 20 3e 18 99 58 bd 0a 7f a8 be
       -0.23860705 0.15666834 -0.052880377 -0.32909423

A.bias f4 [4]
000000 a3 5e 45 bd 40 90 cd bd 6f fa c8 bd 0b 85 40 3d
       -0.048185956 -0.10037279 -0.098133914 0.04700188
